### TAG=pos22 torch=/tmp/scratch_space/pytorch-rsqrt-verify-pos22/torch/__init__.py
[DEBUG]:Output code: 
# AOT ID: ['0_inference']
from ctypes import c_void_p, c_long, c_int
import torch
import math
import random
import os
import tempfile
from math import inf, nan
from cmath import nanj
from torch._inductor.hooks import run_intermediate_hooks
from torch._inductor.utils import maybe_profile
from torch._inductor.codegen.memory_planning import _align as align
from torch import device, empty_strided
from torch._inductor.async_compile import AsyncCompile
from torch._inductor.select_algorithm import extern_kernels
from torch._C._dynamo.guards import copy_if_misaligned
import triton
import triton.language as tl
from torch._inductor.runtime.triton_heuristics import start_graph, end_graph
from torch._C import _cuda_getCurrentRawStream as get_raw_stream

aten = torch.ops.aten
inductor_ops = torch.ops.inductor
_quantized = torch.ops._quantized
assert_size_stride = torch._C._dynamo.guards.assert_size_stride
assert_alignment = torch._C._dynamo.guards.assert_alignment
empty_strided_cpu = torch._C._dynamo.guards._empty_strided_cpu
empty_strided_cpu_pinned = torch._C._dynamo.guards._empty_strided_cpu_pinned
empty_strided_cuda = torch._C._dynamo.guards._empty_strided_cuda
empty_strided_xpu = torch._C._dynamo.guards._empty_strided_xpu
empty_strided_mtia = torch._C._dynamo.guards._empty_strided_mtia
reinterpret_tensor = torch._C._dynamo.guards._reinterpret_tensor
alloc_from_pool = torch.ops.inductor._alloc_from_pool
async_compile = AsyncCompile()
empty_strided_p2p = torch._C._distributed_c10d._SymmetricMemory.empty_strided_p2p


# kernel path: /tmp/torchinductor_dev/dz/cdzptqjo24gpgs5agben6pzrceyqv6dd223nzphbjwm7tafp2pe3.py
# Topologically Sorted Source Nodes: [convert_element_type, unsqueeze, unsqueeze_1, sub, convert_element_type_1, add, sqrt, reciprocal, mul, unsqueeze_2, unsqueeze_3, mul_1, unsqueeze_4, unsqueeze_5, mul_2, unsqueeze_6, unsqueeze_7, add_1, convert_element_type_2, convert_element_type_3, unsqueeze_8, unsqueeze_9, sub_1, convert_element_type_4, add_2, sqrt_1, reciprocal_1, mul_3, unsqueeze_10, unsqueeze_11, mul_4, unsqueeze_12, unsqueeze_13, mul_5, unsqueeze_14, unsqueeze_15, add_3, convert_element_type_5, add_4, relu], Original ATen: [prims.convert_element_type, aten.unsqueeze, aten.sub, aten.add, aten.sqrt, aten.reciprocal, aten.mul, aten.relu]
# Source node to ATen node mapping:
#   add => add
#   add_1 => add_1
#   add_2 => add_2
#   add_3 => add_3
#   add_4 => add_4
#   convert_element_type => convert_element_type
#   convert_element_type_1 => convert_element_type_1
#   convert_element_type_2 => convert_element_type_2
#   convert_element_type_3 => convert_element_type_3
#   convert_element_type_4 => convert_element_type_4
#   convert_element_type_5 => convert_element_type_5
#   mul => mul
#   mul_1 => mul_1
#   mul_2 => mul_2
#   mul_3 => mul_3
#   mul_4 => mul_4
#   mul_5 => mul_5
#   reciprocal => reciprocal
#   reciprocal_1 => reciprocal_1
#   relu => relu
#   sqrt => sqrt
#   sqrt_1 => sqrt_1
#   sub => sub
#   sub_1 => sub_1
#   unsqueeze => unsqueeze
#   unsqueeze_1 => unsqueeze_1
#   unsqueeze_10 => unsqueeze_10
#   unsqueeze_11 => unsqueeze_11
#   unsqueeze_12 => unsqueeze_12
#   unsqueeze_13 => unsqueeze_13
#   unsqueeze_14 => unsqueeze_14
#   unsqueeze_15 => unsqueeze_15
#   unsqueeze_2 => unsqueeze_2
#   unsqueeze_3 => unsqueeze_3
#   unsqueeze_4 => unsqueeze_4
#   unsqueeze_5 => unsqueeze_5
#   unsqueeze_6 => unsqueeze_6
#   unsqueeze_7 => unsqueeze_7
#   unsqueeze_8 => unsqueeze_8
#   unsqueeze_9 => unsqueeze_9
# Graph fragment:
#   %arg1_1 : Tensor "bf16[128, 64, 112, 112][802816, 1, 7168, 64]cuda:0" = PlaceHolder[target=arg1_1]
#   %arg0_1 : Tensor "bf16[64][1]cuda:0" = PlaceHolder[target=arg0_1]
#   %arg2_1 : Tensor "bf16[64][1]cuda:0" = PlaceHolder[target=arg2_1]
#   %arg3_1 : Tensor "bf16[64][1]cuda:0" = PlaceHolder[target=arg3_1]
#   %arg4_1 : Tensor "bf16[64][1]cuda:0" = PlaceHolder[target=arg4_1]
#   %arg6_1 : Tensor "bf16[128, 64, 112, 112][802816, 1, 7168, 64]cuda:0" = PlaceHolder[target=arg6_1]
#   %arg5_1 : Tensor "bf16[64][1]cuda:0" = PlaceHolder[target=arg5_1]
#   %arg7_1 : Tensor "bf16[64][1]cuda:0" = PlaceHolder[target=arg7_1]
#   %arg8_1 : Tensor "bf16[64][1]cuda:0" = PlaceHolder[target=arg8_1]
#   %arg9_1 : Tensor "bf16[64][1]cuda:0" = PlaceHolder[target=arg9_1]
#   %add_4 : Tensor "bf16[128, 64, 112, 112][802816, 1, 7168, 64]cuda:0" = PlaceHolder[target=add_4]
#   %convert_element_type : Tensor "f32[64][1]cuda:0"[num_users=1] = call_function[target=torch.ops.prims.convert_element_type.default](args = (%arg0_1, torch.float32), kwargs = {})
#   %unsqueeze : Tensor "f32[64, 1][1, 1]cuda:0"[num_users=1] = call_function[target=torch.ops.aten.unsqueeze.default](args = (%convert_element_type, -1), kwargs = {})
#   %unsqueeze_1 : Tensor "f32[64, 1, 1][1, 1, 1]cuda:0"[num_users=1] = call_function[target=torch.ops.aten.unsqueeze.default](args = (%unsqueeze, -1), kwargs = {})
#   %sub : Tensor "f32[128, 64, 112, 112][802816, 1, 7168, 64]cuda:0"[num_users=1] = call_function[target=torch.ops.aten.sub.Tensor](args = (%arg1_1, %unsqueeze_1), kwargs = {})
#   %convert_element_type_1 : Tensor "f32[64][1]cuda:0"[num_users=1] = call_function[target=torch.ops.prims.convert_element_type.default](args = (%arg2_1, torch.float32), kwargs = {})
#   %add : Tensor "f32[64][1]cuda:0"[num_users=1] = call_function[target=torch.ops.aten.add.Tensor](args = (%convert_element_type_1, 1e-05), kwargs = {})
#   %sqrt : Tensor "f32[64][1]cuda:0"[num_users=1] = call_function[target=torch.ops.aten.sqrt.default](args = (%add,), kwargs = {})
#   %reciprocal : Tensor "f32[64][1]cuda:0"[num_users=1] = call_function[target=torch.ops.aten.reciprocal.default](args = (%sqrt,), kwargs = {})
#   %mul : Tensor "f32[64][1]cuda:0"[num_users=1] = call_function[target=torch.ops.aten.mul.Tensor](args = (%reciprocal, 1), kwargs = {})
#   %unsqueeze_2 : Tensor "f32[64, 1][1, 1]cuda:0"[num_users=1] = call_function[target=torch.ops.aten.unsqueeze.default](args = (%mul, -1), kwargs = {})
#   %unsqueeze_3 : Tensor "f32[64, 1, 1][1, 1, 1]cuda:0"[num_users=1] = call_function[target=torch.ops.aten.unsqueeze.default](args = (%unsqueeze_2, -1), kwargs = {})
#   %mul_1 : Tensor "f32[128, 64, 112, 112][802816, 1, 7168, 64]cuda:0"[num_users=1] = call_function[target=torch.ops.aten.mul.Tensor](args = (%sub, %unsqueeze_3), kwargs = {})
#   %unsqueeze_4 : Tensor "bf16[64, 1][1, 1]cuda:0"[num_users=1] = call_function[target=torch.ops.aten.unsqueeze.default](args = (%arg3_1, -1), kwargs = {})
#   %unsqueeze_5 : Tensor "bf16[64, 1, 1][1, 1, 1]cuda:0"[num_users=1] = call_function[target=torch.ops.aten.unsqueeze.default](args = (%unsqueeze_4, -1), kwargs = {})
#   %mul_2 : Tensor "f32[128, 64, 112, 112][802816, 1, 7168, 64]cuda:0"[num_users=1] = call_function[target=torch.ops.aten.mul.Tensor](args = (%mul_1, %unsqueeze_5), kwargs = {})
#   %unsqueeze_6 : Tensor "bf16[64, 1][1, 1]cuda:0"[num_users=1] = call_function[target=torch.ops.aten.unsqueeze.default](args = (%arg4_1, -1), kwargs = {})
#   %unsqueeze_7 : Tensor "bf16[64, 1, 1][1, 1, 1]cuda:0"[num_users=1] = call_function[target=torch.ops.aten.unsqueeze.default](args = (%unsqueeze_6, -1), kwargs = {})
#   %add_1 : Tensor "f32[128, 64, 112, 112][802816, 1, 7168, 64]cuda:0"[num_users=1] = call_function[target=torch.ops.aten.add.Tensor](args = (%mul_2, %unsqueeze_7), kwargs = {})
#   %convert_element_type_2 : Tensor "bf16[128, 64, 112, 112][802816, 1, 7168, 64]cuda:0"[num_users=1] = call_function[target=torch.ops.prims.convert_element_type.default](args = (%add_1, torch.bfloat16), kwargs = {})
#   %convert_element_type_3 : Tensor "f32[64][1]cuda:0"[num_users=1] = call_function[target=torch.ops.prims.convert_element_type.default](args = (%arg5_1, torch.float32), kwargs = {})
#   %unsqueeze_8 : Tensor "f32[64, 1][1, 1]cuda:0"[num_users=1] = call_function[target=torch.ops.aten.unsqueeze.default](args = (%convert_element_type_3, -1), kwargs = {})
#   %unsqueeze_9 : Tensor "f32[64, 1, 1][1, 1, 1]cuda:0"[num_users=1] = call_function[target=torch.ops.aten.unsqueeze.default](args = (%unsqueeze_8, -1), kwargs = {})
#   %sub_1 : Tensor "f32[128, 64, 112, 112][802816, 1, 7168, 64]cuda:0"[num_users=1] = call_function[target=torch.ops.aten.sub.Tensor](args = (%arg6_1, %unsqueeze_9), kwargs = {})
#   %convert_element_type_4 : Tensor "f32[64][1]cuda:0"[num_users=1] = call_function[target=torch.ops.prims.convert_element_type.default](args = (%arg7_1, torch.float32), kwargs = {})
#   %add_2 : Tensor "f32[64][1]cuda:0"[num_users=1] = call_function[target=torch.ops.aten.add.Tensor](args = (%convert_element_type_4, 1e-05), kwargs = {})
#   %sqrt_1 : Tensor "f32[64][1]cuda:0"[num_users=1] = call_function[target=torch.ops.aten.sqrt.default](args = (%add_2,), kwargs = {})
#   %reciprocal_1 : Tensor "f32[64][1]cuda:0"[num_users=1] = call_function[target=torch.ops.aten.reciprocal.default](args = (%sqrt_1,), kwargs = {})
#   %mul_3 : Tensor "f32[64][1]cuda:0"[num_users=1] = call_function[target=torch.ops.aten.mul.Tensor](args = (%reciprocal_1, 1), kwargs = {})
#   %unsqueeze_10 : Tensor "f32[64, 1][1, 1]cuda:0"[num_users=1] = call_function[target=torch.ops.aten.unsqueeze.default](args = (%mul_3, -1), kwargs = {})
#   %unsqueeze_11 : Tensor "f32[64, 1, 1][1, 1, 1]cuda:0"[num_users=1] = call_function[target=torch.ops.aten.unsqueeze.default](args = (%unsqueeze_10, -1), kwargs = {})
#   %mul_4 : Tensor "f32[128, 64, 112, 112][802816, 1, 7168, 64]cuda:0"[num_users=1] = call_function[target=torch.ops.aten.mul.Tensor](args = (%sub_1, %unsqueeze_11), kwargs = {})
#   %unsqueeze_12 : Tensor "bf16[64, 1][1, 1]cuda:0"[num_users=1] = call_function[target=torch.ops.aten.unsqueeze.default](args = (%arg8_1, -1), kwargs = {})
#   %unsqueeze_13 : Tensor "bf16[64, 1, 1][1, 1, 1]cuda:0"[num_users=1] = call_function[target=torch.ops.aten.unsqueeze.default](args = (%unsqueeze_12, -1), kwargs = {})
#   %mul_5 : Tensor "f32[128, 64, 112, 112][802816, 1, 7168, 64]cuda:0"[num_users=1] = call_function[target=torch.ops.aten.mul.Tensor](args = (%mul_4, %unsqueeze_13), kwargs = {})
#   %unsqueeze_14 : Tensor "bf16[64, 1][1, 1]cuda:0"[num_users=1] = call_function[target=torch.ops.aten.unsqueeze.default](args = (%arg9_1, -1), kwargs = {})
#   %unsqueeze_15 : Tensor "bf16[64, 1, 1][1, 1, 1]cuda:0"[num_users=1] = call_function[target=torch.ops.aten.unsqueeze.default](args = (%unsqueeze_14, -1), kwargs = {})
#   %add_3 : Tensor "f32[128, 64, 112, 112][802816, 1, 7168, 64]cuda:0"[num_users=1] = call_function[target=torch.ops.aten.add.Tensor](args = (%mul_5, %unsqueeze_15), kwargs = {})
#   %convert_element_type_5 : Tensor "bf16[128, 64, 112, 112][802816, 1, 7168, 64]cuda:0"[num_users=1] = call_function[target=torch.ops.prims.convert_element_type.default](args = (%add_3, torch.bfloat16), kwargs = {})
#   %add_4 : Tensor "bf16[128, 64, 112, 112][802816, 1, 7168, 64]cuda:0"[num_users=1] = call_function[target=torch.ops.aten.add.Tensor](args = (%convert_element_type_2, %convert_element_type_5), kwargs = {})
#   %relu : Tensor "bf16[128, 64, 112, 112][802816, 1, 7168, 64]cuda:0"[num_users=1] = call_function[target=torch.ops.aten.relu.default](args = (%add_4,), kwargs = {})
#   return %add_4,%relu
triton_poi_fused_add_convert_element_type_mul_reciprocal_relu_sqrt_sub_unsqueeze_0 = async_compile.triton('triton_poi_fused_add_convert_element_type_mul_reciprocal_relu_sqrt_sub_unsqueeze_0', '''
import triton
import triton.language as tl

from torch._inductor.runtime import triton_helpers, triton_heuristics
from torch._inductor.runtime.triton_helpers import libdevice, math as tl_math
from torch._inductor.runtime.hints import AutotuneHint, ReductionHint, TileHint, DeviceProperties
triton_helpers.set_driver_to_gpu()

@triton_heuristics.pointwise(
    size_hints={'x': 134217728}, 
    filename=__file__,
    triton_meta={'signature': {'in_out_ptr0': '*bf16', 'in_ptr0': '*bf16', 'in_ptr1': '*bf16', 'in_ptr2': '*bf16', 'in_ptr3': '*bf16', 'in_ptr4': '*bf16', 'in_ptr5': '*bf16', 'in_ptr6': '*bf16', 'in_ptr7': '*bf16', 'in_ptr8': '*bf16', 'in_ptr9': '*bf16', 'xnumel': 'i32', 'XBLOCK': 'constexpr'}, 'device': DeviceProperties(type='cuda', index=0, multi_processor_count=148, cc=100, major=10, regs_per_multiprocessor=65536, max_threads_per_multi_processor=2048, max_threads_per_block=1024, warp_size=32), 'constants': {}, 'native_matmul': False, 'enable_fp_fusion': True, 'launch_pdl': False, 'disable_ftz': False, 'configs': [{(0,): [['tt.divisibility', 16]], (1,): [['tt.divisibility', 16]], (2,): [['tt.divisibility', 16]], (3,): [['tt.divisibility', 16]], (4,): [['tt.divisibility', 16]], (5,): [['tt.divisibility', 16]], (6,): [['tt.divisibility', 16]], (7,): [['tt.divisibility', 16]], (8,): [['tt.divisibility', 16]], (9,): [['tt.divisibility', 16]], (10,): [['tt.divisibility', 16]], (11,): [['tt.divisibility', 16]]}]},
    inductor_meta={'grid_type': 'Grid1D', 'kernel_name': 'triton_poi_fused_add_convert_element_type_mul_reciprocal_relu_sqrt_sub_unsqueeze_0', 'mutated_arg_names': ['in_out_ptr0'], 'optimize_mem': True, 'no_x_dim': False, 'atomic_add_found': False, 'num_load': 10, 'num_store': 1, 'num_reduction': 0, 'autotune_hints': set(), 'tiling_scores': {'x': 822084608}, 'backend_hash': '531D39D0B983A80D0ABC5B5F6FCCD24356E21D216A2A4E77A6A769CA18B89204', 'assert_indirect_indexing': True, 'autotune_local_cache': True, 'autotune_pointwise': True, 'autotune_remote_cache': None, 'force_disable_caches': False, 'dynamic_scale_rblock': True, 'incremental_autotune': False, 'max_autotune': False, 'max_autotune_pointwise': False, 'min_split_scan_rblock': 256, 'spill_threshold': 16, 'store_cubin': False, 'deterministic': False, 'batch_invariant': False, 'force_filter_reduction_configs': False, 'mix_order_reduction_allow_multi_stages': True, 'dynamic_disable_pipelining': True, 'are_deterministic_algorithms_enabled': False},
    min_elem_per_thread=0
)
@triton.jit
def triton_poi_fused_add_convert_element_type_mul_reciprocal_relu_sqrt_sub_unsqueeze_0(in_out_ptr0, in_ptr0, in_ptr1, in_ptr2, in_ptr3, in_ptr4, in_ptr5, in_ptr6, in_ptr7, in_ptr8, in_ptr9, xnumel, XBLOCK : tl.constexpr):
    xnumel = 102760448
    xoffset = tl.program_id(0) * XBLOCK
    xindex = xoffset + tl.arange(0, XBLOCK)[:]
    xmask = tl.full([XBLOCK], True, tl.int1)[:]
    x2 = xindex
    x0 = (xindex % 64)
    tmp0 = tl.load(in_ptr0 + (x2), None).to(tl.float32)
    tmp2 = tl.load(in_ptr1 + (x0), None, eviction_policy='evict_last').to(tl.float32)
    tmp5 = tl.load(in_ptr2 + (x0), None, eviction_policy='evict_last').to(tl.float32)
    tmp14 = tl.load(in_ptr3 + (x0), None, eviction_policy='evict_last').to(tl.float32)
    tmp17 = tl.load(in_ptr4 + (x0), None, eviction_policy='evict_last').to(tl.float32)
    tmp21 = tl.load(in_ptr5 + (x2), None).to(tl.float32)
    tmp23 = tl.load(in_ptr6 + (x0), None, eviction_policy='evict_last').to(tl.float32)
    tmp26 = tl.load(in_ptr7 + (x0), None, eviction_policy='evict_last').to(tl.float32)
    tmp33 = tl.load(in_ptr8 + (x0), None, eviction_policy='evict_last').to(tl.float32)
    tmp36 = tl.load(in_ptr9 + (x0), None, eviction_policy='evict_last').to(tl.float32)
    tmp1 = tmp0.to(tl.float32)
    tmp3 = tmp2.to(tl.float32)
    tmp4 = tmp1 - tmp3
    tmp6 = tmp5.to(tl.float32)
    tmp7 = tl.full([1], 1e-05, tl.float32)
    tmp8 = tmp6 + tmp7
    tmp9 = tl.sqrt_rn(tmp8)
    tmp10 = tl.full([1], 1.0, tl.float32)
    tmp11 = (tmp10 / tmp9)
    tmp12 = tmp11 * tmp10
    tmp13 = tmp4 * tmp12
    tmp15 = tmp14.to(tl.float32)
    tmp16 = tmp13 * tmp15
    tmp18 = tmp17.to(tl.float32)
    tmp19 = tmp16 + tmp18
    tmp20 = tmp19.to(tl.float32)
    tmp22 = tmp21.to(tl.float32)
    tmp24 = tmp23.to(tl.float32)
    tmp25 = tmp22 - tmp24
    tmp27 = tmp26.to(tl.float32)
    tmp28 = tmp27 + tmp7
    tmp29 = tl.sqrt_rn(tmp28)
    tmp30 = (tmp10 / tmp29)
    tmp31 = tmp30 * tmp10
    tmp32 = tmp25 * tmp31
    tmp34 = tmp33.to(tl.float32)
    tmp35 = tmp32 * tmp34
    tmp37 = tmp36.to(tl.float32)
    tmp38 = tmp35 + tmp37
    tmp39 = tmp38.to(tl.float32)
    tmp40 = tmp20 + tmp39
    tmp41 = tl.full([1], 0, tl.int32)
    tmp42 = triton_helpers.maximum(tmp41, tmp40)
    tl.store(in_out_ptr0 + (x2), tmp42, None)
''', device_str='cuda')


async_compile.wait(globals())
del async_compile

class Runner:
    def __init__(self, partitions):
        self.partitions = partitions

    def recursively_apply_fns(self, fns):
        new_callables = []
        for fn, c in zip(fns, self.partitions):
            new_callables.append(fn(c))
        self.partitions = new_callables

    def call(self, args):
        arg0_1, arg1_1, arg2_1, arg3_1, arg4_1, arg5_1, arg6_1, arg7_1, arg8_1, arg9_1 = args
        args.clear()
        assert_size_stride(arg1_1, (128, 64, 112, 112), (802816, 1, 7168, 64), 'input')
        assert_size_stride(arg0_1, (64, ), (1, ), 'input')
        assert_size_stride(arg2_1, (64, ), (1, ), 'input')
        assert_size_stride(arg3_1, (64, ), (1, ), 'input')
        assert_size_stride(arg4_1, (64, ), (1, ), 'input')
        assert_size_stride(arg6_1, (128, 64, 112, 112), (802816, 1, 7168, 64), 'input')
        assert_size_stride(arg5_1, (64, ), (1, ), 'input')
        assert_size_stride(arg7_1, (64, ), (1, ), 'input')
        assert_size_stride(arg8_1, (64, ), (1, ), 'input')
        assert_size_stride(arg9_1, (64, ), (1, ), 'input')
        with torch.cuda._DeviceGuard(0):
            torch.cuda.set_device(0)
            arg1_1 = copy_if_misaligned(arg1_1)
            arg0_1 = copy_if_misaligned(arg0_1)
            arg2_1 = copy_if_misaligned(arg2_1)
            arg3_1 = copy_if_misaligned(arg3_1)
            arg4_1 = copy_if_misaligned(arg4_1)
            arg6_1 = copy_if_misaligned(arg6_1)
            arg5_1 = copy_if_misaligned(arg5_1)
            arg7_1 = copy_if_misaligned(arg7_1)
            arg8_1 = copy_if_misaligned(arg8_1)
            arg9_1 = copy_if_misaligned(arg9_1)
            buf0 = empty_strided_cuda((128, 64, 112, 112), (802816, 1, 7168, 64), torch.bfloat16)
            buf1 = buf0; del buf0  # reuse
            # Topologically Sorted Source Nodes: [convert_element_type, unsqueeze, unsqueeze_1, sub, convert_element_type_1, add, sqrt, reciprocal, mul, unsqueeze_2, unsqueeze_3, mul_1, unsqueeze_4, unsqueeze_5, mul_2, unsqueeze_6, unsqueeze_7, add_1, convert_element_type_2, convert_element_type_3, unsqueeze_8, unsqueeze_9, sub_1, convert_element_type_4, add_2, sqrt_1, reciprocal_1, mul_3, unsqueeze_10, unsqueeze_11, mul_4, unsqueeze_12, unsqueeze_13, mul_5, unsqueeze_14, unsqueeze_15, add_3, convert_element_type_5, add_4, relu], Original ATen: [prims.convert_element_type, aten.unsqueeze, aten.sub, aten.add, aten.sqrt, aten.reciprocal, aten.mul, aten.relu]
            raw_stream0 = get_raw_stream(0)
            triton_poi_fused_add_convert_element_type_mul_reciprocal_relu_sqrt_sub_unsqueeze_0.run(buf1, arg1_1, arg0_1, arg2_1, arg3_1, arg4_1, arg6_1, arg5_1, arg7_1, arg8_1, arg9_1, 102760448, stream=raw_stream0)
            del arg0_1
            del arg1_1
            del arg2_1
            del arg3_1
            del arg4_1
            del arg5_1
            del arg6_1
            del arg7_1
            del arg8_1
            del arg9_1
        return (buf1, )

runner = Runner(partitions=[])
call = runner.call
recursively_apply_fns = runner.recursively_apply_fns


def get_args():
    from torch._dynamo.testing import rand_strided
    arg0_1 = rand_strided((64, ), (1, ), device='cuda:0', dtype=torch.bfloat16)
    arg1_1 = rand_strided((128, 64, 112, 112), (802816, 1, 7168, 64), device='cuda:0', dtype=torch.bfloat16)
    arg2_1 = rand_strided((64, ), (1, ), device='cuda:0', dtype=torch.bfloat16)
    arg3_1 = rand_strided((64, ), (1, ), device='cuda:0', dtype=torch.bfloat16)
    arg4_1 = rand_strided((64, ), (1, ), device='cuda:0', dtype=torch.bfloat16)
    arg5_1 = rand_strided((64, ), (1, ), device='cuda:0', dtype=torch.bfloat16)
    arg6_1 = rand_strided((128, 64, 112, 112), (802816, 1, 7168, 64), device='cuda:0', dtype=torch.bfloat16)
    arg7_1 = rand_strided((64, ), (1, ), device='cuda:0', dtype=torch.bfloat16)
    arg8_1 = rand_strided((64, ), (1, ), device='cuda:0', dtype=torch.bfloat16)
    arg9_1 = rand_strided((64, ), (1, ), device='cuda:0', dtype=torch.bfloat16)
    return [arg0_1, arg1_1, arg2_1, arg3_1, arg4_1, arg5_1, arg6_1, arg7_1, arg8_1, arg9_1]


def benchmark_compiled_module(args, times=10, repeat=10):
    from torch._inductor.utils import print_performance
    fn = lambda: call(list(args))
    return print_performance(fn, times=times, repeat=repeat, device='cuda')


if __name__ == "__main__":
    from torch._inductor.wrapper_benchmark import compiled_module_main
    args = get_args()
    compiled_module_main('None', lambda times, repeat: benchmark_compiled_module(args, times=times, repeat=repeat))

[DEBUG]:Output code written to: /tmp/torchinductor_dev/n6/cn6indblc2qo4ub3bhjxajpj3cknghquqbwutouf7kssauchrb7d.py
[INFO]:Output code written to: /tmp/torchinductor_dev/n6/cn6indblc2qo4ub3bhjxajpj3cknghquqbwutouf7kssauchrb7d.py
### TAG=pos22 NUMERICS eager-vs-compiled: max_abs=nan mean_abs=nan max_rel=nan out_dtype=torch.bfloat16
### TAG=pos22 DONE
