[DEBUG]:Output code: 
# AOT ID: ['0_inference']
from ctypes import c_void_p, c_long, c_int
import torch
import math
import random
import os
import tempfile
from math import inf, nan
from cmath import nanj
from torch._inductor.hooks import run_intermediate_hooks
from torch._inductor.utils import maybe_profile
from torch._inductor.codegen.memory_planning import _align as align
from torch import device, empty_strided
from torch._inductor.async_compile import AsyncCompile
from torch._inductor.select_algorithm import extern_kernels
from torch._C._dynamo.guards import copy_if_misaligned
import triton
import triton.language as tl
from torch._inductor.runtime.triton_heuristics import start_graph, end_graph
from torch._C import _cuda_getCurrentRawStream as get_raw_stream

aten = torch.ops.aten
inductor_ops = torch.ops.inductor
_quantized = torch.ops._quantized
assert_size_stride = torch._C._dynamo.guards.assert_size_stride
assert_alignment = torch._C._dynamo.guards.assert_alignment
empty_strided_cpu = torch._C._dynamo.guards._empty_strided_cpu
empty_strided_cpu_pinned = torch._C._dynamo.guards._empty_strided_cpu_pinned
empty_strided_cuda = torch._C._dynamo.guards._empty_strided_cuda
empty_strided_xpu = torch._C._dynamo.guards._empty_strided_xpu
empty_strided_mtia = torch._C._dynamo.guards._empty_strided_mtia
reinterpret_tensor = torch._C._dynamo.guards._reinterpret_tensor
alloc_from_pool = torch.ops.inductor._alloc_from_pool
async_compile = AsyncCompile()
empty_strided_p2p = torch._C._distributed_c10d._SymmetricMemory.empty_strided_p2p


# kernel path: /tmp/tmpbw0pt5he/ar/carrigaarnnha4hwhx4ngeaun7rhyu6sogykgkgeot74eba3h26z.py
# Topologically Sorted Source Nodes: [reshape_default, reshape_default_1, permute_default, convert_element_type_default, pow_tensor_scalar, mean_dim], Original ATen: [aten.view, aten.permute, prims.convert_element_type, aten.pow, aten.mean]
# Source node to ATen node mapping:
#   convert_element_type_default => convert_element_type
#   mean_dim => mean
#   permute_default => permute
#   pow_tensor_scalar => pow_1
#   reshape_default => view
#   reshape_default_1 => view_1
# Graph fragment:
#   %arg0_1 : Tensor "bf16[2048, 32768][32768, 1]cuda:0" = PlaceHolder[target=arg0_1]
#   %view : Tensor "bf16[4, 512, 32768][16777216, 32768, 1]cuda:0"[num_users=1] = call_function[target=torch.ops.aten.reshape.default](args = (%arg0_1, [4, 512, 32768]), kwargs = {})
#   %view_1 : Tensor "bf16[4, 512, 64, 512][16777216, 32768, 512, 1]cuda:0"[num_users=1] = call_function[target=torch.ops.aten.reshape.default](args = (%view, [4, 512, -1, 512]), kwargs = {})
#   %permute : Tensor "bf16[4, 64, 512, 512][16777216, 512, 32768, 1]cuda:0"[num_users=2] = call_function[target=torch.ops.aten.permute.default](args = (%view_1, [0, 2, 1, 3]), kwargs = {})
#   %convert_element_type : Tensor "f32[4, 64, 512, 512][16777216, 512, 32768, 1]cuda:0"[num_users=1] = call_function[target=torch.ops.prims.convert_element_type.default](args = (%permute, torch.float32), kwargs = {})
#   %pow_1 : Tensor "f32[4, 64, 512, 512][16777216, 512, 32768, 1]cuda:0"[num_users=1] = call_function[target=torch.ops.aten.pow.Tensor_Scalar](args = (%convert_element_type, 2), kwargs = {})
#   %mean : Tensor "f32[4, 64, 512, 1][32768, 512, 1, 1]cuda:0"[num_users=1] = call_function[target=torch.ops.aten.mean.dim](args = (%pow_1, [-1], True), kwargs = {})
#   return %buf0
triton_per_fused_convert_element_type_mean_permute_pow_view_0 = async_compile.triton('triton_per_fused_convert_element_type_mean_permute_pow_view_0', '''
import triton
import triton.language as tl

from torch._inductor.runtime import triton_helpers, triton_heuristics
from torch._inductor.runtime.triton_helpers import libdevice, math as tl_math
from torch._inductor.runtime.hints import AutotuneHint, ReductionHint, TileHint, DeviceProperties
triton_helpers.set_driver_to_gpu()

@triton_heuristics.persistent_reduction(
    size_hints={'x': 131072, 'r0_': 512},
    reduction_hint=ReductionHint.INNER,
    filename=__file__,
    triton_meta={'signature': {'in_ptr0': '*bf16', 'out_ptr0': '*fp32', 'xnumel': 'i32', 'r0_numel': 'i32', 'XBLOCK': 'constexpr'}, 'device': DeviceProperties(type='cuda', index=0, multi_processor_count=148, cc=100, major=10, regs_per_multiprocessor=65536, max_threads_per_multi_processor=2048, max_threads_per_block=1024, warp_size=32), 'constants': {}, 'native_matmul': False, 'enable_fp_fusion': True, 'launch_pdl': False, 'disable_ftz': False, 'configs': [{(0,): [['tt.divisibility', 16]], (1,): [['tt.divisibility', 16]], (2,): [['tt.divisibility', 16]], (3,): [['tt.divisibility', 16]]}]},
    inductor_meta={'grid_type': 'Grid1D', 'autotune_hints': set(), 'kernel_name': 'triton_per_fused_convert_element_type_mean_permute_pow_view_0', 'mutated_arg_names': [], 'optimize_mem': True, 'no_x_dim': None, 'atomic_add_found': False, 'num_load': 1, 'num_store': 1, 'num_reduction': 1, 'backend_hash': '24DD4EB3E46C537527C82D44AE961C79D45917162D3A4C30BD79DDC26D6A401F', 'assert_indirect_indexing': True, 'autotune_local_cache': True, 'autotune_pointwise': True, 'autotune_remote_cache': None, 'force_disable_caches': False, 'dynamic_scale_rblock': True, 'max_autotune': False, 'max_autotune_pointwise': False, 'min_split_scan_rblock': 256, 'spill_threshold': 16, 'store_cubin': False, 'deterministic': False, 'force_filter_reduction_configs': False, 'mix_order_reduction_allow_multi_stages': True, 'are_deterministic_algorithms_enabled': False, 'tiling_scores': {'x': 1048576, 'r0_': 134217728}}
)
@triton.jit
def triton_per_fused_convert_element_type_mean_permute_pow_view_0(in_ptr0, out_ptr0, xnumel, r0_numel, XBLOCK : tl.constexpr):
    xnumel = 131072
    r0_numel = 512
    R0_BLOCK: tl.constexpr = 512
    rnumel = r0_numel
    RBLOCK: tl.constexpr = R0_BLOCK
    xoffset = tl.program_id(0) * XBLOCK
    xindex = xoffset + tl.arange(0, XBLOCK)[:, None]
    xmask = tl.full([XBLOCK], True, tl.int1)[:, None]
    r0_index = tl.arange(0, R0_BLOCK)[None, :]
    r0_offset = 0
    r0_mask = tl.full([R0_BLOCK], True, tl.int1)[None, :]
    roffset = r0_offset
    rindex = r0_index
    r0_1 = r0_index
    x0 = xindex
    tmp0 = tl.load(in_ptr0 + (r0_1 + 512*x0), None).to(tl.float32)
    tmp1 = tmp0.to(tl.float32)
    tmp2 = tmp1 * tmp1
    tmp3 = tl.broadcast_to(tmp2, [XBLOCK, R0_BLOCK])
    tmp5 = tl.sum(tmp3, 1)[:, None].to(tl.float32)
    tl.store(out_ptr0 + (x0), tmp5, None)
''', device_str='cuda')


# kernel path: /tmp/tmpbw0pt5he/qy/cqyhgq7gy2nztk4dghhtzjktc26ojqguuvjsbrmxa3r2rkejau5s.py
# Topologically Sorted Source Nodes: [reshape_default, reshape_default_1, permute_default, convert_element_type_default, pow_tensor_scalar, mean_dim, add_tensor, rsqrt_default, convert_element_type_default_1, mul_tensor, slice_tensor_1, unsqueeze_default, unsqueeze_default_1, convert_element_type_default_3, expand_default, iota_default, add_tensor_1, unsqueeze_default_2, unsqueeze_default_3, convert_element_type_default_4, mul_tensor_1, permute_default_1, slice_tensor_2, neg_default, unsqueeze_default_6, slice_tensor_3, unsqueeze_default_7, cat_default, reshape_default_3, convert_element_type_default_6, sin_default, mul_tensor_4, convert_element_type_default_7, unsqueeze_default_8, expand_default_4, clone_default_1, reshape_default_4, unsqueeze_default_9, mul_tensor_5], Original ATen: [aten.view, aten.permute, prims.convert_element_type, aten.pow, aten.mean, aten.add, aten.rsqrt, aten.mul, aten.slice, aten.unsqueeze, aten.expand, prims.iota, aten.neg, aten.cat, aten.sin, aten.clone]
# Source node to ATen node mapping:
#   add_tensor => add
#   add_tensor_1 => add_1
#   cat_default => cat
#   clone_default_1 => clone_1
#   convert_element_type_default => convert_element_type
#   convert_element_type_default_1 => convert_element_type_1
#   convert_element_type_default_3 => convert_element_type_3
#   convert_element_type_default_4 => convert_element_type_4
#   convert_element_type_default_6 => convert_element_type_6
#   convert_element_type_default_7 => convert_element_type_7
#   expand_default => expand
#   expand_default_4 => expand_4
#   iota_default => iota
#   mean_dim => mean
#   mul_tensor => mul
#   mul_tensor_1 => mul_1
#   mul_tensor_4 => mul_4
#   mul_tensor_5 => mul_5
#   neg_default => neg
#   permute_default => permute
#   permute_default_1 => permute_1
#   pow_tensor_scalar => pow_1
#   reshape_default => view
#   reshape_default_1 => view_1
#   reshape_default_3 => view_3
#   reshape_default_4 => view_4
#   rsqrt_default => rsqrt
#   sin_default => sin
#   slice_tensor_1 => slice_2
#   slice_tensor_2 => slice_3
#   slice_tensor_3 => slice_4
#   unsqueeze_default => unsqueeze
#   unsqueeze_default_1 => unsqueeze_1
#   unsqueeze_default_2 => unsqueeze_2
#   unsqueeze_default_3 => unsqueeze_3
#   unsqueeze_default_6 => unsqueeze_6
#   unsqueeze_default_7 => unsqueeze_7
#   unsqueeze_default_8 => unsqueeze_8
#   unsqueeze_default_9 => unsqueeze_9
# Graph fragment:
#   %arg0_1 : Tensor "bf16[2048, 32768][32768, 1]cuda:0" = PlaceHolder[target=arg0_1]
#   %buf0 : Tensor "f32[4, 64, 512, 1][32768, 1, 64, 131072]cuda:0" = PlaceHolder[target=buf0]
#   %arg1_1 : Tensor "bf16[32][1]cuda:0" = PlaceHolder[target=arg1_1]
#   %view : Tensor "bf16[4, 512, 32768][16777216, 32768, 1]cuda:0"[num_users=1] = call_function[target=torch.ops.aten.reshape.default](args = (%arg0_1, [4, 512, 32768]), kwargs = {})
#   %view_1 : Tensor "bf16[4, 512, 64, 512][16777216, 32768, 512, 1]cuda:0"[num_users=1] = call_function[target=torch.ops.aten.reshape.default](args = (%view, [4, 512, -1, 512]), kwargs = {})
#   %permute : Tensor "bf16[4, 64, 512, 512][16777216, 512, 32768, 1]cuda:0"[num_users=2] = call_function[target=torch.ops.aten.permute.default](args = (%view_1, [0, 2, 1, 3]), kwargs = {})
#   %convert_element_type : Tensor "f32[4, 64, 512, 512][16777216, 512, 32768, 1]cuda:0"[num_users=1] = call_function[target=torch.ops.prims.convert_element_type.default](args = (%permute, torch.float32), kwargs = {})
#   %pow_1 : Tensor "f32[4, 64, 512, 512][16777216, 512, 32768, 1]cuda:0"[num_users=1] = call_function[target=torch.ops.aten.pow.Tensor_Scalar](args = (%convert_element_type, 2), kwargs = {})
#   %mean : Tensor "f32[4, 64, 512, 1][32768, 512, 1, 1]cuda:0"[num_users=1] = call_function[target=torch.ops.aten.mean.dim](args = (%pow_1, [-1], True), kwargs = {})
#   %add : Tensor "f32[4, 64, 512, 1][32768, 512, 1, 1]cuda:0"[num_users=1] = call_function[target=torch.ops.aten.add.Tensor](args = (%mean, 1e-06), kwargs = {})
#   %rsqrt : Tensor "f32[4, 64, 512, 1][32768, 512, 1, 1]cuda:0"[num_users=1] = call_function[target=torch.ops.aten.rsqrt.default](args = (%add,), kwargs = {})
#   %convert_element_type_1 : Tensor "bf16[4, 64, 512, 1][32768, 512, 1, 1]cuda:0"[num_users=1] = call_function[target=torch.ops.prims.convert_element_type.default](args = (%rsqrt, torch.bfloat16), kwargs = {})
#   %mul : Tensor "bf16[4, 64, 512, 512][16777216, 512, 32768, 1]cuda:0"[num_users=2] = call_function[target=torch.ops.aten.mul.Tensor](args = (%permute, %convert_element_type_1), kwargs = {})
#   %slice_2 : Tensor "bf16[4, 64, 512, 64][16777216, 512, 32768, 1]cuda:0"[num_users=3] = call_function[target=torch.ops.aten.slice.Tensor](args = (%mul, 3, -64, 9223372036854775807), kwargs = {})
#   %unsqueeze : Tensor "bf16[1, 32][32, 1]cuda:0"[num_users=1] = call_function[target=torch.ops.aten.unsqueeze.default](args = (%arg1_1, 0), kwargs = {})
#   %unsqueeze_1 : Tensor "bf16[1, 32, 1][32, 1, 1]cuda:0"[num_users=1] = call_function[target=torch.ops.aten.unsqueeze.default](args = (%unsqueeze, 2), kwargs = {})
#   %convert_element_type_3 : Tensor "f32[1, 32, 1][32, 1, 1]cuda:0"[num_users=1] = call_function[target=torch.ops.prims.convert_element_type.default](args = (%unsqueeze_1, torch.float32), kwargs = {})
#   %expand : Tensor "f32[1, 32, 1][32, 1, 1]cuda:0"[num_users=1] = call_function[target=torch.ops.aten.expand.default](args = (%convert_element_type_3, [1, -1, 1]), kwargs = {})
#   %iota : Tensor "i64[512][1]cuda:0"[num_users=1] = call_function[target=torch.ops.prims.iota.default](args = (512,), kwargs = {start: 0, step: 1, dtype: torch.int64, device: cuda:0, requires_grad: False})
#   %add_1 : Tensor "i64[512][1]cuda:0"[num_users=1] = call_function[target=torch.ops.aten.add.Tensor](args = (%iota, 0), kwargs = {})
#   %unsqueeze_2 : Tensor "i64[1, 512][512, 1]cuda:0"[num_users=1] = call_function[target=torch.ops.aten.unsqueeze.default](args = (%add_1, 0), kwargs = {})
#   %unsqueeze_3 : Tensor "i64[1, 1, 512][512, 512, 1]cuda:0"[num_users=1] = call_function[target=torch.ops.aten.unsqueeze.default](args = (%unsqueeze_2, 1), kwargs = {})
#   %convert_element_type_4 : Tensor "f32[1, 1, 512][512, 512, 1]cuda:0"[num_users=1] = call_function[target=torch.ops.prims.convert_element_type.default](args = (%unsqueeze_3, torch.float32), kwargs = {})
#   %mul_1 : Tensor "f32[1, 32, 512][16384, 512, 1]cuda:0"[num_users=1] = call_function[target=torch.ops.aten.mul.Tensor](args = (%expand_1, %expand_2), kwargs = {})
#   %permute_1 : Tensor "f32[1, 512, 32][16384, 1, 512]cuda:0"[num_users=2] = call_function[target=torch.ops.aten.permute.default](args = (%mul_1, [0, 2, 1]), kwargs = {})
#   %slice_3 : Tensor "bf16[4, 64, 512, 32][16777216, 512, 32768, 2]cuda:0"[num_users=1] = call_function[target=torch.ops.aten.slice.Tensor](args = (%slice_2, 3, 1, 9223372036854775807, 2), kwargs = {})
#   %neg : Tensor "bf16[4, 64, 512, 32][1048576, 32, 2048, 1]cuda:0"[num_users=1] = call_function[target=torch.ops.aten.neg.default](args = (%slice_3,), kwargs = {})
#   %unsqueeze_6 : Tensor "bf16[4, 64, 512, 32, 1][1048576, 32, 2048, 1, 1]cuda:0"[num_users=1] = call_function[target=torch.ops.aten.unsqueeze.default](args = (%neg, 4), kwargs = {})
#   %slice_4 : Tensor "bf16[4, 64, 512, 32][16777216, 512, 32768, 2]cuda:0"[num_users=1] = call_function[target=torch.ops.aten.slice.Tensor](args = (%slice_2, 3, 0, 9223372036854775807, 2), kwargs = {})
#   %unsqueeze_7 : Tensor "bf16[4, 64, 512, 32, 1][16777216, 512, 32768, 2, 1]cuda:0"[num_users=1] = call_function[target=torch.ops.aten.unsqueeze.default](args = (%slice_4, 4), kwargs = {})
#   %cat : Tensor "bf16[4, 64, 512, 32, 2][2097152, 32768, 64, 2, 1]cuda:0"[num_users=1] = call_function[target=torch.ops.aten.cat.default](args = ([%unsqueeze_6, %unsqueeze_7], -1), kwargs = {})
#   %view_3 : Tensor "bf16[4, 64, 512, 64][2097152, 32768, 64, 1]cuda:0"[num_users=1] = call_function[target=torch.ops.aten.reshape.default](args = (%cat, [4, 64, 512, 64]), kwargs = {})
#   %convert_element_type_6 : Tensor "f32[4, 64, 512, 64][2097152, 32768, 64, 1]cuda:0"[num_users=1] = call_function[target=torch.ops.prims.convert_element_type.default](args = (%view_3, torch.float32), kwargs = {})
#   %sin : Tensor "f32[1, 512, 32][16384, 1, 512]cuda:0"[num_users=1] = call_function[target=torch.ops.aten.sin.default](args = (%permute_1,), kwargs = {})
#   %mul_4 : Tensor "f32[1, 512, 32][16384, 1, 512]cuda:0"[num_users=1] = call_function[target=torch.ops.aten.mul.Tensor](args = (%sin, 1.2772588722239782), kwargs = {})
#   %convert_element_type_7 : Tensor "bf16[1, 512, 32][16384, 1, 512]cuda:0"[num_users=2] = call_function[target=torch.ops.prims.convert_element_type.default](args = (%mul_4, torch.bfloat16), kwargs = {})
#   %unsqueeze_8 : Tensor "bf16[1, 512, 32, 1][16384, 1, 512, 1]cuda:0"[num_users=1] = call_function[target=torch.ops.aten.unsqueeze.default](args = (%convert_element_type_7, 3), kwargs = {})
#   %expand_4 : Tensor "bf16[1, 512, 32, 2][16384, 1, 512, 0]cuda:0"[num_users=1] = call_function[target=torch.ops.aten.expand.default](args = (%unsqueeze_8, [1, 512, 32, 2]), kwargs = {})
#   %clone_1 : Tensor "bf16[1, 512, 32, 2][32768, 64, 2, 1]cuda:0"[num_users=1] = call_function[target=torch.ops.aten.clone.default](args = (%expand_4,), kwargs = {memory_format: torch.contiguous_format})
#   %view_4 : Tensor "bf16[1, 512, 64][32768, 64, 1]cuda:0"[num_users=1] = call_function[target=torch.ops.aten.reshape.default](args = (%clone_1, [1, 512, 64]), kwargs = {})
#   %unsqueeze_9 : Tensor "bf16[1, 1, 512, 64][32768, 32768, 64, 1]cuda:0"[num_users=1] = call_function[target=torch.ops.aten.unsqueeze.default](args = (%view_4, 1), kwargs = {})
#   %mul_5 : Tensor "f32[4, 64, 512, 64][2097152, 32768, 64, 1]cuda:0"[num_users=1] = call_function[target=torch.ops.aten.mul.Tensor](args = (%convert_element_type_6, %unsqueeze_9), kwargs = {})
#   return %mul_5
triton_poi_fused_add_cat_clone_convert_element_type_expand_iota_mean_mul_neg_permute_pow_rsqrt_sin_slice_unsqueeze_view_1 = async_compile.triton('triton_poi_fused_add_cat_clone_convert_element_type_expand_iota_mean_mul_neg_permute_pow_rsqrt_sin_slice_unsqueeze_view_1', '''
import triton
import triton.language as tl

from torch._inductor.runtime import triton_helpers, triton_heuristics
from torch._inductor.runtime.triton_helpers import libdevice, math as tl_math
from torch._inductor.runtime.hints import AutotuneHint, ReductionHint, TileHint, DeviceProperties
triton_helpers.set_driver_to_gpu()

@triton_heuristics.pointwise(
    size_hints={'y': 131072, 'x': 64}, tile_hint=TileHint.DEFAULT,
    filename=__file__,
    triton_meta={'signature': {'in_ptr0': '*bf16', 'in_ptr1': '*fp32', 'in_ptr2': '*bf16', 'out_ptr0': '*fp32', 'ynumel': 'i32', 'xnumel': 'i32', 'YBLOCK': 'constexpr', 'XBLOCK': 'constexpr'}, 'device': DeviceProperties(type='cuda', index=0, multi_processor_count=148, cc=100, major=10, regs_per_multiprocessor=65536, max_threads_per_multi_processor=2048, max_threads_per_block=1024, warp_size=32), 'constants': {}, 'native_matmul': False, 'enable_fp_fusion': True, 'launch_pdl': False, 'disable_ftz': False, 'configs': [{(0,): [['tt.divisibility', 16]], (1,): [['tt.divisibility', 16]], (2,): [['tt.divisibility', 16]], (3,): [['tt.divisibility', 16]], (4,): [['tt.divisibility', 16]], (5,): [['tt.divisibility', 16]]}]},
    inductor_meta={'grid_type': 'Grid2DWithYZOverflow', 'autotune_hints': set(), 'kernel_name': 'triton_poi_fused_add_cat_clone_convert_element_type_expand_iota_mean_mul_neg_permute_pow_rsqrt_sin_slice_unsqueeze_view_1', 'mutated_arg_names': [], 'optimize_mem': True, 'no_x_dim': False, 'atomic_add_found': False, 'num_load': 5, 'num_store': 1, 'num_reduction': 0, 'backend_hash': '24DD4EB3E46C537527C82D44AE961C79D45917162D3A4C30BD79DDC26D6A401F', 'assert_indirect_indexing': True, 'autotune_local_cache': True, 'autotune_pointwise': True, 'autotune_remote_cache': None, 'force_disable_caches': False, 'dynamic_scale_rblock': True, 'max_autotune': False, 'max_autotune_pointwise': False, 'min_split_scan_rblock': 256, 'spill_threshold': 16, 'store_cubin': False, 'deterministic': False, 'force_filter_reduction_configs': False, 'mix_order_reduction_allow_multi_stages': True, 'are_deterministic_algorithms_enabled': False, 'tiling_scores': {'y': 524288, 'x': 100663360}},
    min_elem_per_thread=0
)
@triton.jit
def triton_poi_fused_add_cat_clone_convert_element_type_expand_iota_mean_mul_neg_permute_pow_rsqrt_sin_slice_unsqueeze_view_1(in_ptr0, in_ptr1, in_ptr2, out_ptr0, ynumel, xnumel, YBLOCK : tl.constexpr, XBLOCK : tl.constexpr):
    ynumel = 131072
    xnumel = 64
    yoffset = (tl.program_id(1) + tl.program_id(2) * tl.num_programs(1)) * YBLOCK
    yindex = yoffset + tl.arange(0, YBLOCK)[:, None]
    ymask = yindex < ynumel
    xoffset = tl.program_id(0) * XBLOCK
    xindex = xoffset + tl.arange(0, XBLOCK)[None, :]
    xmask = xindex < xnumel
    x3 = xindex
    y4 = yindex
    y1 = ((yindex // 64) % 512)
    tmp33 = tl.load(in_ptr2 + (x3 // 2), xmask, eviction_policy='evict_last').to(tl.float32)
    tmp0 = (x3 % 2)
    tmp1 = tl.full([1, 1], 0, tl.int64)
    tmp2 = tmp0 >= tmp1
    tmp3 = tl.full([1, 1], 1, tl.int64)
    tmp4 = tmp0 < tmp3
    tmp5 = tl.load(in_ptr0 + (449 + 2*(x3 // 2) + 512*y4), tmp4 & xmask & ymask, eviction_policy='evict_last', other=0.0).to(tl.float32)
    tmp6 = tl.load(in_ptr1 + (tl.broadcast_to(y4, [YBLOCK, XBLOCK])), tmp4 & xmask & ymask, eviction_policy='evict_last', other=0.0)
    tmp7 = tl.full([1, 1], 512.0, tl.float32)
    tmp8 = (tmp6 / tmp7)
    tmp9 = tl.full([1, 1], 1e-06, tl.float32)
    tmp10 = tmp8 + tmp9
    tmp11 = libdevice.rsqrt(tmp10)
    tmp12 = tmp11.to(tl.float32)
    tmp13 = tmp5 * tmp12
    tmp14 = -tmp13
    tmp15 = tl.full(tmp14.shape, 0.0, tmp14.dtype)
    tmp16 = tl.where(tmp4, tmp14, tmp15)
    tmp17 = tmp0 >= tmp3
    tmp18 = tl.full([1, 1], 2, tl.int64)
    tmp19 = tmp0 < tmp18
    tmp20 = tl.load(in_ptr0 + (448 + 2*(x3 // 2) + 512*y4), tmp17 & xmask & ymask, eviction_policy='evict_last', other=0.0).to(tl.float32)
    tmp21 = tl.load(in_ptr1 + (tl.broadcast_to(y4, [YBLOCK, XBLOCK])), tmp17 & xmask & ymask, eviction_policy='evict_last', other=0.0)
    tmp22 = tl.full([1, 1], 512.0, tl.float32)
    tmp23 = (tmp21 / tmp22)
    tmp24 = tl.full([1, 1], 1e-06, tl.float32)
    tmp25 = tmp23 + tmp24
    tmp26 = libdevice.rsqrt(tmp25)
    tmp27 = tmp26.to(tl.float32)
    tmp28 = tmp20 * tmp27
    tmp29 = tl.full(tmp28.shape, 0.0, tmp28.dtype)
    tmp30 = tl.where(tmp17, tmp28, tmp29)
    tmp31 = tl.where(tmp4, tmp16, tmp30)
    tmp32 = tmp31.to(tl.float32)
    tmp34 = tmp33.to(tl.float32)
    tmp35 = y1
    tmp36 = tmp35.to(tl.float32)
    tmp37 = tmp34 * tmp36
    tmp38 = tl_math.sin(tmp37)
    tmp39 = tl.full([1, 1], 1.2772588722239782, tl.float32)
    tmp40 = tmp38 * tmp39
    tmp41 = tmp40.to(tl.float32)
    tmp42 = tmp41.to(tl.float32)
    tmp43 = tmp32 * tmp42
    tl.store(out_ptr0 + (x3 + 64*y4), tmp43, xmask & ymask)
''', device_str='cuda')


# kernel path: /tmp/tmpbw0pt5he/ey/ceyl2xnargd2sbf3hu4cauvqyemkzkinkw76hyqq2hb5qlvgcast.py
# Topologically Sorted Source Nodes: [reshape_default, reshape_default_1, permute_default, convert_element_type_default, pow_tensor_scalar, mean_dim, add_tensor, rsqrt_default, convert_element_type_default_1, mul_tensor, slice_tensor, slice_tensor_1, convert_element_type_default_2, unsqueeze_default, unsqueeze_default_1, convert_element_type_default_3, expand_default, iota_default, add_tensor_1, unsqueeze_default_2, unsqueeze_default_3, convert_element_type_default_4, mul_tensor_1, permute_default_1, cos_default, mul_tensor_2, convert_element_type_default_5, unsqueeze_default_4, expand_default_3, clone_default, reshape_default_2, unsqueeze_default_5, mul_tensor_3, add_tensor_2, convert_element_type_default_8, cat_default_1], Original ATen: [aten.view, aten.permute, prims.convert_element_type, aten.pow, aten.mean, aten.add, aten.rsqrt, aten.mul, aten.slice, aten.unsqueeze, aten.expand, prims.iota, aten.cos, aten.clone, aten.cat]
# Source node to ATen node mapping:
#   add_tensor => add
#   add_tensor_1 => add_1
#   add_tensor_2 => add_2
#   cat_default_1 => cat_1
#   clone_default => clone
#   convert_element_type_default => convert_element_type
#   convert_element_type_default_1 => convert_element_type_1
#   convert_element_type_default_2 => convert_element_type_2
#   convert_element_type_default_3 => convert_element_type_3
#   convert_element_type_default_4 => convert_element_type_4
#   convert_element_type_default_5 => convert_element_type_5
#   convert_element_type_default_8 => convert_element_type_8
#   cos_default => cos
#   expand_default => expand
#   expand_default_3 => expand_3
#   iota_default => iota
#   mean_dim => mean
#   mul_tensor => mul
#   mul_tensor_1 => mul_1
#   mul_tensor_2 => mul_2
#   mul_tensor_3 => mul_3
#   permute_default => permute
#   permute_default_1 => permute_1
#   pow_tensor_scalar => pow_1
#   reshape_default => view
#   reshape_default_1 => view_1
#   reshape_default_2 => view_2
#   rsqrt_default => rsqrt
#   slice_tensor => slice_1
#   slice_tensor_1 => slice_2
#   unsqueeze_default => unsqueeze
#   unsqueeze_default_1 => unsqueeze_1
#   unsqueeze_default_2 => unsqueeze_2
#   unsqueeze_default_3 => unsqueeze_3
#   unsqueeze_default_4 => unsqueeze_4
#   unsqueeze_default_5 => unsqueeze_5
# Graph fragment:
#   %arg0_1 : Tensor "bf16[2048, 32768][32768, 1]cuda:0" = PlaceHolder[target=arg0_1]
#   %buf0 : Tensor "f32[4, 64, 512, 1][32768, 1, 64, 131072]cuda:0" = PlaceHolder[target=buf0]
#   %arg1_1 : Tensor "bf16[32][1]cuda:0" = PlaceHolder[target=arg1_1]
#   %mul_5 : Tensor "f32[4, 64, 512, 64][2097152, 64, 4096, 1]cuda:0" = PlaceHolder[target=mul_5]
#   %view : Tensor "bf16[4, 512, 32768][16777216, 32768, 1]cuda:0"[num_users=1] = call_function[target=torch.ops.aten.reshape.default](args = (%arg0_1, [4, 512, 32768]), kwargs = {})
#   %view_1 : Tensor "bf16[4, 512, 64, 512][16777216, 32768, 512, 1]cuda:0"[num_users=1] = call_function[target=torch.ops.aten.reshape.default](args = (%view, [4, 512, -1, 512]), kwargs = {})
#   %permute : Tensor "bf16[4, 64, 512, 512][16777216, 512, 32768, 1]cuda:0"[num_users=2] = call_function[target=torch.ops.aten.permute.default](args = (%view_1, [0, 2, 1, 3]), kwargs = {})
#   %convert_element_type : Tensor "f32[4, 64, 512, 512][16777216, 512, 32768, 1]cuda:0"[num_users=1] = call_function[target=torch.ops.prims.convert_element_type.default](args = (%permute, torch.float32), kwargs = {})
#   %pow_1 : Tensor "f32[4, 64, 512, 512][16777216, 512, 32768, 1]cuda:0"[num_users=1] = call_function[target=torch.ops.aten.pow.Tensor_Scalar](args = (%convert_element_type, 2), kwargs = {})
#   %mean : Tensor "f32[4, 64, 512, 1][32768, 512, 1, 1]cuda:0"[num_users=1] = call_function[target=torch.ops.aten.mean.dim](args = (%pow_1, [-1], True), kwargs = {})
#   %add : Tensor "f32[4, 64, 512, 1][32768, 512, 1, 1]cuda:0"[num_users=1] = call_function[target=torch.ops.aten.add.Tensor](args = (%mean, 1e-06), kwargs = {})
#   %rsqrt : Tensor "f32[4, 64, 512, 1][32768, 512, 1, 1]cuda:0"[num_users=1] = call_function[target=torch.ops.aten.rsqrt.default](args = (%add,), kwargs = {})
#   %convert_element_type_1 : Tensor "bf16[4, 64, 512, 1][32768, 512, 1, 1]cuda:0"[num_users=1] = call_function[target=torch.ops.prims.convert_element_type.default](args = (%rsqrt, torch.bfloat16), kwargs = {})
#   %mul : Tensor "bf16[4, 64, 512, 512][16777216, 512, 32768, 1]cuda:0"[num_users=2] = call_function[target=torch.ops.aten.mul.Tensor](args = (%permute, %convert_element_type_1), kwargs = {})
#   %slice_1 : Tensor "bf16[4, 64, 512, 448][16777216, 512, 32768, 1]cuda:0"[num_users=1] = call_function[target=torch.ops.aten.slice.Tensor](args = (%mul, 3, 0, -64), kwargs = {})
#   %slice_2 : Tensor "bf16[4, 64, 512, 64][16777216, 512, 32768, 1]cuda:0"[num_users=3] = call_function[target=torch.ops.aten.slice.Tensor](args = (%mul, 3, -64, 9223372036854775807), kwargs = {})
#   %convert_element_type_2 : Tensor "f32[4, 64, 512, 64][2097152, 64, 4096, 1]cuda:0"[num_users=1] = call_function[target=torch.ops.prims.convert_element_type.default](args = (%slice_2, torch.float32), kwargs = {})
#   %unsqueeze : Tensor "bf16[1, 32][32, 1]cuda:0"[num_users=1] = call_function[target=torch.ops.aten.unsqueeze.default](args = (%arg1_1, 0), kwargs = {})
#   %unsqueeze_1 : Tensor "bf16[1, 32, 1][32, 1, 1]cuda:0"[num_users=1] = call_function[target=torch.ops.aten.unsqueeze.default](args = (%unsqueeze, 2), kwargs = {})
#   %convert_element_type_3 : Tensor "f32[1, 32, 1][32, 1, 1]cuda:0"[num_users=1] = call_function[target=torch.ops.prims.convert_element_type.default](args = (%unsqueeze_1, torch.float32), kwargs = {})
#   %expand : Tensor "f32[1, 32, 1][32, 1, 1]cuda:0"[num_users=1] = call_function[target=torch.ops.aten.expand.default](args = (%convert_element_type_3, [1, -1, 1]), kwargs = {})
#   %iota : Tensor "i64[512][1]cuda:0"[num_users=1] = call_function[target=torch.ops.prims.iota.default](args = (512,), kwargs = {start: 0, step: 1, dtype: torch.int64, device: cuda:0, requires_grad: False})
#   %add_1 : Tensor "i64[512][1]cuda:0"[num_users=1] = call_function[target=torch.ops.aten.add.Tensor](args = (%iota, 0), kwargs = {})
#   %unsqueeze_2 : Tensor "i64[1, 512][512, 1]cuda:0"[num_users=1] = call_function[target=torch.ops.aten.unsqueeze.default](args = (%add_1, 0), kwargs = {})
#   %unsqueeze_3 : Tensor "i64[1, 1, 512][512, 512, 1]cuda:0"[num_users=1] = call_function[target=torch.ops.aten.unsqueeze.default](args = (%unsqueeze_2, 1), kwargs = {})
#   %convert_element_type_4 : Tensor "f32[1, 1, 512][512, 512, 1]cuda:0"[num_users=1] = call_function[target=torch.ops.prims.convert_element_type.default](args = (%unsqueeze_3, torch.float32), kwargs = {})
#   %mul_1 : Tensor "f32[1, 32, 512][16384, 512, 1]cuda:0"[num_users=1] = call_function[target=torch.ops.aten.mul.Tensor](args = (%expand_1, %expand_2), kwargs = {})
#   %permute_1 : Tensor "f32[1, 512, 32][16384, 1, 512]cuda:0"[num_users=2] = call_function[target=torch.ops.aten.permute.default](args = (%mul_1, [0, 2, 1]), kwargs = {})
#   %cos : Tensor "f32[1, 512, 32][16384, 1, 512]cuda:0"[num_users=1] = call_function[target=torch.ops.aten.cos.default](args = (%permute_1,), kwargs = {})
#   %mul_2 : Tensor "f32[1, 512, 32][16384, 1, 512]cuda:0"[num_users=1] = call_function[target=torch.ops.aten.mul.Tensor](args = (%cos, 1.2772588722239782), kwargs = {})
#   %convert_element_type_5 : Tensor "bf16[1, 512, 32][16384, 1, 512]cuda:0"[num_users=2] = call_function[target=torch.ops.prims.convert_element_type.default](args = (%mul_2, torch.bfloat16), kwargs = {})
#   %unsqueeze_4 : Tensor "bf16[1, 512, 32, 1][16384, 1, 512, 1]cuda:0"[num_users=1] = call_function[target=torch.ops.aten.unsqueeze.default](args = (%convert_element_type_5, 3), kwargs = {})
#   %expand_3 : Tensor "bf16[1, 512, 32, 2][16384, 1, 512, 0]cuda:0"[num_users=1] = call_function[target=torch.ops.aten.expand.default](args = (%unsqueeze_4, [1, 512, 32, 2]), kwargs = {})
#   %clone : Tensor "bf16[1, 512, 32, 2][32768, 64, 2, 1]cuda:0"[num_users=1] = call_function[target=torch.ops.aten.clone.default](args = (%expand_3,), kwargs = {memory_format: torch.contiguous_format})
#   %view_2 : Tensor "bf16[1, 512, 64][32768, 64, 1]cuda:0"[num_users=1] = call_function[target=torch.ops.aten.reshape.default](args = (%clone, [1, 512, 64]), kwargs = {})
#   %unsqueeze_5 : Tensor "bf16[1, 1, 512, 64][32768, 32768, 64, 1]cuda:0"[num_users=1] = call_function[target=torch.ops.aten.unsqueeze.default](args = (%view_2, 1), kwargs = {})
#   %mul_3 : Tensor "f32[4, 64, 512, 64][2097152, 64, 4096, 1]cuda:0"[num_users=1] = call_function[target=torch.ops.aten.mul.Tensor](args = (%convert_element_type_2, %unsqueeze_5), kwargs = {})
#   %add_2 : Tensor "f32[4, 64, 512, 64][2097152, 64, 4096, 1]cuda:0"[num_users=1] = call_function[target=torch.ops.aten.add.Tensor](args = (%mul_3, %mul_5), kwargs = {})
#   %convert_element_type_8 : Tensor "bf16[4, 64, 512, 64][2097152, 64, 4096, 1]cuda:0"[num_users=1] = call_function[target=torch.ops.prims.convert_element_type.default](args = (%add_2, torch.bfloat16), kwargs = {})
#   %cat_1 : Tensor "bf16[4, 64, 512, 512][16777216, 262144, 512, 1]cuda:0"[num_users=1] = call_function[target=torch.ops.aten.cat.default](args = ([%slice_1, %convert_element_type_8], -1), kwargs = {})
#   return %expand_5
triton_poi_fused_add_cat_clone_convert_element_type_cos_expand_iota_mean_mul_permute_pow_rsqrt_slice_unsqueeze_view_2 = async_compile.triton('triton_poi_fused_add_cat_clone_convert_element_type_cos_expand_iota_mean_mul_permute_pow_rsqrt_slice_unsqueeze_view_2', '''
import triton
import triton.language as tl

from torch._inductor.runtime import triton_helpers, triton_heuristics
from torch._inductor.runtime.triton_helpers import libdevice, math as tl_math
from torch._inductor.runtime.hints import AutotuneHint, ReductionHint, TileHint, DeviceProperties
triton_helpers.set_driver_to_gpu()

@triton_heuristics.pointwise(
    size_hints={'x': 67108864}, 
    filename=__file__,
    triton_meta={'signature': {'in_ptr0': '*bf16', 'in_ptr1': '*fp32', 'in_ptr2': '*bf16', 'in_ptr3': '*fp32', 'out_ptr0': '*bf16', 'xnumel': 'i32', 'XBLOCK': 'constexpr'}, 'device': DeviceProperties(type='cuda', index=0, multi_processor_count=148, cc=100, major=10, regs_per_multiprocessor=65536, max_threads_per_multi_processor=2048, max_threads_per_block=1024, warp_size=32), 'constants': {}, 'native_matmul': False, 'enable_fp_fusion': True, 'launch_pdl': False, 'disable_ftz': False, 'configs': [{(0,): [['tt.divisibility', 16]], (1,): [['tt.divisibility', 16]], (2,): [['tt.divisibility', 16]], (3,): [['tt.divisibility', 16]], (4,): [['tt.divisibility', 16]], (5,): [['tt.divisibility', 16]]}]},
    inductor_meta={'grid_type': 'Grid1D', 'autotune_hints': set(), 'kernel_name': 'triton_poi_fused_add_cat_clone_convert_element_type_cos_expand_iota_mean_mul_permute_pow_rsqrt_slice_unsqueeze_view_2', 'mutated_arg_names': [], 'optimize_mem': True, 'no_x_dim': False, 'atomic_add_found': False, 'num_load': 6, 'num_store': 1, 'num_reduction': 0, 'backend_hash': '24DD4EB3E46C537527C82D44AE961C79D45917162D3A4C30BD79DDC26D6A401F', 'assert_indirect_indexing': True, 'autotune_local_cache': True, 'autotune_pointwise': True, 'autotune_remote_cache': None, 'force_disable_caches': False, 'dynamic_scale_rblock': True, 'max_autotune': False, 'max_autotune_pointwise': False, 'min_split_scan_rblock': 256, 'spill_threshold': 16, 'store_cubin': False, 'deterministic': False, 'force_filter_reduction_configs': False, 'mix_order_reduction_allow_multi_stages': True, 'are_deterministic_algorithms_enabled': False, 'tiling_scores': {'x': 436207680}},
    min_elem_per_thread=0
)
@triton.jit
def triton_poi_fused_add_cat_clone_convert_element_type_cos_expand_iota_mean_mul_permute_pow_rsqrt_slice_unsqueeze_view_2(in_ptr0, in_ptr1, in_ptr2, in_ptr3, out_ptr0, xnumel, XBLOCK : tl.constexpr):
    xnumel = 67108864
    xoffset = tl.program_id(0) * XBLOCK
    xindex = xoffset + tl.arange(0, XBLOCK)[:]
    xmask = tl.full([XBLOCK], True, tl.int1)[:]
    x0 = (xindex % 512)
    x4 = xindex // 512
    x2 = ((xindex // 32768) % 512)
    x1 = ((xindex // 512) % 64)
    x3 = xindex // 16777216
    tmp0 = x0
    tmp1 = tl.full([1], 0, tl.int64)
    tmp2 = tmp0 >= tmp1
    tmp3 = tl.full([1], 448, tl.int64)
    tmp4 = tmp0 < tmp3
    tmp5 = tl.load(in_ptr0 + (512*x4 + (x0)), tmp4, eviction_policy='evict_last', other=0.0).to(tl.float32)
    tmp6 = tl.load(in_ptr1 + (x4), tmp4, eviction_policy='evict_last', other=0.0)
    tmp7 = tl.full([1], 512.0, tl.float32)
    tmp8 = (tmp6 / tmp7)
    tmp9 = tl.full([1], 1e-06, tl.float32)
    tmp10 = tmp8 + tmp9
    tmp11 = libdevice.rsqrt(tmp10)
    tmp12 = tmp11.to(tl.float32)
    tmp13 = tmp5 * tmp12
    tmp14 = tl.full(tmp13.shape, 0.0, tmp13.dtype)
    tmp15 = tl.where(tmp4, tmp13, tmp14)
    tmp16 = tmp0 >= tmp3
    tmp17 = tl.full([1], 512, tl.int64)
    tmp18 = tmp0 < tmp17
    tmp19 = tl.load(in_ptr0 + (448 + 512*x4 + ((-448) + x0)), tmp16, eviction_policy='evict_last', other=0.0).to(tl.float32)
    tmp20 = tl.load(in_ptr1 + (x4), tmp16, eviction_policy='evict_last', other=0.0)
    tmp21 = tl.full([1], 512.0, tl.float32)
    tmp22 = (tmp20 / tmp21)
    tmp23 = tl.full([1], 1e-06, tl.float32)
    tmp24 = tmp22 + tmp23
    tmp25 = libdevice.rsqrt(tmp24)
    tmp26 = tmp25.to(tl.float32)
    tmp27 = tmp19 * tmp26
    tmp28 = tmp27.to(tl.float32)
    tmp29 = tl.load(in_ptr2 + (((((-448) + x0) // 2) % 32)), tmp16, eviction_policy='evict_last', other=0.0).to(tl.float32)
    tmp30 = tmp29.to(tl.float32)
    tmp31 = x2
    tmp32 = tmp31.to(tl.float32)
    tmp33 = tmp30 * tmp32
    tmp34 = tl_math.cos(tmp33)
    tmp35 = tl.full([1], 1.2772588722239782, tl.float32)
    tmp36 = tmp34 * tmp35
    tmp37 = tmp36.to(tl.float32)
    tmp38 = tmp37.to(tl.float32)
    tmp39 = tmp28 * tmp38
    tmp40 = tl.load(in_ptr3 + (64*x4 + ((-448) + x0)), tmp16, eviction_policy='evict_last', other=0.0)
    tmp41 = tmp39 + tmp40
    tmp42 = tmp41.to(tl.float32)
    tmp43 = tl.full(tmp42.shape, 0.0, tmp42.dtype)
    tmp44 = tl.where(tmp16, tmp42, tmp43)
    tmp45 = tl.where(tmp4, tmp15, tmp44)
    tl.store(out_ptr0 + (x0 + 512*x2 + 262144*x1 + 16777216*x3), tmp45, None)
''', device_str='cuda')


# kernel path: /tmp/tmpbw0pt5he/al/cal57budglhnafdk4ujmd4hdxcnambvz5qv7e7ak3a7lyg5hxl5s.py
# Topologically Sorted Source Nodes: [reshape_default_6, convert_element_type_default_9, pow_tensor_scalar_1, mean_dim_1], Original ATen: [aten.view, prims.convert_element_type, aten.pow, aten.mean]
# Source node to ATen node mapping:
#   convert_element_type_default_9 => convert_element_type_9
#   mean_dim_1 => mean_1
#   pow_tensor_scalar_1 => pow_2
#   reshape_default_6 => view_6
# Graph fragment:
#   %arg2_1 : Tensor "bf16[2048, 512][512, 1]cuda:0" = PlaceHolder[target=arg2_1]
#   %view_6 : Tensor "bf16[4, 512, 512][262144, 512, 1]cuda:0"[num_users=1] = call_function[target=torch.ops.aten.reshape.default](args = (%arg2_1, [4, 512, 512]), kwargs = {})
#   %convert_element_type_9 : Tensor "f32[4, 512, 512][262144, 512, 1]cuda:0"[num_users=2] = call_function[target=torch.ops.prims.convert_element_type.default](args = (%view_6, torch.float32), kwargs = {})
#   %pow_2 : Tensor "f32[4, 512, 512][262144, 512, 1]cuda:0"[num_users=1] = call_function[target=torch.ops.aten.pow.Tensor_Scalar](args = (%convert_element_type_9, 2), kwargs = {})
#   %mean_1 : Tensor "f32[4, 512, 1][512, 1, 1]cuda:0"[num_users=1] = call_function[target=torch.ops.aten.mean.dim](args = (%pow_2, [-1], True), kwargs = {})
#   return %buf3
triton_per_fused_convert_element_type_mean_pow_view_3 = async_compile.triton('triton_per_fused_convert_element_type_mean_pow_view_3', '''
import triton
import triton.language as tl

from torch._inductor.runtime import triton_helpers, triton_heuristics
from torch._inductor.runtime.triton_helpers import libdevice, math as tl_math
from torch._inductor.runtime.hints import AutotuneHint, ReductionHint, TileHint, DeviceProperties
triton_helpers.set_driver_to_gpu()

@triton_heuristics.persistent_reduction(
    size_hints={'x': 2048, 'r0_': 512},
    reduction_hint=ReductionHint.INNER,
    filename=__file__,
    triton_meta={'signature': {'in_ptr0': '*bf16', 'out_ptr0': '*fp32', 'xnumel': 'i32', 'r0_numel': 'i32', 'XBLOCK': 'constexpr'}, 'device': DeviceProperties(type='cuda', index=0, multi_processor_count=148, cc=100, major=10, regs_per_multiprocessor=65536, max_threads_per_multi_processor=2048, max_threads_per_block=1024, warp_size=32), 'constants': {}, 'native_matmul': False, 'enable_fp_fusion': True, 'launch_pdl': False, 'disable_ftz': False, 'configs': [{(0,): [['tt.divisibility', 16]], (1,): [['tt.divisibility', 16]], (2,): [['tt.divisibility', 16]], (3,): [['tt.divisibility', 16]]}]},
    inductor_meta={'grid_type': 'Grid1D', 'autotune_hints': set(), 'kernel_name': 'triton_per_fused_convert_element_type_mean_pow_view_3', 'mutated_arg_names': [], 'optimize_mem': True, 'no_x_dim': None, 'atomic_add_found': False, 'num_load': 1, 'num_store': 1, 'num_reduction': 1, 'backend_hash': '24DD4EB3E46C537527C82D44AE961C79D45917162D3A4C30BD79DDC26D6A401F', 'assert_indirect_indexing': True, 'autotune_local_cache': True, 'autotune_pointwise': True, 'autotune_remote_cache': None, 'force_disable_caches': False, 'dynamic_scale_rblock': True, 'max_autotune': False, 'max_autotune_pointwise': False, 'min_split_scan_rblock': 256, 'spill_threshold': 16, 'store_cubin': False, 'deterministic': False, 'force_filter_reduction_configs': False, 'mix_order_reduction_allow_multi_stages': True, 'are_deterministic_algorithms_enabled': False, 'tiling_scores': {'x': 16384, 'r0_': 2097152}}
)
@triton.jit
def triton_per_fused_convert_element_type_mean_pow_view_3(in_ptr0, out_ptr0, xnumel, r0_numel, XBLOCK : tl.constexpr):
    xnumel = 2048
    r0_numel = 512
    R0_BLOCK: tl.constexpr = 512
    rnumel = r0_numel
    RBLOCK: tl.constexpr = R0_BLOCK
    xoffset = tl.program_id(0) * XBLOCK
    xindex = xoffset + tl.arange(0, XBLOCK)[:, None]
    xmask = xindex < xnumel
    r0_index = tl.arange(0, R0_BLOCK)[None, :]
    r0_offset = 0
    r0_mask = tl.full([R0_BLOCK], True, tl.int1)[None, :]
    roffset = r0_offset
    rindex = r0_index
    r0_1 = r0_index
    x0 = xindex
    tmp0 = tl.load(in_ptr0 + (r0_1 + 512*x0), xmask, other=0.0).to(tl.float32)
    tmp1 = tmp0.to(tl.float32)
    tmp2 = tmp1 * tmp1
    tmp3 = tl.broadcast_to(tmp2, [XBLOCK, R0_BLOCK])
    tmp5 = tl.where(xmask, tmp3, 0)
    tmp6 = tl.sum(tmp5, 1)[:, None].to(tl.float32)
    tl.store(out_ptr0 + (x0), tmp6, xmask)
''', device_str='cuda')


# kernel path: /tmp/tmpbw0pt5he/u5/cu5xb33b7pze27zbdmcjia3b7dwoq7zpnz4q2yt6tduyreo7piiu.py
# Topologically Sorted Source Nodes: [unsqueeze_default, unsqueeze_default_1, convert_element_type_default_3, expand_default, iota_default, add_tensor_1, unsqueeze_default_2, unsqueeze_default_3, convert_element_type_default_4, mul_tensor_1, permute_default_1, cos_default, mul_tensor_2, convert_element_type_default_5, sin_default, mul_tensor_4, convert_element_type_default_7, reshape_default_6, convert_element_type_default_9, pow_tensor_scalar_1, mean_dim_1, add_tensor_3, rsqrt_default_1, mul_tensor_6, convert_element_type_default_10, mul_tensor_7, reshape_default_7, permute_default_2, slice_tensor_5, convert_element_type_default_11, unsqueeze_default_10, expand_default_6, clone_default_2, reshape_default_8, unsqueeze_default_11, mul_tensor_8, slice_tensor_6, neg_default_1, unsqueeze_default_12, slice_tensor_7, unsqueeze_default_13, cat_default_2, reshape_default_9, convert_element_type_default_12, unsqueeze_default_14, expand_default_7, clone_default_3, reshape_default_10, unsqueeze_default_15, mul_tensor_9, add_tensor_4], Original ATen: [aten.unsqueeze, prims.convert_element_type, aten.expand, prims.iota, aten.add, aten.mul, aten.permute, aten.cos, aten.sin, aten.view, aten.pow, aten.mean, aten.rsqrt, aten.slice, aten.clone, aten.neg, aten.cat]
# Source node to ATen node mapping:
#   add_tensor_1 => add_1
#   add_tensor_3 => add_3
#   add_tensor_4 => add_4
#   cat_default_2 => cat_2
#   clone_default_2 => clone_2
#   clone_default_3 => clone_3
#   convert_element_type_default_10 => convert_element_type_10
#   convert_element_type_default_11 => convert_element_type_11
#   convert_element_type_default_12 => convert_element_type_12
#   convert_element_type_default_3 => convert_element_type_3
#   convert_element_type_default_4 => convert_element_type_4
#   convert_element_type_default_5 => convert_element_type_5
#   convert_element_type_default_7 => convert_element_type_7
#   convert_element_type_default_9 => convert_element_type_9
#   cos_default => cos
#   expand_default => expand
#   expand_default_6 => expand_6
#   expand_default_7 => expand_7
#   iota_default => iota
#   mean_dim_1 => mean_1
#   mul_tensor_1 => mul_1
#   mul_tensor_2 => mul_2
#   mul_tensor_4 => mul_4
#   mul_tensor_6 => mul_6
#   mul_tensor_7 => mul_7
#   mul_tensor_8 => mul_8
#   mul_tensor_9 => mul_9
#   neg_default_1 => neg_1
#   permute_default_1 => permute_1
#   permute_default_2 => permute_2
#   pow_tensor_scalar_1 => pow_2
#   reshape_default_10 => view_10
#   reshape_default_6 => view_6
#   reshape_default_7 => view_7
#   reshape_default_8 => view_8
#   reshape_default_9 => view_9
#   rsqrt_default_1 => rsqrt_1
#   sin_default => sin
#   slice_tensor_5 => slice_6
#   slice_tensor_6 => slice_7
#   slice_tensor_7 => slice_8
#   unsqueeze_default => unsqueeze
#   unsqueeze_default_1 => unsqueeze_1
#   unsqueeze_default_10 => unsqueeze_10
#   unsqueeze_default_11 => unsqueeze_11
#   unsqueeze_default_12 => unsqueeze_12
#   unsqueeze_default_13 => unsqueeze_13
#   unsqueeze_default_14 => unsqueeze_14
#   unsqueeze_default_15 => unsqueeze_15
#   unsqueeze_default_2 => unsqueeze_2
#   unsqueeze_default_3 => unsqueeze_3
# Graph fragment:
#   %arg3_1 : Tensor "bf16[512][1]cuda:0" = PlaceHolder[target=arg3_1]
#   %arg2_1 : Tensor "bf16[2048, 512][512, 1]cuda:0" = PlaceHolder[target=arg2_1]
#   %buf3 : Tensor "f32[4, 512, 1][512, 1, 2048]cuda:0" = PlaceHolder[target=buf3]
#   %arg1_1 : Tensor "bf16[32][1]cuda:0" = PlaceHolder[target=arg1_1]
#   %convert_element_type_12 : Tensor "f32[4, 1, 512, 64][32768, 131072, 64, 1]cuda:0" = PlaceHolder[target=convert_element_type_12]
#   %unsqueeze : Tensor "bf16[1, 32][32, 1]cuda:0"[num_users=1] = call_function[target=torch.ops.aten.unsqueeze.default](args = (%arg1_1, 0), kwargs = {})
#   %unsqueeze_1 : Tensor "bf16[1, 32, 1][32, 1, 1]cuda:0"[num_users=1] = call_function[target=torch.ops.aten.unsqueeze.default](args = (%unsqueeze, 2), kwargs = {})
#   %convert_element_type_3 : Tensor "f32[1, 32, 1][32, 1, 1]cuda:0"[num_users=1] = call_function[target=torch.ops.prims.convert_element_type.default](args = (%unsqueeze_1, torch.float32), kwargs = {})
#   %expand : Tensor "f32[1, 32, 1][32, 1, 1]cuda:0"[num_users=1] = call_function[target=torch.ops.aten.expand.default](args = (%convert_element_type_3, [1, -1, 1]), kwargs = {})
#   %iota : Tensor "i64[512][1]cuda:0"[num_users=1] = call_function[target=torch.ops.prims.iota.default](args = (512,), kwargs = {start: 0, step: 1, dtype: torch.int64, device: cuda:0, requires_grad: False})
#   %add_1 : Tensor "i64[512][1]cuda:0"[num_users=1] = call_function[target=torch.ops.aten.add.Tensor](args = (%iota, 0), kwargs = {})
#   %unsqueeze_2 : Tensor "i64[1, 512][512, 1]cuda:0"[num_users=1] = call_function[target=torch.ops.aten.unsqueeze.default](args = (%add_1, 0), kwargs = {})
#   %unsqueeze_3 : Tensor "i64[1, 1, 512][512, 512, 1]cuda:0"[num_users=1] = call_function[target=torch.ops.aten.unsqueeze.default](args = (%unsqueeze_2, 1), kwargs = {})
#   %convert_element_type_4 : Tensor "f32[1, 1, 512][512, 512, 1]cuda:0"[num_users=1] = call_function[target=torch.ops.prims.convert_element_type.default](args = (%unsqueeze_3, torch.float32), kwargs = {})
#   %mul_1 : Tensor "f32[1, 32, 512][16384, 512, 1]cuda:0"[num_users=1] = call_function[target=torch.ops.aten.mul.Tensor](args = (%expand_1, %expand_2), kwargs = {})
#   %permute_1 : Tensor "f32[1, 512, 32][16384, 1, 512]cuda:0"[num_users=2] = call_function[target=torch.ops.aten.permute.default](args = (%mul_1, [0, 2, 1]), kwargs = {})
#   %cos : Tensor "f32[1, 512, 32][16384, 1, 512]cuda:0"[num_users=1] = call_function[target=torch.ops.aten.cos.default](args = (%permute_1,), kwargs = {})
#   %mul_2 : Tensor "f32[1, 512, 32][16384, 1, 512]cuda:0"[num_users=1] = call_function[target=torch.ops.aten.mul.Tensor](args = (%cos, 1.2772588722239782), kwargs = {})
#   %convert_element_type_5 : Tensor "bf16[1, 512, 32][16384, 1, 512]cuda:0"[num_users=2] = call_function[target=torch.ops.prims.convert_element_type.default](args = (%mul_2, torch.bfloat16), kwargs = {})
#   %sin : Tensor "f32[1, 512, 32][16384, 1, 512]cuda:0"[num_users=1] = call_function[target=torch.ops.aten.sin.default](args = (%permute_1,), kwargs = {})
#   %mul_4 : Tensor "f32[1, 512, 32][16384, 1, 512]cuda:0"[num_users=1] = call_function[target=torch.ops.aten.mul.Tensor](args = (%sin, 1.2772588722239782), kwargs = {})
#   %convert_element_type_7 : Tensor "bf16[1, 512, 32][16384, 1, 512]cuda:0"[num_users=2] = call_function[target=torch.ops.prims.convert_element_type.default](args = (%mul_4, torch.bfloat16), kwargs = {})
#   %view_6 : Tensor "bf16[4, 512, 512][262144, 512, 1]cuda:0"[num_users=1] = call_function[target=torch.ops.aten.reshape.default](args = (%arg2_1, [4, 512, 512]), kwargs = {})
#   %convert_element_type_9 : Tensor "f32[4, 512, 512][262144, 512, 1]cuda:0"[num_users=2] = call_function[target=torch.ops.prims.convert_element_type.default](args = (%view_6, torch.float32), kwargs = {})
#   %pow_2 : Tensor "f32[4, 512, 512][262144, 512, 1]cuda:0"[num_users=1] = call_function[target=torch.ops.aten.pow.Tensor_Scalar](args = (%convert_element_type_9, 2), kwargs = {})
#   %mean_1 : Tensor "f32[4, 512, 1][512, 1, 1]cuda:0"[num_users=1] = call_function[target=torch.ops.aten.mean.dim](args = (%pow_2, [-1], True), kwargs = {})
#   %add_3 : Tensor "f32[4, 512, 1][512, 1, 1]cuda:0"[num_users=1] = call_function[target=torch.ops.aten.add.Tensor](args = (%mean_1, 1e-06), kwargs = {})
#   %rsqrt_1 : Tensor "f32[4, 512, 1][512, 1, 1]cuda:0"[num_users=1] = call_function[target=torch.ops.aten.rsqrt.default](args = (%add_3,), kwargs = {})
#   %mul_6 : Tensor "f32[4, 512, 512][262144, 512, 1]cuda:0"[num_users=1] = call_function[target=torch.ops.aten.mul.Tensor](args = (%convert_element_type_9, %rsqrt_1), kwargs = {})
#   %convert_element_type_10 : Tensor "bf16[4, 512, 512][262144, 512, 1]cuda:0"[num_users=1] = call_function[target=torch.ops.prims.convert_element_type.default](args = (%mul_6, torch.bfloat16), kwargs = {})
#   %mul_7 : Tensor "bf16[4, 512, 512][262144, 512, 1]cuda:0"[num_users=1] = call_function[target=torch.ops.aten.mul.Tensor](args = (%arg3_1, %convert_element_type_10), kwargs = {})
#   %view_7 : Tensor "bf16[4, 512, 1, 512][262144, 512, 512, 1]cuda:0"[num_users=1] = call_function[target=torch.ops.aten.reshape.default](args = (%mul_7, [4, 512, -1, 512]), kwargs = {})
#   %permute_2 : Tensor "bf16[4, 1, 512, 512][262144, 512, 512, 1]cuda:0"[num_users=2] = call_function[target=torch.ops.aten.permute.default](args = (%view_7, [0, 2, 1, 3]), kwargs = {})
#   %slice_6 : Tensor "bf16[4, 1, 512, 64][262144, 512, 512, 1]cuda:0"[num_users=3] = call_function[target=torch.ops.aten.slice.Tensor](args = (%permute_2, 3, -64, 9223372036854775807), kwargs = {})
#   %convert_element_type_11 : Tensor "f32[4, 1, 512, 64][32768, 64, 64, 1]cuda:0"[num_users=1] = call_function[target=torch.ops.prims.convert_element_type.default](args = (%slice_6, torch.float32), kwargs = {})
#   %unsqueeze_10 : Tensor "bf16[1, 512, 32, 1][16384, 1, 512, 1]cuda:0"[num_users=1] = call_function[target=torch.ops.aten.unsqueeze.default](args = (%convert_element_type_5, 3), kwargs = {})
#   %expand_6 : Tensor "bf16[1, 512, 32, 2][16384, 1, 512, 0]cuda:0"[num_users=1] = call_function[target=torch.ops.aten.expand.default](args = (%unsqueeze_10, [1, 512, 32, 2]), kwargs = {})
#   %clone_2 : Tensor "bf16[1, 512, 32, 2][32768, 64, 2, 1]cuda:0"[num_users=1] = call_function[target=torch.ops.aten.clone.default](args = (%expand_6,), kwargs = {memory_format: torch.contiguous_format})
#   %view_8 : Tensor "bf16[1, 512, 64][32768, 64, 1]cuda:0"[num_users=1] = call_function[target=torch.ops.aten.reshape.default](args = (%clone_2, [1, 512, 64]), kwargs = {})
#   %unsqueeze_11 : Tensor "bf16[1, 1, 512, 64][32768, 32768, 64, 1]cuda:0"[num_users=1] = call_function[target=torch.ops.aten.unsqueeze.default](args = (%view_8, 1), kwargs = {})
#   %mul_8 : Tensor "f32[4, 1, 512, 64][32768, 64, 64, 1]cuda:0"[num_users=1] = call_function[target=torch.ops.aten.mul.Tensor](args = (%convert_element_type_11, %unsqueeze_11), kwargs = {})
#   %slice_7 : Tensor "bf16[4, 1, 512, 32][262144, 512, 512, 2]cuda:0"[num_users=1] = call_function[target=torch.ops.aten.slice.Tensor](args = (%slice_6, 3, 1, 9223372036854775807, 2), kwargs = {})
#   %neg_1 : Tensor "bf16[4, 1, 512, 32][16384, 32, 32, 1]cuda:0"[num_users=1] = call_function[target=torch.ops.aten.neg.default](args = (%slice_7,), kwargs = {})
#   %unsqueeze_12 : Tensor "bf16[4, 1, 512, 32, 1][16384, 32, 32, 1, 1]cuda:0"[num_users=1] = call_function[target=torch.ops.aten.unsqueeze.default](args = (%neg_1, 4), kwargs = {})
#   %slice_8 : Tensor "bf16[4, 1, 512, 32][262144, 512, 512, 2]cuda:0"[num_users=1] = call_function[target=torch.ops.aten.slice.Tensor](args = (%slice_6, 3, 0, 9223372036854775807, 2), kwargs = {})
#   %unsqueeze_13 : Tensor "bf16[4, 1, 512, 32, 1][262144, 512, 512, 2, 1]cuda:0"[num_users=1] = call_function[target=torch.ops.aten.unsqueeze.default](args = (%slice_8, 4), kwargs = {})
#   %cat_2 : Tensor "bf16[4, 1, 512, 32, 2][32768, 32768, 64, 2, 1]cuda:0"[num_users=1] = call_function[target=torch.ops.aten.cat.default](args = ([%unsqueeze_12, %unsqueeze_13], -1), kwargs = {})
#   %view_9 : Tensor "bf16[4, 1, 512, 64][32768, 32768, 64, 1]cuda:0"[num_users=1] = call_function[target=torch.ops.aten.reshape.default](args = (%cat_2, [4, 1, 512, 64]), kwargs = {})
#   %convert_element_type_12 : Tensor "f32[4, 1, 512, 64][32768, 32768, 64, 1]cuda:0"[num_users=1] = call_function[target=torch.ops.prims.convert_element_type.default](args = (%view_9, torch.float32), kwargs = {})
#   %unsqueeze_14 : Tensor "bf16[1, 512, 32, 1][16384, 1, 512, 1]cuda:0"[num_users=1] = call_function[target=torch.ops.aten.unsqueeze.default](args = (%convert_element_type_7, 3), kwargs = {})
#   %expand_7 : Tensor "bf16[1, 512, 32, 2][16384, 1, 512, 0]cuda:0"[num_users=1] = call_function[target=torch.ops.aten.expand.default](args = (%unsqueeze_14, [1, 512, 32, 2]), kwargs = {})
#   %clone_3 : Tensor "bf16[1, 512, 32, 2][32768, 64, 2, 1]cuda:0"[num_users=1] = call_function[target=torch.ops.aten.clone.default](args = (%expand_7,), kwargs = {memory_format: torch.contiguous_format})
#   %view_10 : Tensor "bf16[1, 512, 64][32768, 64, 1]cuda:0"[num_users=1] = call_function[target=torch.ops.aten.reshape.default](args = (%clone_3, [1, 512, 64]), kwargs = {})
#   %unsqueeze_15 : Tensor "bf16[1, 1, 512, 64][32768, 32768, 64, 1]cuda:0"[num_users=1] = call_function[target=torch.ops.aten.unsqueeze.default](args = (%view_10, 1), kwargs = {})
#   %mul_9 : Tensor "f32[4, 1, 512, 64][32768, 32768, 64, 1]cuda:0"[num_users=1] = call_function[target=torch.ops.aten.mul.Tensor](args = (%convert_element_type_12, %unsqueeze_15), kwargs = {})
#   %add_4 : Tensor "f32[4, 1, 512, 64][32768, 64, 64, 1]cuda:0"[num_users=1] = call_function[target=torch.ops.aten.add.Tensor](args = (%mul_8, %mul_9), kwargs = {})
#   return %convert_element_type_12,%add_4
triton_poi_fused_add_cat_clone_convert_element_type_cos_expand_iota_mean_mul_neg_permute_pow_rsqrt_sin_slice_unsqueeze_view_4 = async_compile.triton('triton_poi_fused_add_cat_clone_convert_element_type_cos_expand_iota_mean_mul_neg_permute_pow_rsqrt_sin_slice_unsqueeze_view_4', '''
import triton
import triton.language as tl

from torch._inductor.runtime import triton_helpers, triton_heuristics
from torch._inductor.runtime.triton_helpers import libdevice, math as tl_math
from torch._inductor.runtime.hints import AutotuneHint, ReductionHint, TileHint, DeviceProperties
triton_helpers.set_driver_to_gpu()

@triton_heuristics.pointwise(
    size_hints={'x': 131072}, 
    filename=__file__,
    triton_meta={'signature': {'in_out_ptr0': '*fp32', 'in_ptr0': '*bf16', 'in_ptr1': '*bf16', 'in_ptr2': '*fp32', 'in_ptr3': '*bf16', 'xnumel': 'i32', 'XBLOCK': 'constexpr'}, 'device': DeviceProperties(type='cuda', index=0, multi_processor_count=148, cc=100, major=10, regs_per_multiprocessor=65536, max_threads_per_multi_processor=2048, max_threads_per_block=1024, warp_size=32), 'constants': {}, 'native_matmul': False, 'enable_fp_fusion': True, 'launch_pdl': False, 'disable_ftz': False, 'configs': [{(0,): [['tt.divisibility', 16]], (1,): [['tt.divisibility', 16]], (2,): [['tt.divisibility', 16]], (3,): [['tt.divisibility', 16]], (4,): [['tt.divisibility', 16]], (5,): [['tt.divisibility', 16]]}]},
    inductor_meta={'grid_type': 'Grid1D', 'autotune_hints': set(), 'kernel_name': 'triton_poi_fused_add_cat_clone_convert_element_type_cos_expand_iota_mean_mul_neg_permute_pow_rsqrt_sin_slice_unsqueeze_view_4', 'mutated_arg_names': ['in_out_ptr0'], 'optimize_mem': True, 'no_x_dim': False, 'atomic_add_found': False, 'num_load': 10, 'num_store': 1, 'num_reduction': 0, 'backend_hash': '24DD4EB3E46C537527C82D44AE961C79D45917162D3A4C30BD79DDC26D6A401F', 'assert_indirect_indexing': True, 'autotune_local_cache': True, 'autotune_pointwise': True, 'autotune_remote_cache': None, 'force_disable_caches': False, 'dynamic_scale_rblock': True, 'max_autotune': False, 'max_autotune_pointwise': False, 'min_split_scan_rblock': 256, 'spill_threshold': 16, 'store_cubin': False, 'deterministic': False, 'force_filter_reduction_configs': False, 'mix_order_reduction_allow_multi_stages': True, 'are_deterministic_algorithms_enabled': False, 'tiling_scores': {'x': 1835456}},
    min_elem_per_thread=0
)
@triton.jit
def triton_poi_fused_add_cat_clone_convert_element_type_cos_expand_iota_mean_mul_neg_permute_pow_rsqrt_sin_slice_unsqueeze_view_4(in_out_ptr0, in_ptr0, in_ptr1, in_ptr2, in_ptr3, xnumel, XBLOCK : tl.constexpr):
    xnumel = 131072
    xoffset = tl.program_id(0) * XBLOCK
    xindex = xoffset + tl.arange(0, XBLOCK)[:]
    xmask = tl.full([XBLOCK], True, tl.int1)[:]
    x4 = xindex
    x0 = (xindex % 64)
    x1 = xindex // 64
    x2 = ((xindex // 64) % 512)
    tmp39 = tl.load(in_ptr0 + (448 + x0), None, eviction_policy='evict_last').to(tl.float32)
    tmp40 = tl.load(in_ptr1 + (448 + x0 + 512*x1), None).to(tl.float32)
    tmp42 = tl.load(in_ptr2 + (x1), None, eviction_policy='evict_last')
    tmp52 = tl.load(in_ptr3 + (x0 // 2), None, eviction_policy='evict_last').to(tl.float32)
    tmp0 = (x4 % 2)
    tmp1 = tl.full([1], 0, tl.int64)
    tmp2 = tmp0 >= tmp1
    tmp3 = tl.full([1], 1, tl.int64)
    tmp4 = tmp0 < tmp3
    tmp5 = tl.load(in_ptr0 + (449 + 2*(x0 // 2)), tmp4, eviction_policy='evict_last', other=0.0).to(tl.float32)
    tmp6 = tl.load(in_ptr1 + (449 + 2*(x0 // 2) + 512*x1), tmp4, eviction_policy='evict_last', other=0.0).to(tl.float32)
    tmp7 = tmp6.to(tl.float32)
    tmp8 = tl.load(in_ptr2 + (x1), tmp4, eviction_policy='evict_last', other=0.0)
    tmp9 = tl.full([1], 512.0, tl.float32)
    tmp10 = (tmp8 / tmp9)
    tmp11 = tl.full([1], 1e-06, tl.float32)
    tmp12 = tmp10 + tmp11
    tmp13 = libdevice.rsqrt(tmp12)
    tmp14 = tmp7 * tmp13
    tmp15 = tmp14.to(tl.float32)
    tmp16 = tmp5 * tmp15
    tmp17 = -tmp16
    tmp18 = tl.full(tmp17.shape, 0.0, tmp17.dtype)
    tmp19 = tl.where(tmp4, tmp17, tmp18)
    tmp20 = tmp0 >= tmp3
    tmp21 = tl.full([1], 2, tl.int64)
    tmp22 = tmp0 < tmp21
    tmp23 = tl.load(in_ptr0 + (448 + 2*(x0 // 2)), tmp20, eviction_policy='evict_last', other=0.0).to(tl.float32)
    tmp24 = tl.load(in_ptr1 + (448 + 2*(x0 // 2) + 512*x1), tmp20, eviction_policy='evict_last', other=0.0).to(tl.float32)
    tmp25 = tmp24.to(tl.float32)
    tmp26 = tl.load(in_ptr2 + (x1), tmp20, eviction_policy='evict_last', other=0.0)
    tmp27 = tl.full([1], 512.0, tl.float32)
    tmp28 = (tmp26 / tmp27)
    tmp29 = tl.full([1], 1e-06, tl.float32)
    tmp30 = tmp28 + tmp29
    tmp31 = libdevice.rsqrt(tmp30)
    tmp32 = tmp25 * tmp31
    tmp33 = tmp32.to(tl.float32)
    tmp34 = tmp23 * tmp33
    tmp35 = tl.full(tmp34.shape, 0.0, tmp34.dtype)
    tmp36 = tl.where(tmp20, tmp34, tmp35)
    tmp37 = tl.where(tmp4, tmp19, tmp36)
    tmp38 = tmp37.to(tl.float32)
    tmp41 = tmp40.to(tl.float32)
    tmp43 = tl.full([1], 512.0, tl.float32)
    tmp44 = (tmp42 / tmp43)
    tmp45 = tl.full([1], 1e-06, tl.float32)
    tmp46 = tmp44 + tmp45
    tmp47 = libdevice.rsqrt(tmp46)
    tmp48 = tmp41 * tmp47
    tmp49 = tmp48.to(tl.float32)
    tmp50 = tmp39 * tmp49
    tmp51 = tmp50.to(tl.float32)
    tmp53 = tmp52.to(tl.float32)
    tmp54 = x2
    tmp55 = tmp54.to(tl.float32)
    tmp56 = tmp53 * tmp55
    tmp57 = tl_math.cos(tmp56)
    tmp58 = tl.full([1], 1.2772588722239782, tl.float32)
    tmp59 = tmp57 * tmp58
    tmp60 = tmp59.to(tl.float32)
    tmp61 = tmp60.to(tl.float32)
    tmp62 = tmp51 * tmp61
    tmp63 = tl_math.sin(tmp56)
    tmp64 = tmp63 * tmp58
    tmp65 = tmp64.to(tl.float32)
    tmp66 = tmp65.to(tl.float32)
    tmp67 = tmp38 * tmp66
    tmp68 = tmp62 + tmp67
    tl.store(in_out_ptr0 + (x4), tmp68, None)
''', device_str='cuda')


# kernel path: /tmp/tmpbw0pt5he/nm/cnmu2kqanaxb2bgbucrit7qnhmns6xgn3qrnhiow7loevbxrphnw.py
# Topologically Sorted Source Nodes: [reshape_default_6, convert_element_type_default_9, pow_tensor_scalar_1, mean_dim_1, add_tensor_3, rsqrt_default_1, mul_tensor_6, convert_element_type_default_10, mul_tensor_7, reshape_default_7, permute_default_2, slice_tensor_4, convert_element_type_default_13, cat_default_3, unsqueeze_default_16, expand_default_8, reshape_default_11, permute_default_3, clone_default_4], Original ATen: [aten.view, prims.convert_element_type, aten.pow, aten.mean, aten.add, aten.rsqrt, aten.mul, aten.permute, aten.slice, aten.cat, aten.unsqueeze, aten.expand, aten.clone]
# Source node to ATen node mapping:
#   add_tensor_3 => add_3
#   cat_default_3 => cat_3
#   clone_default_4 => clone_4
#   convert_element_type_default_10 => convert_element_type_10
#   convert_element_type_default_13 => convert_element_type_13
#   convert_element_type_default_9 => convert_element_type_9
#   expand_default_8 => expand_8
#   mean_dim_1 => mean_1
#   mul_tensor_6 => mul_6
#   mul_tensor_7 => mul_7
#   permute_default_2 => permute_2
#   permute_default_3 => permute_3
#   pow_tensor_scalar_1 => pow_2
#   reshape_default_11 => view_11
#   reshape_default_6 => view_6
#   reshape_default_7 => view_7
#   rsqrt_default_1 => rsqrt_1
#   slice_tensor_4 => slice_5
#   unsqueeze_default_16 => unsqueeze_16
# Graph fragment:
#   %arg3_1 : Tensor "bf16[512][1]cuda:0" = PlaceHolder[target=arg3_1]
#   %arg2_1 : Tensor "bf16[2048, 512][512, 1]cuda:0" = PlaceHolder[target=arg2_1]
#   %buf3 : Tensor "f32[4, 512, 1][512, 1, 2048]cuda:0" = PlaceHolder[target=buf3]
#   %add_4 : Tensor "f32[4, 1, 512, 64][32768, 131072, 64, 1]cuda:0" = PlaceHolder[target=add_4]
#   %view_6 : Tensor "bf16[4, 512, 512][262144, 512, 1]cuda:0"[num_users=1] = call_function[target=torch.ops.aten.reshape.default](args = (%arg2_1, [4, 512, 512]), kwargs = {})
#   %convert_element_type_9 : Tensor "f32[4, 512, 512][262144, 512, 1]cuda:0"[num_users=2] = call_function[target=torch.ops.prims.convert_element_type.default](args = (%view_6, torch.float32), kwargs = {})
#   %pow_2 : Tensor "f32[4, 512, 512][262144, 512, 1]cuda:0"[num_users=1] = call_function[target=torch.ops.aten.pow.Tensor_Scalar](args = (%convert_element_type_9, 2), kwargs = {})
#   %mean_1 : Tensor "f32[4, 512, 1][512, 1, 1]cuda:0"[num_users=1] = call_function[target=torch.ops.aten.mean.dim](args = (%pow_2, [-1], True), kwargs = {})
#   %add_3 : Tensor "f32[4, 512, 1][512, 1, 1]cuda:0"[num_users=1] = call_function[target=torch.ops.aten.add.Tensor](args = (%mean_1, 1e-06), kwargs = {})
#   %rsqrt_1 : Tensor "f32[4, 512, 1][512, 1, 1]cuda:0"[num_users=1] = call_function[target=torch.ops.aten.rsqrt.default](args = (%add_3,), kwargs = {})
#   %mul_6 : Tensor "f32[4, 512, 512][262144, 512, 1]cuda:0"[num_users=1] = call_function[target=torch.ops.aten.mul.Tensor](args = (%convert_element_type_9, %rsqrt_1), kwargs = {})
#   %convert_element_type_10 : Tensor "bf16[4, 512, 512][262144, 512, 1]cuda:0"[num_users=1] = call_function[target=torch.ops.prims.convert_element_type.default](args = (%mul_6, torch.bfloat16), kwargs = {})
#   %mul_7 : Tensor "bf16[4, 512, 512][262144, 512, 1]cuda:0"[num_users=1] = call_function[target=torch.ops.aten.mul.Tensor](args = (%arg3_1, %convert_element_type_10), kwargs = {})
#   %view_7 : Tensor "bf16[4, 512, 1, 512][262144, 512, 512, 1]cuda:0"[num_users=1] = call_function[target=torch.ops.aten.reshape.default](args = (%mul_7, [4, 512, -1, 512]), kwargs = {})
#   %permute_2 : Tensor "bf16[4, 1, 512, 512][262144, 512, 512, 1]cuda:0"[num_users=2] = call_function[target=torch.ops.aten.permute.default](args = (%view_7, [0, 2, 1, 3]), kwargs = {})
#   %slice_5 : Tensor "bf16[4, 1, 512, 448][262144, 512, 512, 1]cuda:0"[num_users=1] = call_function[target=torch.ops.aten.slice.Tensor](args = (%permute_2, 3, 0, -64), kwargs = {})
#   %convert_element_type_13 : Tensor "bf16[4, 1, 512, 64][32768, 64, 64, 1]cuda:0"[num_users=1] = call_function[target=torch.ops.prims.convert_element_type.default](args = (%add_4, torch.bfloat16), kwargs = {})
#   %cat_3 : Tensor "bf16[4, 1, 512, 512][262144, 262144, 512, 1]cuda:0"[num_users=1] = call_function[target=torch.ops.aten.cat.default](args = ([%slice_5, %convert_element_type_13], -1), kwargs = {})
#   %unsqueeze_16 : Tensor "bf16[4, 1, 1, 512, 512][262144, 262144, 262144, 512, 1]cuda:0"[num_users=1] = call_function[target=torch.ops.aten.unsqueeze.default](args = (%cat_3, 2), kwargs = {})
#   %expand_8 : Tensor "bf16[4, 1, 64, 512, 512][262144, 262144, 0, 512, 1]cuda:0"[num_users=1] = call_function[target=torch.ops.aten.expand.default](args = (%unsqueeze_16, [4, 1, 64, 512, 512]), kwargs = {})
#   %view_11 : Tensor "bf16[4, 64, 512, 512][262144, 0, 512, 1]cuda:0"[num_users=1] = call_function[target=torch.ops.aten.reshape.default](args = (%expand_8, [4, 64, 512, 512]), kwargs = {})
#   %permute_3 : Tensor "bf16[4, 64, 512, 512][262144, 0, 1, 512]cuda:0"[num_users=1] = call_function[target=torch.ops.aten.permute.default](args = (%view_11, [0, 1, 3, 2]), kwargs = {})
#   %clone_4 : Tensor "bf16[4, 64, 512, 512][16777216, 262144, 512, 1]cuda:0"[num_users=1] = call_function[target=torch.ops.aten.clone.default](args = (%expand_9,), kwargs = {memory_format: torch.contiguous_format})
#   return %clone_4
triton_poi_fused_add_cat_clone_convert_element_type_expand_mean_mul_permute_pow_rsqrt_slice_unsqueeze_view_5 = async_compile.triton('triton_poi_fused_add_cat_clone_convert_element_type_expand_mean_mul_permute_pow_rsqrt_slice_unsqueeze_view_5', '''
import triton
import triton.language as tl

from torch._inductor.runtime import triton_helpers, triton_heuristics
from torch._inductor.runtime.triton_helpers import libdevice, math as tl_math
from torch._inductor.runtime.hints import AutotuneHint, ReductionHint, TileHint, DeviceProperties
triton_helpers.set_driver_to_gpu()

@triton_heuristics.pointwise(
    size_hints={'y': 131072, 'x': 512}, tile_hint=TileHint.DEFAULT,
    filename=__file__,
    triton_meta={'signature': {'in_ptr0': '*bf16', 'in_ptr1': '*bf16', 'in_ptr2': '*fp32', 'in_ptr3': '*fp32', 'out_ptr0': '*bf16', 'ynumel': 'i32', 'xnumel': 'i32', 'YBLOCK': 'constexpr', 'XBLOCK': 'constexpr'}, 'device': DeviceProperties(type='cuda', index=0, multi_processor_count=148, cc=100, major=10, regs_per_multiprocessor=65536, max_threads_per_multi_processor=2048, max_threads_per_block=1024, warp_size=32), 'constants': {}, 'native_matmul': False, 'enable_fp_fusion': True, 'launch_pdl': False, 'disable_ftz': False, 'configs': [{(0,): [['tt.divisibility', 16]], (1,): [['tt.divisibility', 16]], (2,): [['tt.divisibility', 16]], (3,): [['tt.divisibility', 16]], (4,): [['tt.divisibility', 16]], (5,): [['tt.divisibility', 16]], (6,): [['tt.divisibility', 16]]}]},
    inductor_meta={'grid_type': 'Grid2DWithYZOverflow', 'autotune_hints': set(), 'kernel_name': 'triton_poi_fused_add_cat_clone_convert_element_type_expand_mean_mul_permute_pow_rsqrt_slice_unsqueeze_view_5', 'mutated_arg_names': [], 'optimize_mem': True, 'no_x_dim': False, 'atomic_add_found': False, 'num_load': 4, 'num_store': 1, 'num_reduction': 0, 'backend_hash': '24DD4EB3E46C537527C82D44AE961C79D45917162D3A4C30BD79DDC26D6A401F', 'assert_indirect_indexing': True, 'autotune_local_cache': True, 'autotune_pointwise': True, 'autotune_remote_cache': None, 'force_disable_caches': False, 'dynamic_scale_rblock': True, 'max_autotune': False, 'max_autotune_pointwise': False, 'min_split_scan_rblock': 256, 'spill_threshold': 16, 'store_cubin': False, 'deterministic': False, 'force_filter_reduction_configs': False, 'mix_order_reduction_allow_multi_stages': True, 'are_deterministic_algorithms_enabled': False, 'tiling_scores': {'y': 268443648, 'x': 2622464}},
    min_elem_per_thread=0
)
@triton.jit
def triton_poi_fused_add_cat_clone_convert_element_type_expand_mean_mul_permute_pow_rsqrt_slice_unsqueeze_view_5(in_ptr0, in_ptr1, in_ptr2, in_ptr3, out_ptr0, ynumel, xnumel, YBLOCK : tl.constexpr, XBLOCK : tl.constexpr):
    ynumel = 131072
    xnumel = 512
    yoffset = (tl.program_id(1) + tl.program_id(2) * tl.num_programs(1)) * YBLOCK
    yindex = yoffset + tl.arange(0, YBLOCK)[:, None]
    ymask = yindex < ynumel
    xoffset = tl.program_id(0) * XBLOCK
    xindex = xoffset + tl.arange(0, XBLOCK)[None, :]
    xmask = xindex < xnumel
    x3 = xindex
    y0 = (yindex % 512)
    y2 = yindex // 32768
    y5 = yindex // 512
    tmp0 = x3
    tmp1 = tl.full([1, 1], 0, tl.int64)
    tmp2 = tmp0 >= tmp1
    tmp3 = tl.full([1, 1], 448, tl.int64)
    tmp4 = tmp0 < tmp3
    tmp5 = tl.load(in_ptr0 + (tl.broadcast_to(x3, [YBLOCK, XBLOCK])), tmp4 & xmask & ymask, eviction_policy='evict_last', other=0.0).to(tl.float32)
    tmp6 = tl.load(in_ptr1 + (512*y0 + 262144*y2 + (x3)), tmp4 & xmask & ymask, eviction_policy='evict_last', other=0.0).to(tl.float32)
    tmp7 = tmp6.to(tl.float32)
    tmp8 = tl.load(in_ptr2 + (tl.broadcast_to(y0 + 512*y2, [YBLOCK, XBLOCK])), tmp4 & xmask & ymask, eviction_policy='evict_last', other=0.0)
    tmp9 = tl.full([1, 1], 512.0, tl.float32)
    tmp10 = (tmp8 / tmp9)
    tmp11 = tl.full([1, 1], 1e-06, tl.float32)
    tmp12 = tmp10 + tmp11
    tmp13 = libdevice.rsqrt(tmp12)
    tmp14 = tmp7 * tmp13
    tmp15 = tmp14.to(tl.float32)
    tmp16 = tmp5 * tmp15
    tmp17 = tl.full(tmp16.shape, 0.0, tmp16.dtype)
    tmp18 = tl.where(tmp4, tmp16, tmp17)
    tmp19 = tmp0 >= tmp3
    tmp20 = tl.full([1, 1], 512, tl.int64)
    tmp21 = tmp0 < tmp20
    tmp22 = tl.load(in_ptr3 + (64*y0 + 32768*y2 + ((-448) + x3)), tmp19 & xmask & ymask, eviction_policy='evict_last', other=0.0)
    tmp23 = tmp22.to(tl.float32)
    tmp24 = tl.full(tmp23.shape, 0.0, tmp23.dtype)
    tmp25 = tl.where(tmp19, tmp23, tmp24)
    tmp26 = tl.where(tmp4, tmp18, tmp25)
    tl.store(out_ptr0 + (y0 + 512*x3 + 262144*y5), tmp26, xmask & ymask)
''', device_str='cuda')


async_compile.wait(globals())
del async_compile

class Runner:
    def __init__(self, partitions):
        self.partitions = partitions

    def recursively_apply_fns(self, fns):
        new_callables = []
        for fn, c in zip(fns, self.partitions):
            new_callables.append(fn(c))
        self.partitions = new_callables

    def call(self, args):
        arg0_1, arg1_1, arg2_1, arg3_1 = args
        args.clear()
        assert_size_stride(arg0_1, (2048, 32768), (32768, 1))
        with torch.cuda._DeviceGuard(0):
            torch.cuda.set_device(0)
            arg0_1 = copy_if_misaligned(arg0_1)
            buf0 = empty_strided_cuda((4, 64, 512, 1), (32768, 1, 64, 131072), torch.float32)
            # Topologically Sorted Source Nodes: [reshape_default, reshape_default_1, permute_default, convert_element_type_default, pow_tensor_scalar, mean_dim], Original ATen: [aten.view, aten.permute, prims.convert_element_type, aten.pow, aten.mean]
            stream0 = get_raw_stream(0)
            triton_per_fused_convert_element_type_mean_permute_pow_view_0.run(arg0_1, buf0, 131072, 512, stream=stream0)
            assert_size_stride(arg1_1, (32, ), (1, ))
            arg1_1 = copy_if_misaligned(arg1_1)
            buf1 = empty_strided_cuda((4, 64, 512, 64), (2097152, 64, 4096, 1), torch.float32)
            # Topologically Sorted Source Nodes: [reshape_default, reshape_default_1, permute_default, convert_element_type_default, pow_tensor_scalar, mean_dim, add_tensor, rsqrt_default, convert_element_type_default_1, mul_tensor, slice_tensor_1, unsqueeze_default, unsqueeze_default_1, convert_element_type_default_3, expand_default, iota_default, add_tensor_1, unsqueeze_default_2, unsqueeze_default_3, convert_element_type_default_4, mul_tensor_1, permute_default_1, slice_tensor_2, neg_default, unsqueeze_default_6, slice_tensor_3, unsqueeze_default_7, cat_default, reshape_default_3, convert_element_type_default_6, sin_default, mul_tensor_4, convert_element_type_default_7, unsqueeze_default_8, expand_default_4, clone_default_1, reshape_default_4, unsqueeze_default_9, mul_tensor_5], Original ATen: [aten.view, aten.permute, prims.convert_element_type, aten.pow, aten.mean, aten.add, aten.rsqrt, aten.mul, aten.slice, aten.unsqueeze, aten.expand, prims.iota, aten.neg, aten.cat, aten.sin, aten.clone]
            stream0 = get_raw_stream(0)
            triton_poi_fused_add_cat_clone_convert_element_type_expand_iota_mean_mul_neg_permute_pow_rsqrt_sin_slice_unsqueeze_view_1.run(arg0_1, buf0, arg1_1, buf1, 131072, 64, stream=stream0)
            buf2 = empty_strided_cuda((4, 64, 512, 512), (16777216, 262144, 512, 1), torch.bfloat16)
            # Topologically Sorted Source Nodes: [reshape_default, reshape_default_1, permute_default, convert_element_type_default, pow_tensor_scalar, mean_dim, add_tensor, rsqrt_default, convert_element_type_default_1, mul_tensor, slice_tensor, slice_tensor_1, convert_element_type_default_2, unsqueeze_default, unsqueeze_default_1, convert_element_type_default_3, expand_default, iota_default, add_tensor_1, unsqueeze_default_2, unsqueeze_default_3, convert_element_type_default_4, mul_tensor_1, permute_default_1, cos_default, mul_tensor_2, convert_element_type_default_5, unsqueeze_default_4, expand_default_3, clone_default, reshape_default_2, unsqueeze_default_5, mul_tensor_3, add_tensor_2, convert_element_type_default_8, cat_default_1], Original ATen: [aten.view, aten.permute, prims.convert_element_type, aten.pow, aten.mean, aten.add, aten.rsqrt, aten.mul, aten.slice, aten.unsqueeze, aten.expand, prims.iota, aten.cos, aten.clone, aten.cat]
            stream0 = get_raw_stream(0)
            triton_poi_fused_add_cat_clone_convert_element_type_cos_expand_iota_mean_mul_permute_pow_rsqrt_slice_unsqueeze_view_2.run(arg0_1, buf0, arg1_1, buf1, buf2, 67108864, stream=stream0)
            del arg0_1
            del buf1
            assert_size_stride(arg2_1, (2048, 512), (512, 1))
            arg2_1 = copy_if_misaligned(arg2_1)
            buf3 = empty_strided_cuda((4, 512, 1), (512, 1, 2048), torch.float32)
            # Topologically Sorted Source Nodes: [reshape_default_6, convert_element_type_default_9, pow_tensor_scalar_1, mean_dim_1], Original ATen: [aten.view, prims.convert_element_type, aten.pow, aten.mean]
            stream0 = get_raw_stream(0)
            triton_per_fused_convert_element_type_mean_pow_view_3.run(arg2_1, buf3, 2048, 512, stream=stream0)
            assert_size_stride(arg3_1, (512, ), (1, ))
            arg3_1 = copy_if_misaligned(arg3_1)
            buf4 = reinterpret_tensor(buf0, (4, 1, 512, 64), (32768, 131072, 64, 1), 0); del buf0  # reuse
            buf5 = buf4; del buf4  # reuse
            # Topologically Sorted Source Nodes: [unsqueeze_default, unsqueeze_default_1, convert_element_type_default_3, expand_default, iota_default, add_tensor_1, unsqueeze_default_2, unsqueeze_default_3, convert_element_type_default_4, mul_tensor_1, permute_default_1, cos_default, mul_tensor_2, convert_element_type_default_5, sin_default, mul_tensor_4, convert_element_type_default_7, reshape_default_6, convert_element_type_default_9, pow_tensor_scalar_1, mean_dim_1, add_tensor_3, rsqrt_default_1, mul_tensor_6, convert_element_type_default_10, mul_tensor_7, reshape_default_7, permute_default_2, slice_tensor_5, convert_element_type_default_11, unsqueeze_default_10, expand_default_6, clone_default_2, reshape_default_8, unsqueeze_default_11, mul_tensor_8, slice_tensor_6, neg_default_1, unsqueeze_default_12, slice_tensor_7, unsqueeze_default_13, cat_default_2, reshape_default_9, convert_element_type_default_12, unsqueeze_default_14, expand_default_7, clone_default_3, reshape_default_10, unsqueeze_default_15, mul_tensor_9, add_tensor_4], Original ATen: [aten.unsqueeze, prims.convert_element_type, aten.expand, prims.iota, aten.add, aten.mul, aten.permute, aten.cos, aten.sin, aten.view, aten.pow, aten.mean, aten.rsqrt, aten.slice, aten.clone, aten.neg, aten.cat]
            stream0 = get_raw_stream(0)
            triton_poi_fused_add_cat_clone_convert_element_type_cos_expand_iota_mean_mul_neg_permute_pow_rsqrt_sin_slice_unsqueeze_view_4.run(buf5, arg3_1, arg2_1, buf3, arg1_1, 131072, stream=stream0)
            del arg1_1
            buf6 = empty_strided_cuda((4, 64, 512, 512), (16777216, 262144, 512, 1), torch.bfloat16)
            # Topologically Sorted Source Nodes: [reshape_default_6, convert_element_type_default_9, pow_tensor_scalar_1, mean_dim_1, add_tensor_3, rsqrt_default_1, mul_tensor_6, convert_element_type_default_10, mul_tensor_7, reshape_default_7, permute_default_2, slice_tensor_4, convert_element_type_default_13, cat_default_3, unsqueeze_default_16, expand_default_8, reshape_default_11, permute_default_3, clone_default_4], Original ATen: [aten.view, prims.convert_element_type, aten.pow, aten.mean, aten.add, aten.rsqrt, aten.mul, aten.permute, aten.slice, aten.cat, aten.unsqueeze, aten.expand, aten.clone]
            stream0 = get_raw_stream(0)
            triton_poi_fused_add_cat_clone_convert_element_type_expand_mean_mul_permute_pow_rsqrt_slice_unsqueeze_view_5.run(arg3_1, arg2_1, buf3, buf5, buf6, 131072, 512, stream=stream0)
            del arg2_1
            del arg3_1
            del buf3
            del buf5
        return (reinterpret_tensor(buf2, (256, 512, 512), (262144, 512, 1), 0), reinterpret_tensor(buf6, (256, 512, 512), (262144, 512, 1), 0), )

runner = Runner(partitions=[])
call = runner.call
recursively_apply_fns = runner.recursively_apply_fns


def get_args():
    from torch._dynamo.testing import rand_strided
    arg0_1 = rand_strided((2048, 32768), (32768, 1), device='cuda:0', dtype=torch.bfloat16)
    arg1_1 = rand_strided((32, ), (1, ), device='cuda:0', dtype=torch.bfloat16)
    arg2_1 = rand_strided((2048, 512), (512, 1), device='cuda:0', dtype=torch.bfloat16)
    arg3_1 = rand_strided((512, ), (1, ), device='cuda:0', dtype=torch.bfloat16)
    return [arg0_1, arg1_1, arg2_1, arg3_1]


def benchmark_compiled_module(args, times=10, repeat=10):
    from torch._inductor.utils import print_performance
    fn = lambda: call(list(args))
    return print_performance(fn, times=times, repeat=repeat)


if __name__ == "__main__":
    from torch._inductor.wrapper_benchmark import compiled_module_main
    args = get_args()
    compiled_module_main('None', lambda times, repeat: benchmark_compiled_module(args, times=times, repeat=repeat))

[DEBUG]:Output code written to: /tmp/tmpbw0pt5he/uh/cuhwxx63236lyxraknzhtoej47kgdqv36sj4kushowautopkpxim.py
[INFO]:Output code written to: /tmp/tmpbw0pt5he/uh/cuhwxx63236lyxraknzhtoej47kgdqv36sj4kushowautopkpxim.py
[DEBUG]:Output code: 
# AOT ID: ['0_inference']
from ctypes import c_void_p, c_long, c_int
import torch
import math
import random
import os
import tempfile
from math import inf, nan
from cmath import nanj
from torch._inductor.hooks import run_intermediate_hooks
from torch._inductor.utils import maybe_profile
from torch._inductor.codegen.memory_planning import _align as align
from torch import device, empty_strided
from torch._inductor.async_compile import AsyncCompile
from torch._inductor.select_algorithm import extern_kernels
from torch._C._dynamo.guards import copy_if_misaligned
import triton
import triton.language as tl
from torch._inductor.runtime.triton_heuristics import start_graph, end_graph
from torch._C import _cuda_getCurrentRawStream as get_raw_stream

aten = torch.ops.aten
inductor_ops = torch.ops.inductor
_quantized = torch.ops._quantized
assert_size_stride = torch._C._dynamo.guards.assert_size_stride
assert_alignment = torch._C._dynamo.guards.assert_alignment
empty_strided_cpu = torch._C._dynamo.guards._empty_strided_cpu
empty_strided_cpu_pinned = torch._C._dynamo.guards._empty_strided_cpu_pinned
empty_strided_cuda = torch._C._dynamo.guards._empty_strided_cuda
empty_strided_xpu = torch._C._dynamo.guards._empty_strided_xpu
empty_strided_mtia = torch._C._dynamo.guards._empty_strided_mtia
reinterpret_tensor = torch._C._dynamo.guards._reinterpret_tensor
alloc_from_pool = torch.ops.inductor._alloc_from_pool
async_compile = AsyncCompile()
empty_strided_p2p = torch._C._distributed_c10d._SymmetricMemory.empty_strided_p2p


# kernel path: /tmp/torchinductor_dev/ar/carrigaarnnha4hwhx4ngeaun7rhyu6sogykgkgeot74eba3h26z.py
# Topologically Sorted Source Nodes: [reshape_default, reshape_default_1, permute_default, convert_element_type_default, pow_tensor_scalar, mean_dim], Original ATen: [aten.view, aten.permute, prims.convert_element_type, aten.pow, aten.mean]
# Source node to ATen node mapping:
#   convert_element_type_default => convert_element_type
#   mean_dim => mean
#   permute_default => permute
#   pow_tensor_scalar => pow_1
#   reshape_default => view
#   reshape_default_1 => view_1
# Graph fragment:
#   %arg0_1 : Tensor "bf16[2048, 32768][32768, 1]cuda:0" = PlaceHolder[target=arg0_1]
#   %view : Tensor "bf16[4, 512, 32768][16777216, 32768, 1]cuda:0"[num_users=1] = call_function[target=torch.ops.aten.reshape.default](args = (%arg0_1, [4, 512, 32768]), kwargs = {})
#   %view_1 : Tensor "bf16[4, 512, 64, 512][16777216, 32768, 512, 1]cuda:0"[num_users=1] = call_function[target=torch.ops.aten.reshape.default](args = (%view, [4, 512, -1, 512]), kwargs = {})
#   %permute : Tensor "bf16[4, 64, 512, 512][16777216, 512, 32768, 1]cuda:0"[num_users=2] = call_function[target=torch.ops.aten.permute.default](args = (%view_1, [0, 2, 1, 3]), kwargs = {})
#   %convert_element_type : Tensor "f32[4, 64, 512, 512][16777216, 512, 32768, 1]cuda:0"[num_users=1] = call_function[target=torch.ops.prims.convert_element_type.default](args = (%permute, torch.float32), kwargs = {})
#   %pow_1 : Tensor "f32[4, 64, 512, 512][16777216, 512, 32768, 1]cuda:0"[num_users=1] = call_function[target=torch.ops.aten.pow.Tensor_Scalar](args = (%convert_element_type, 2), kwargs = {})
#   %mean : Tensor "f32[4, 64, 512, 1][32768, 512, 1, 1]cuda:0"[num_users=1] = call_function[target=torch.ops.aten.mean.dim](args = (%pow_1, [-1], True), kwargs = {})
#   return %buf0
triton_per_fused_convert_element_type_mean_permute_pow_view_0 = async_compile.triton('triton_per_fused_convert_element_type_mean_permute_pow_view_0', '''
import triton
import triton.language as tl

from torch._inductor.runtime import triton_helpers, triton_heuristics
from torch._inductor.runtime.triton_helpers import libdevice, math as tl_math
from torch._inductor.runtime.hints import AutotuneHint, ReductionHint, TileHint, DeviceProperties
triton_helpers.set_driver_to_gpu()

@triton_heuristics.persistent_reduction(
    size_hints={'x': 131072, 'r0_': 512},
    reduction_hint=ReductionHint.INNER,
    filename=__file__,
    triton_meta={'signature': {'in_ptr0': '*bf16', 'out_ptr0': '*fp32', 'xnumel': 'i32', 'r0_numel': 'i32', 'XBLOCK': 'constexpr'}, 'device': DeviceProperties(type='cuda', index=0, multi_processor_count=148, cc=100, major=10, regs_per_multiprocessor=65536, max_threads_per_multi_processor=2048, max_threads_per_block=1024, warp_size=32), 'constants': {}, 'native_matmul': False, 'enable_fp_fusion': True, 'launch_pdl': False, 'disable_ftz': False, 'configs': [{(0,): [['tt.divisibility', 16]], (1,): [['tt.divisibility', 16]], (2,): [['tt.divisibility', 16]], (3,): [['tt.divisibility', 16]]}]},
    inductor_meta={'grid_type': 'Grid1D', 'autotune_hints': set(), 'kernel_name': 'triton_per_fused_convert_element_type_mean_permute_pow_view_0', 'mutated_arg_names': [], 'optimize_mem': True, 'no_x_dim': None, 'atomic_add_found': False, 'num_load': 1, 'num_store': 1, 'num_reduction': 1, 'backend_hash': '24DD4EB3E46C537527C82D44AE961C79D45917162D3A4C30BD79DDC26D6A401F', 'assert_indirect_indexing': True, 'autotune_local_cache': True, 'autotune_pointwise': True, 'autotune_remote_cache': None, 'force_disable_caches': False, 'dynamic_scale_rblock': True, 'max_autotune': False, 'max_autotune_pointwise': False, 'min_split_scan_rblock': 256, 'spill_threshold': 16, 'store_cubin': False, 'deterministic': False, 'force_filter_reduction_configs': False, 'mix_order_reduction_allow_multi_stages': True, 'are_deterministic_algorithms_enabled': False, 'tiling_scores': {'x': 1048576, 'r0_': 134217728}}
)
@triton.jit
def triton_per_fused_convert_element_type_mean_permute_pow_view_0(in_ptr0, out_ptr0, xnumel, r0_numel, XBLOCK : tl.constexpr):
    xnumel = 131072
    r0_numel = 512
    R0_BLOCK: tl.constexpr = 512
    rnumel = r0_numel
    RBLOCK: tl.constexpr = R0_BLOCK
    xoffset = tl.program_id(0) * XBLOCK
    xindex = xoffset + tl.arange(0, XBLOCK)[:, None]
    xmask = tl.full([XBLOCK], True, tl.int1)[:, None]
    r0_index = tl.arange(0, R0_BLOCK)[None, :]
    r0_offset = 0
    r0_mask = tl.full([R0_BLOCK], True, tl.int1)[None, :]
    roffset = r0_offset
    rindex = r0_index
    r0_1 = r0_index
    x0 = xindex
    tmp0 = tl.load(in_ptr0 + (r0_1 + 512*x0), None).to(tl.float32)
    tmp1 = tmp0.to(tl.float32)
    tmp2 = tmp1 * tmp1
    tmp3 = tl.broadcast_to(tmp2, [XBLOCK, R0_BLOCK])
    tmp5 = tl.sum(tmp3, 1)[:, None].to(tl.float32)
    tl.store(out_ptr0 + (x0), tmp5, None)
''', device_str='cuda')


# kernel path: /tmp/torchinductor_dev/qy/cqyhgq7gy2nztk4dghhtzjktc26ojqguuvjsbrmxa3r2rkejau5s.py
# Topologically Sorted Source Nodes: [reshape_default, reshape_default_1, permute_default, convert_element_type_default, pow_tensor_scalar, mean_dim, add_tensor, rsqrt_default, convert_element_type_default_1, mul_tensor, slice_tensor_1, unsqueeze_default, unsqueeze_default_1, convert_element_type_default_3, expand_default, iota_default, add_tensor_1, unsqueeze_default_2, unsqueeze_default_3, convert_element_type_default_4, mul_tensor_1, permute_default_1, slice_tensor_2, neg_default, unsqueeze_default_6, slice_tensor_3, unsqueeze_default_7, cat_default, reshape_default_3, convert_element_type_default_6, sin_default, mul_tensor_4, convert_element_type_default_7, unsqueeze_default_8, expand_default_4, clone_default_1, reshape_default_4, unsqueeze_default_9, mul_tensor_5], Original ATen: [aten.view, aten.permute, prims.convert_element_type, aten.pow, aten.mean, aten.add, aten.rsqrt, aten.mul, aten.slice, aten.unsqueeze, aten.expand, prims.iota, aten.neg, aten.cat, aten.sin, aten.clone]
# Source node to ATen node mapping:
#   add_tensor => add
#   add_tensor_1 => add_1
#   cat_default => cat
#   clone_default_1 => clone_1
#   convert_element_type_default => convert_element_type
#   convert_element_type_default_1 => convert_element_type_1
#   convert_element_type_default_3 => convert_element_type_3
#   convert_element_type_default_4 => convert_element_type_4
#   convert_element_type_default_6 => convert_element_type_6
#   convert_element_type_default_7 => convert_element_type_7
#   expand_default => expand
#   expand_default_4 => expand_4
#   iota_default => iota
#   mean_dim => mean
#   mul_tensor => mul
#   mul_tensor_1 => mul_1
#   mul_tensor_4 => mul_4
#   mul_tensor_5 => mul_5
#   neg_default => neg
#   permute_default => permute
#   permute_default_1 => permute_1
#   pow_tensor_scalar => pow_1
#   reshape_default => view
#   reshape_default_1 => view_1
#   reshape_default_3 => view_3
#   reshape_default_4 => view_4
#   rsqrt_default => rsqrt
#   sin_default => sin
#   slice_tensor_1 => slice_2
#   slice_tensor_2 => slice_3
#   slice_tensor_3 => slice_4
#   unsqueeze_default => unsqueeze
#   unsqueeze_default_1 => unsqueeze_1
#   unsqueeze_default_2 => unsqueeze_2
#   unsqueeze_default_3 => unsqueeze_3
#   unsqueeze_default_6 => unsqueeze_6
#   unsqueeze_default_7 => unsqueeze_7
#   unsqueeze_default_8 => unsqueeze_8
#   unsqueeze_default_9 => unsqueeze_9
# Graph fragment:
#   %arg0_1 : Tensor "bf16[2048, 32768][32768, 1]cuda:0" = PlaceHolder[target=arg0_1]
#   %buf0 : Tensor "f32[4, 64, 512, 1][32768, 1, 64, 131072]cuda:0" = PlaceHolder[target=buf0]
#   %arg1_1 : Tensor "bf16[32][1]cuda:0" = PlaceHolder[target=arg1_1]
#   %view : Tensor "bf16[4, 512, 32768][16777216, 32768, 1]cuda:0"[num_users=1] = call_function[target=torch.ops.aten.reshape.default](args = (%arg0_1, [4, 512, 32768]), kwargs = {})
#   %view_1 : Tensor "bf16[4, 512, 64, 512][16777216, 32768, 512, 1]cuda:0"[num_users=1] = call_function[target=torch.ops.aten.reshape.default](args = (%view, [4, 512, -1, 512]), kwargs = {})
#   %permute : Tensor "bf16[4, 64, 512, 512][16777216, 512, 32768, 1]cuda:0"[num_users=2] = call_function[target=torch.ops.aten.permute.default](args = (%view_1, [0, 2, 1, 3]), kwargs = {})
#   %convert_element_type : Tensor "f32[4, 64, 512, 512][16777216, 512, 32768, 1]cuda:0"[num_users=1] = call_function[target=torch.ops.prims.convert_element_type.default](args = (%permute, torch.float32), kwargs = {})
#   %pow_1 : Tensor "f32[4, 64, 512, 512][16777216, 512, 32768, 1]cuda:0"[num_users=1] = call_function[target=torch.ops.aten.pow.Tensor_Scalar](args = (%convert_element_type, 2), kwargs = {})
#   %mean : Tensor "f32[4, 64, 512, 1][32768, 512, 1, 1]cuda:0"[num_users=1] = call_function[target=torch.ops.aten.mean.dim](args = (%pow_1, [-1], True), kwargs = {})
#   %add : Tensor "f32[4, 64, 512, 1][32768, 512, 1, 1]cuda:0"[num_users=1] = call_function[target=torch.ops.aten.add.Tensor](args = (%mean, 1e-06), kwargs = {})
#   %rsqrt : Tensor "f32[4, 64, 512, 1][32768, 512, 1, 1]cuda:0"[num_users=1] = call_function[target=torch.ops.aten.rsqrt.default](args = (%add,), kwargs = {})
#   %convert_element_type_1 : Tensor "bf16[4, 64, 512, 1][32768, 512, 1, 1]cuda:0"[num_users=1] = call_function[target=torch.ops.prims.convert_element_type.default](args = (%rsqrt, torch.bfloat16), kwargs = {})
#   %mul : Tensor "bf16[4, 64, 512, 512][16777216, 512, 32768, 1]cuda:0"[num_users=2] = call_function[target=torch.ops.aten.mul.Tensor](args = (%permute, %convert_element_type_1), kwargs = {})
#   %slice_2 : Tensor "bf16[4, 64, 512, 64][16777216, 512, 32768, 1]cuda:0"[num_users=3] = call_function[target=torch.ops.aten.slice.Tensor](args = (%mul, 3, -64, 9223372036854775807), kwargs = {})
#   %unsqueeze : Tensor "bf16[1, 32][32, 1]cuda:0"[num_users=1] = call_function[target=torch.ops.aten.unsqueeze.default](args = (%arg1_1, 0), kwargs = {})
#   %unsqueeze_1 : Tensor "bf16[1, 32, 1][32, 1, 1]cuda:0"[num_users=1] = call_function[target=torch.ops.aten.unsqueeze.default](args = (%unsqueeze, 2), kwargs = {})
#   %convert_element_type_3 : Tensor "f32[1, 32, 1][32, 1, 1]cuda:0"[num_users=1] = call_function[target=torch.ops.prims.convert_element_type.default](args = (%unsqueeze_1, torch.float32), kwargs = {})
#   %expand : Tensor "f32[1, 32, 1][32, 1, 1]cuda:0"[num_users=1] = call_function[target=torch.ops.aten.expand.default](args = (%convert_element_type_3, [1, -1, 1]), kwargs = {})
#   %iota : Tensor "i64[512][1]cuda:0"[num_users=1] = call_function[target=torch.ops.prims.iota.default](args = (512,), kwargs = {start: 0, step: 1, dtype: torch.int64, device: cuda:0, requires_grad: False})
#   %add_1 : Tensor "i64[512][1]cuda:0"[num_users=1] = call_function[target=torch.ops.aten.add.Tensor](args = (%iota, 0), kwargs = {})
#   %unsqueeze_2 : Tensor "i64[1, 512][512, 1]cuda:0"[num_users=1] = call_function[target=torch.ops.aten.unsqueeze.default](args = (%add_1, 0), kwargs = {})
#   %unsqueeze_3 : Tensor "i64[1, 1, 512][512, 512, 1]cuda:0"[num_users=1] = call_function[target=torch.ops.aten.unsqueeze.default](args = (%unsqueeze_2, 1), kwargs = {})
#   %convert_element_type_4 : Tensor "f32[1, 1, 512][512, 512, 1]cuda:0"[num_users=1] = call_function[target=torch.ops.prims.convert_element_type.default](args = (%unsqueeze_3, torch.float32), kwargs = {})
#   %mul_1 : Tensor "f32[1, 32, 512][16384, 512, 1]cuda:0"[num_users=1] = call_function[target=torch.ops.aten.mul.Tensor](args = (%expand_1, %expand_2), kwargs = {})
#   %permute_1 : Tensor "f32[1, 512, 32][16384, 1, 512]cuda:0"[num_users=2] = call_function[target=torch.ops.aten.permute.default](args = (%mul_1, [0, 2, 1]), kwargs = {})
#   %slice_3 : Tensor "bf16[4, 64, 512, 32][16777216, 512, 32768, 2]cuda:0"[num_users=1] = call_function[target=torch.ops.aten.slice.Tensor](args = (%slice_2, 3, 1, 9223372036854775807, 2), kwargs = {})
#   %neg : Tensor "bf16[4, 64, 512, 32][1048576, 32, 2048, 1]cuda:0"[num_users=1] = call_function[target=torch.ops.aten.neg.default](args = (%slice_3,), kwargs = {})
#   %unsqueeze_6 : Tensor "bf16[4, 64, 512, 32, 1][1048576, 32, 2048, 1, 1]cuda:0"[num_users=1] = call_function[target=torch.ops.aten.unsqueeze.default](args = (%neg, 4), kwargs = {})
#   %slice_4 : Tensor "bf16[4, 64, 512, 32][16777216, 512, 32768, 2]cuda:0"[num_users=1] = call_function[target=torch.ops.aten.slice.Tensor](args = (%slice_2, 3, 0, 9223372036854775807, 2), kwargs = {})
#   %unsqueeze_7 : Tensor "bf16[4, 64, 512, 32, 1][16777216, 512, 32768, 2, 1]cuda:0"[num_users=1] = call_function[target=torch.ops.aten.unsqueeze.default](args = (%slice_4, 4), kwargs = {})
#   %cat : Tensor "bf16[4, 64, 512, 32, 2][2097152, 32768, 64, 2, 1]cuda:0"[num_users=1] = call_function[target=torch.ops.aten.cat.default](args = ([%unsqueeze_6, %unsqueeze_7], -1), kwargs = {})
#   %view_3 : Tensor "bf16[4, 64, 512, 64][2097152, 32768, 64, 1]cuda:0"[num_users=1] = call_function[target=torch.ops.aten.reshape.default](args = (%cat, [4, 64, 512, 64]), kwargs = {})
#   %convert_element_type_6 : Tensor "f32[4, 64, 512, 64][2097152, 32768, 64, 1]cuda:0"[num_users=1] = call_function[target=torch.ops.prims.convert_element_type.default](args = (%view_3, torch.float32), kwargs = {})
#   %sin : Tensor "f32[1, 512, 32][16384, 1, 512]cuda:0"[num_users=1] = call_function[target=torch.ops.aten.sin.default](args = (%permute_1,), kwargs = {})
#   %mul_4 : Tensor "f32[1, 512, 32][16384, 1, 512]cuda:0"[num_users=1] = call_function[target=torch.ops.aten.mul.Tensor](args = (%sin, 1.2772588722239782), kwargs = {})
#   %convert_element_type_7 : Tensor "bf16[1, 512, 32][16384, 1, 512]cuda:0"[num_users=2] = call_function[target=torch.ops.prims.convert_element_type.default](args = (%mul_4, torch.bfloat16), kwargs = {})
#   %unsqueeze_8 : Tensor "bf16[1, 512, 32, 1][16384, 1, 512, 1]cuda:0"[num_users=1] = call_function[target=torch.ops.aten.unsqueeze.default](args = (%convert_element_type_7, 3), kwargs = {})
#   %expand_4 : Tensor "bf16[1, 512, 32, 2][16384, 1, 512, 0]cuda:0"[num_users=1] = call_function[target=torch.ops.aten.expand.default](args = (%unsqueeze_8, [1, 512, 32, 2]), kwargs = {})
#   %clone_1 : Tensor "bf16[1, 512, 32, 2][32768, 64, 2, 1]cuda:0"[num_users=1] = call_function[target=torch.ops.aten.clone.default](args = (%expand_4,), kwargs = {memory_format: torch.contiguous_format})
#   %view_4 : Tensor "bf16[1, 512, 64][32768, 64, 1]cuda:0"[num_users=1] = call_function[target=torch.ops.aten.reshape.default](args = (%clone_1, [1, 512, 64]), kwargs = {})
#   %unsqueeze_9 : Tensor "bf16[1, 1, 512, 64][32768, 32768, 64, 1]cuda:0"[num_users=1] = call_function[target=torch.ops.aten.unsqueeze.default](args = (%view_4, 1), kwargs = {})
#   %mul_5 : Tensor "f32[4, 64, 512, 64][2097152, 32768, 64, 1]cuda:0"[num_users=1] = call_function[target=torch.ops.aten.mul.Tensor](args = (%convert_element_type_6, %unsqueeze_9), kwargs = {})
#   return %mul_5
triton_poi_fused_add_cat_clone_convert_element_type_expand_iota_mean_mul_neg_permute_pow_rsqrt_sin_slice_unsqueeze_view_1 = async_compile.triton('triton_poi_fused_add_cat_clone_convert_element_type_expand_iota_mean_mul_neg_permute_pow_rsqrt_sin_slice_unsqueeze_view_1', '''
import triton
import triton.language as tl

from torch._inductor.runtime import triton_helpers, triton_heuristics
from torch._inductor.runtime.triton_helpers import libdevice, math as tl_math
from torch._inductor.runtime.hints import AutotuneHint, ReductionHint, TileHint, DeviceProperties
triton_helpers.set_driver_to_gpu()

@triton_heuristics.pointwise(
    size_hints={'y': 131072, 'x': 64}, tile_hint=TileHint.DEFAULT,
    filename=__file__,
    triton_meta={'signature': {'in_ptr0': '*bf16', 'in_ptr1': '*fp32', 'in_ptr2': '*bf16', 'out_ptr0': '*fp32', 'ynumel': 'i32', 'xnumel': 'i32', 'YBLOCK': 'constexpr', 'XBLOCK': 'constexpr'}, 'device': DeviceProperties(type='cuda', index=0, multi_processor_count=148, cc=100, major=10, regs_per_multiprocessor=65536, max_threads_per_multi_processor=2048, max_threads_per_block=1024, warp_size=32), 'constants': {}, 'native_matmul': False, 'enable_fp_fusion': True, 'launch_pdl': False, 'disable_ftz': False, 'configs': [{(0,): [['tt.divisibility', 16]], (1,): [['tt.divisibility', 16]], (2,): [['tt.divisibility', 16]], (3,): [['tt.divisibility', 16]], (4,): [['tt.divisibility', 16]], (5,): [['tt.divisibility', 16]]}]},
    inductor_meta={'grid_type': 'Grid2DWithYZOverflow', 'autotune_hints': set(), 'kernel_name': 'triton_poi_fused_add_cat_clone_convert_element_type_expand_iota_mean_mul_neg_permute_pow_rsqrt_sin_slice_unsqueeze_view_1', 'mutated_arg_names': [], 'optimize_mem': True, 'no_x_dim': False, 'atomic_add_found': False, 'num_load': 5, 'num_store': 1, 'num_reduction': 0, 'backend_hash': '24DD4EB3E46C537527C82D44AE961C79D45917162D3A4C30BD79DDC26D6A401F', 'assert_indirect_indexing': True, 'autotune_local_cache': True, 'autotune_pointwise': True, 'autotune_remote_cache': None, 'force_disable_caches': False, 'dynamic_scale_rblock': True, 'max_autotune': False, 'max_autotune_pointwise': False, 'min_split_scan_rblock': 256, 'spill_threshold': 16, 'store_cubin': False, 'deterministic': False, 'force_filter_reduction_configs': False, 'mix_order_reduction_allow_multi_stages': True, 'are_deterministic_algorithms_enabled': False, 'tiling_scores': {'y': 524288, 'x': 100663360}},
    min_elem_per_thread=0
)
@triton.jit
def triton_poi_fused_add_cat_clone_convert_element_type_expand_iota_mean_mul_neg_permute_pow_rsqrt_sin_slice_unsqueeze_view_1(in_ptr0, in_ptr1, in_ptr2, out_ptr0, ynumel, xnumel, YBLOCK : tl.constexpr, XBLOCK : tl.constexpr):
    ynumel = 131072
    xnumel = 64
    yoffset = (tl.program_id(1) + tl.program_id(2) * tl.num_programs(1)) * YBLOCK
    yindex = yoffset + tl.arange(0, YBLOCK)[:, None]
    ymask = yindex < ynumel
    xoffset = tl.program_id(0) * XBLOCK
    xindex = xoffset + tl.arange(0, XBLOCK)[None, :]
    xmask = xindex < xnumel
    x3 = xindex
    y4 = yindex
    y1 = ((yindex // 64) % 512)
    tmp33 = tl.load(in_ptr2 + (x3 // 2), xmask, eviction_policy='evict_last').to(tl.float32)
    tmp0 = (x3 % 2)
    tmp1 = tl.full([1, 1], 0, tl.int64)
    tmp2 = tmp0 >= tmp1
    tmp3 = tl.full([1, 1], 1, tl.int64)
    tmp4 = tmp0 < tmp3
    tmp5 = tl.load(in_ptr0 + (449 + 2*(x3 // 2) + 512*y4), tmp4 & xmask & ymask, eviction_policy='evict_last', other=0.0).to(tl.float32)
    tmp6 = tl.load(in_ptr1 + (tl.broadcast_to(y4, [YBLOCK, XBLOCK])), tmp4 & xmask & ymask, eviction_policy='evict_last', other=0.0)
    tmp7 = tl.full([1, 1], 512.0, tl.float32)
    tmp8 = (tmp6 / tmp7)
    tmp9 = tl.full([1, 1], 1e-06, tl.float32)
    tmp10 = tmp8 + tmp9
    tmp11 = libdevice.rsqrt(tmp10)
    tmp12 = tmp11.to(tl.float32)
    tmp13 = tmp5 * tmp12
    tmp14 = -tmp13
    tmp15 = tl.full(tmp14.shape, 0.0, tmp14.dtype)
    tmp16 = tl.where(tmp4, tmp14, tmp15)
    tmp17 = tmp0 >= tmp3
    tmp18 = tl.full([1, 1], 2, tl.int64)
    tmp19 = tmp0 < tmp18
    tmp20 = tl.load(in_ptr0 + (448 + 2*(x3 // 2) + 512*y4), tmp17 & xmask & ymask, eviction_policy='evict_last', other=0.0).to(tl.float32)
    tmp21 = tl.load(in_ptr1 + (tl.broadcast_to(y4, [YBLOCK, XBLOCK])), tmp17 & xmask & ymask, eviction_policy='evict_last', other=0.0)
    tmp22 = tl.full([1, 1], 512.0, tl.float32)
    tmp23 = (tmp21 / tmp22)
    tmp24 = tl.full([1, 1], 1e-06, tl.float32)
    tmp25 = tmp23 + tmp24
    tmp26 = libdevice.rsqrt(tmp25)
    tmp27 = tmp26.to(tl.float32)
    tmp28 = tmp20 * tmp27
    tmp29 = tl.full(tmp28.shape, 0.0, tmp28.dtype)
    tmp30 = tl.where(tmp17, tmp28, tmp29)
    tmp31 = tl.where(tmp4, tmp16, tmp30)
    tmp32 = tmp31.to(tl.float32)
    tmp34 = tmp33.to(tl.float32)
    tmp35 = y1
    tmp36 = tmp35.to(tl.float32)
    tmp37 = tmp34 * tmp36
    tmp38 = tl_math.sin(tmp37)
    tmp39 = tl.full([1, 1], 1.2772588722239782, tl.float32)
    tmp40 = tmp38 * tmp39
    tmp41 = tmp40.to(tl.float32)
    tmp42 = tmp41.to(tl.float32)
    tmp43 = tmp32 * tmp42
    tl.store(out_ptr0 + (x3 + 64*y4), tmp43, xmask & ymask)
''', device_str='cuda')


# kernel path: /tmp/torchinductor_dev/ey/ceyl2xnargd2sbf3hu4cauvqyemkzkinkw76hyqq2hb5qlvgcast.py
# Topologically Sorted Source Nodes: [reshape_default, reshape_default_1, permute_default, convert_element_type_default, pow_tensor_scalar, mean_dim, add_tensor, rsqrt_default, convert_element_type_default_1, mul_tensor, slice_tensor, slice_tensor_1, convert_element_type_default_2, unsqueeze_default, unsqueeze_default_1, convert_element_type_default_3, expand_default, iota_default, add_tensor_1, unsqueeze_default_2, unsqueeze_default_3, convert_element_type_default_4, mul_tensor_1, permute_default_1, cos_default, mul_tensor_2, convert_element_type_default_5, unsqueeze_default_4, expand_default_3, clone_default, reshape_default_2, unsqueeze_default_5, mul_tensor_3, add_tensor_2, convert_element_type_default_8, cat_default_1], Original ATen: [aten.view, aten.permute, prims.convert_element_type, aten.pow, aten.mean, aten.add, aten.rsqrt, aten.mul, aten.slice, aten.unsqueeze, aten.expand, prims.iota, aten.cos, aten.clone, aten.cat]
# Source node to ATen node mapping:
#   add_tensor => add
#   add_tensor_1 => add_1
#   add_tensor_2 => add_2
#   cat_default_1 => cat_1
#   clone_default => clone
#   convert_element_type_default => convert_element_type
#   convert_element_type_default_1 => convert_element_type_1
#   convert_element_type_default_2 => convert_element_type_2
#   convert_element_type_default_3 => convert_element_type_3
#   convert_element_type_default_4 => convert_element_type_4
#   convert_element_type_default_5 => convert_element_type_5
#   convert_element_type_default_8 => convert_element_type_8
#   cos_default => cos
#   expand_default => expand
#   expand_default_3 => expand_3
#   iota_default => iota
#   mean_dim => mean
#   mul_tensor => mul
#   mul_tensor_1 => mul_1
#   mul_tensor_2 => mul_2
#   mul_tensor_3 => mul_3
#   permute_default => permute
#   permute_default_1 => permute_1
#   pow_tensor_scalar => pow_1
#   reshape_default => view
#   reshape_default_1 => view_1
#   reshape_default_2 => view_2
#   rsqrt_default => rsqrt
#   slice_tensor => slice_1
#   slice_tensor_1 => slice_2
#   unsqueeze_default => unsqueeze
#   unsqueeze_default_1 => unsqueeze_1
#   unsqueeze_default_2 => unsqueeze_2
#   unsqueeze_default_3 => unsqueeze_3
#   unsqueeze_default_4 => unsqueeze_4
#   unsqueeze_default_5 => unsqueeze_5
# Graph fragment:
#   %arg0_1 : Tensor "bf16[2048, 32768][32768, 1]cuda:0" = PlaceHolder[target=arg0_1]
#   %buf0 : Tensor "f32[4, 64, 512, 1][32768, 1, 64, 131072]cuda:0" = PlaceHolder[target=buf0]
#   %arg1_1 : Tensor "bf16[32][1]cuda:0" = PlaceHolder[target=arg1_1]
#   %mul_5 : Tensor "f32[4, 64, 512, 64][2097152, 64, 4096, 1]cuda:0" = PlaceHolder[target=mul_5]
#   %view : Tensor "bf16[4, 512, 32768][16777216, 32768, 1]cuda:0"[num_users=1] = call_function[target=torch.ops.aten.reshape.default](args = (%arg0_1, [4, 512, 32768]), kwargs = {})
#   %view_1 : Tensor "bf16[4, 512, 64, 512][16777216, 32768, 512, 1]cuda:0"[num_users=1] = call_function[target=torch.ops.aten.reshape.default](args = (%view, [4, 512, -1, 512]), kwargs = {})
#   %permute : Tensor "bf16[4, 64, 512, 512][16777216, 512, 32768, 1]cuda:0"[num_users=2] = call_function[target=torch.ops.aten.permute.default](args = (%view_1, [0, 2, 1, 3]), kwargs = {})
#   %convert_element_type : Tensor "f32[4, 64, 512, 512][16777216, 512, 32768, 1]cuda:0"[num_users=1] = call_function[target=torch.ops.prims.convert_element_type.default](args = (%permute, torch.float32), kwargs = {})
#   %pow_1 : Tensor "f32[4, 64, 512, 512][16777216, 512, 32768, 1]cuda:0"[num_users=1] = call_function[target=torch.ops.aten.pow.Tensor_Scalar](args = (%convert_element_type, 2), kwargs = {})
#   %mean : Tensor "f32[4, 64, 512, 1][32768, 512, 1, 1]cuda:0"[num_users=1] = call_function[target=torch.ops.aten.mean.dim](args = (%pow_1, [-1], True), kwargs = {})
#   %add : Tensor "f32[4, 64, 512, 1][32768, 512, 1, 1]cuda:0"[num_users=1] = call_function[target=torch.ops.aten.add.Tensor](args = (%mean, 1e-06), kwargs = {})
#   %rsqrt : Tensor "f32[4, 64, 512, 1][32768, 512, 1, 1]cuda:0"[num_users=1] = call_function[target=torch.ops.aten.rsqrt.default](args = (%add,), kwargs = {})
#   %convert_element_type_1 : Tensor "bf16[4, 64, 512, 1][32768, 512, 1, 1]cuda:0"[num_users=1] = call_function[target=torch.ops.prims.convert_element_type.default](args = (%rsqrt, torch.bfloat16), kwargs = {})
#   %mul : Tensor "bf16[4, 64, 512, 512][16777216, 512, 32768, 1]cuda:0"[num_users=2] = call_function[target=torch.ops.aten.mul.Tensor](args = (%permute, %convert_element_type_1), kwargs = {})
#   %slice_1 : Tensor "bf16[4, 64, 512, 448][16777216, 512, 32768, 1]cuda:0"[num_users=1] = call_function[target=torch.ops.aten.slice.Tensor](args = (%mul, 3, 0, -64), kwargs = {})
#   %slice_2 : Tensor "bf16[4, 64, 512, 64][16777216, 512, 32768, 1]cuda:0"[num_users=3] = call_function[target=torch.ops.aten.slice.Tensor](args = (%mul, 3, -64, 9223372036854775807), kwargs = {})
#   %convert_element_type_2 : Tensor "f32[4, 64, 512, 64][2097152, 64, 4096, 1]cuda:0"[num_users=1] = call_function[target=torch.ops.prims.convert_element_type.default](args = (%slice_2, torch.float32), kwargs = {})
#   %unsqueeze : Tensor "bf16[1, 32][32, 1]cuda:0"[num_users=1] = call_function[target=torch.ops.aten.unsqueeze.default](args = (%arg1_1, 0), kwargs = {})
#   %unsqueeze_1 : Tensor "bf16[1, 32, 1][32, 1, 1]cuda:0"[num_users=1] = call_function[target=torch.ops.aten.unsqueeze.default](args = (%unsqueeze, 2), kwargs = {})
#   %convert_element_type_3 : Tensor "f32[1, 32, 1][32, 1, 1]cuda:0"[num_users=1] = call_function[target=torch.ops.prims.convert_element_type.default](args = (%unsqueeze_1, torch.float32), kwargs = {})
#   %expand : Tensor "f32[1, 32, 1][32, 1, 1]cuda:0"[num_users=1] = call_function[target=torch.ops.aten.expand.default](args = (%convert_element_type_3, [1, -1, 1]), kwargs = {})
#   %iota : Tensor "i64[512][1]cuda:0"[num_users=1] = call_function[target=torch.ops.prims.iota.default](args = (512,), kwargs = {start: 0, step: 1, dtype: torch.int64, device: cuda:0, requires_grad: False})
#   %add_1 : Tensor "i64[512][1]cuda:0"[num_users=1] = call_function[target=torch.ops.aten.add.Tensor](args = (%iota, 0), kwargs = {})
#   %unsqueeze_2 : Tensor "i64[1, 512][512, 1]cuda:0"[num_users=1] = call_function[target=torch.ops.aten.unsqueeze.default](args = (%add_1, 0), kwargs = {})
#   %unsqueeze_3 : Tensor "i64[1, 1, 512][512, 512, 1]cuda:0"[num_users=1] = call_function[target=torch.ops.aten.unsqueeze.default](args = (%unsqueeze_2, 1), kwargs = {})
#   %convert_element_type_4 : Tensor "f32[1, 1, 512][512, 512, 1]cuda:0"[num_users=1] = call_function[target=torch.ops.prims.convert_element_type.default](args = (%unsqueeze_3, torch.float32), kwargs = {})
#   %mul_1 : Tensor "f32[1, 32, 512][16384, 512, 1]cuda:0"[num_users=1] = call_function[target=torch.ops.aten.mul.Tensor](args = (%expand_1, %expand_2), kwargs = {})
#   %permute_1 : Tensor "f32[1, 512, 32][16384, 1, 512]cuda:0"[num_users=2] = call_function[target=torch.ops.aten.permute.default](args = (%mul_1, [0, 2, 1]), kwargs = {})
#   %cos : Tensor "f32[1, 512, 32][16384, 1, 512]cuda:0"[num_users=1] = call_function[target=torch.ops.aten.cos.default](args = (%permute_1,), kwargs = {})
#   %mul_2 : Tensor "f32[1, 512, 32][16384, 1, 512]cuda:0"[num_users=1] = call_function[target=torch.ops.aten.mul.Tensor](args = (%cos, 1.2772588722239782), kwargs = {})
#   %convert_element_type_5 : Tensor "bf16[1, 512, 32][16384, 1, 512]cuda:0"[num_users=2] = call_function[target=torch.ops.prims.convert_element_type.default](args = (%mul_2, torch.bfloat16), kwargs = {})
#   %unsqueeze_4 : Tensor "bf16[1, 512, 32, 1][16384, 1, 512, 1]cuda:0"[num_users=1] = call_function[target=torch.ops.aten.unsqueeze.default](args = (%convert_element_type_5, 3), kwargs = {})
#   %expand_3 : Tensor "bf16[1, 512, 32, 2][16384, 1, 512, 0]cuda:0"[num_users=1] = call_function[target=torch.ops.aten.expand.default](args = (%unsqueeze_4, [1, 512, 32, 2]), kwargs = {})
#   %clone : Tensor "bf16[1, 512, 32, 2][32768, 64, 2, 1]cuda:0"[num_users=1] = call_function[target=torch.ops.aten.clone.default](args = (%expand_3,), kwargs = {memory_format: torch.contiguous_format})
#   %view_2 : Tensor "bf16[1, 512, 64][32768, 64, 1]cuda:0"[num_users=1] = call_function[target=torch.ops.aten.reshape.default](args = (%clone, [1, 512, 64]), kwargs = {})
#   %unsqueeze_5 : Tensor "bf16[1, 1, 512, 64][32768, 32768, 64, 1]cuda:0"[num_users=1] = call_function[target=torch.ops.aten.unsqueeze.default](args = (%view_2, 1), kwargs = {})
#   %mul_3 : Tensor "f32[4, 64, 512, 64][2097152, 64, 4096, 1]cuda:0"[num_users=1] = call_function[target=torch.ops.aten.mul.Tensor](args = (%convert_element_type_2, %unsqueeze_5), kwargs = {})
#   %add_2 : Tensor "f32[4, 64, 512, 64][2097152, 64, 4096, 1]cuda:0"[num_users=1] = call_function[target=torch.ops.aten.add.Tensor](args = (%mul_3, %mul_5), kwargs = {})
#   %convert_element_type_8 : Tensor "bf16[4, 64, 512, 64][2097152, 64, 4096, 1]cuda:0"[num_users=1] = call_function[target=torch.ops.prims.convert_element_type.default](args = (%add_2, torch.bfloat16), kwargs = {})
#   %cat_1 : Tensor "bf16[4, 64, 512, 512][16777216, 262144, 512, 1]cuda:0"[num_users=1] = call_function[target=torch.ops.aten.cat.default](args = ([%slice_1, %convert_element_type_8], -1), kwargs = {})
#   return %expand_5
triton_poi_fused_add_cat_clone_convert_element_type_cos_expand_iota_mean_mul_permute_pow_rsqrt_slice_unsqueeze_view_2 = async_compile.triton('triton_poi_fused_add_cat_clone_convert_element_type_cos_expand_iota_mean_mul_permute_pow_rsqrt_slice_unsqueeze_view_2', '''
import triton
import triton.language as tl

from torch._inductor.runtime import triton_helpers, triton_heuristics
from torch._inductor.runtime.triton_helpers import libdevice, math as tl_math
from torch._inductor.runtime.hints import AutotuneHint, ReductionHint, TileHint, DeviceProperties
triton_helpers.set_driver_to_gpu()

@triton_heuristics.pointwise(
    size_hints={'x': 67108864}, 
    filename=__file__,
    triton_meta={'signature': {'in_ptr0': '*bf16', 'in_ptr1': '*fp32', 'in_ptr2': '*bf16', 'in_ptr3': '*fp32', 'out_ptr0': '*bf16', 'xnumel': 'i32', 'XBLOCK': 'constexpr'}, 'device': DeviceProperties(type='cuda', index=0, multi_processor_count=148, cc=100, major=10, regs_per_multiprocessor=65536, max_threads_per_multi_processor=2048, max_threads_per_block=1024, warp_size=32), 'constants': {}, 'native_matmul': False, 'enable_fp_fusion': True, 'launch_pdl': False, 'disable_ftz': False, 'configs': [{(0,): [['tt.divisibility', 16]], (1,): [['tt.divisibility', 16]], (2,): [['tt.divisibility', 16]], (3,): [['tt.divisibility', 16]], (4,): [['tt.divisibility', 16]], (5,): [['tt.divisibility', 16]]}]},
    inductor_meta={'grid_type': 'Grid1D', 'autotune_hints': set(), 'kernel_name': 'triton_poi_fused_add_cat_clone_convert_element_type_cos_expand_iota_mean_mul_permute_pow_rsqrt_slice_unsqueeze_view_2', 'mutated_arg_names': [], 'optimize_mem': True, 'no_x_dim': False, 'atomic_add_found': False, 'num_load': 6, 'num_store': 1, 'num_reduction': 0, 'backend_hash': '24DD4EB3E46C537527C82D44AE961C79D45917162D3A4C30BD79DDC26D6A401F', 'assert_indirect_indexing': True, 'autotune_local_cache': True, 'autotune_pointwise': True, 'autotune_remote_cache': None, 'force_disable_caches': False, 'dynamic_scale_rblock': True, 'max_autotune': False, 'max_autotune_pointwise': False, 'min_split_scan_rblock': 256, 'spill_threshold': 16, 'store_cubin': False, 'deterministic': False, 'force_filter_reduction_configs': False, 'mix_order_reduction_allow_multi_stages': True, 'are_deterministic_algorithms_enabled': False, 'tiling_scores': {'x': 436207680}},
    min_elem_per_thread=0
)
@triton.jit
def triton_poi_fused_add_cat_clone_convert_element_type_cos_expand_iota_mean_mul_permute_pow_rsqrt_slice_unsqueeze_view_2(in_ptr0, in_ptr1, in_ptr2, in_ptr3, out_ptr0, xnumel, XBLOCK : tl.constexpr):
    xnumel = 67108864
    xoffset = tl.program_id(0) * XBLOCK
    xindex = xoffset + tl.arange(0, XBLOCK)[:]
    xmask = tl.full([XBLOCK], True, tl.int1)[:]
    x0 = (xindex % 512)
    x4 = xindex // 512
    x2 = ((xindex // 32768) % 512)
    x1 = ((xindex // 512) % 64)
    x3 = xindex // 16777216
    tmp0 = x0
    tmp1 = tl.full([1], 0, tl.int64)
    tmp2 = tmp0 >= tmp1
    tmp3 = tl.full([1], 448, tl.int64)
    tmp4 = tmp0 < tmp3
    tmp5 = tl.load(in_ptr0 + (512*x4 + (x0)), tmp4, eviction_policy='evict_last', other=0.0).to(tl.float32)
    tmp6 = tl.load(in_ptr1 + (x4), tmp4, eviction_policy='evict_last', other=0.0)
    tmp7 = tl.full([1], 512.0, tl.float32)
    tmp8 = (tmp6 / tmp7)
    tmp9 = tl.full([1], 1e-06, tl.float32)
    tmp10 = tmp8 + tmp9
    tmp11 = libdevice.rsqrt(tmp10)
    tmp12 = tmp11.to(tl.float32)
    tmp13 = tmp5 * tmp12
    tmp14 = tl.full(tmp13.shape, 0.0, tmp13.dtype)
    tmp15 = tl.where(tmp4, tmp13, tmp14)
    tmp16 = tmp0 >= tmp3
    tmp17 = tl.full([1], 512, tl.int64)
    tmp18 = tmp0 < tmp17
    tmp19 = tl.load(in_ptr0 + (448 + 512*x4 + ((-448) + x0)), tmp16, eviction_policy='evict_last', other=0.0).to(tl.float32)
    tmp20 = tl.load(in_ptr1 + (x4), tmp16, eviction_policy='evict_last', other=0.0)
    tmp21 = tl.full([1], 512.0, tl.float32)
    tmp22 = (tmp20 / tmp21)
    tmp23 = tl.full([1], 1e-06, tl.float32)
    tmp24 = tmp22 + tmp23
    tmp25 = libdevice.rsqrt(tmp24)
    tmp26 = tmp25.to(tl.float32)
    tmp27 = tmp19 * tmp26
    tmp28 = tmp27.to(tl.float32)
    tmp29 = tl.load(in_ptr2 + (((((-448) + x0) // 2) % 32)), tmp16, eviction_policy='evict_last', other=0.0).to(tl.float32)
    tmp30 = tmp29.to(tl.float32)
    tmp31 = x2
    tmp32 = tmp31.to(tl.float32)
    tmp33 = tmp30 * tmp32
    tmp34 = tl_math.cos(tmp33)
    tmp35 = tl.full([1], 1.2772588722239782, tl.float32)
    tmp36 = tmp34 * tmp35
    tmp37 = tmp36.to(tl.float32)
    tmp38 = tmp37.to(tl.float32)
    tmp39 = tmp28 * tmp38
    tmp40 = tl.load(in_ptr3 + (64*x4 + ((-448) + x0)), tmp16, eviction_policy='evict_last', other=0.0)
    tmp41 = tmp39 + tmp40
    tmp42 = tmp41.to(tl.float32)
    tmp43 = tl.full(tmp42.shape, 0.0, tmp42.dtype)
    tmp44 = tl.where(tmp16, tmp42, tmp43)
    tmp45 = tl.where(tmp4, tmp15, tmp44)
    tl.store(out_ptr0 + (x0 + 512*x2 + 262144*x1 + 16777216*x3), tmp45, None)
''', device_str='cuda')


# kernel path: /tmp/torchinductor_dev/al/cal57budglhnafdk4ujmd4hdxcnambvz5qv7e7ak3a7lyg5hxl5s.py
# Topologically Sorted Source Nodes: [reshape_default_6, convert_element_type_default_9, pow_tensor_scalar_1, mean_dim_1], Original ATen: [aten.view, prims.convert_element_type, aten.pow, aten.mean]
# Source node to ATen node mapping:
#   convert_element_type_default_9 => convert_element_type_9
#   mean_dim_1 => mean_1
#   pow_tensor_scalar_1 => pow_2
#   reshape_default_6 => view_6
# Graph fragment:
#   %arg2_1 : Tensor "bf16[2048, 512][512, 1]cuda:0" = PlaceHolder[target=arg2_1]
#   %view_6 : Tensor "bf16[4, 512, 512][262144, 512, 1]cuda:0"[num_users=1] = call_function[target=torch.ops.aten.reshape.default](args = (%arg2_1, [4, 512, 512]), kwargs = {})
#   %convert_element_type_9 : Tensor "f32[4, 512, 512][262144, 512, 1]cuda:0"[num_users=2] = call_function[target=torch.ops.prims.convert_element_type.default](args = (%view_6, torch.float32), kwargs = {})
#   %pow_2 : Tensor "f32[4, 512, 512][262144, 512, 1]cuda:0"[num_users=1] = call_function[target=torch.ops.aten.pow.Tensor_Scalar](args = (%convert_element_type_9, 2), kwargs = {})
#   %mean_1 : Tensor "f32[4, 512, 1][512, 1, 1]cuda:0"[num_users=1] = call_function[target=torch.ops.aten.mean.dim](args = (%pow_2, [-1], True), kwargs = {})
#   return %buf3
triton_per_fused_convert_element_type_mean_pow_view_3 = async_compile.triton('triton_per_fused_convert_element_type_mean_pow_view_3', '''
import triton
import triton.language as tl

from torch._inductor.runtime import triton_helpers, triton_heuristics
from torch._inductor.runtime.triton_helpers import libdevice, math as tl_math
from torch._inductor.runtime.hints import AutotuneHint, ReductionHint, TileHint, DeviceProperties
triton_helpers.set_driver_to_gpu()

@triton_heuristics.persistent_reduction(
    size_hints={'x': 2048, 'r0_': 512},
    reduction_hint=ReductionHint.INNER,
    filename=__file__,
    triton_meta={'signature': {'in_ptr0': '*bf16', 'out_ptr0': '*fp32', 'xnumel': 'i32', 'r0_numel': 'i32', 'XBLOCK': 'constexpr'}, 'device': DeviceProperties(type='cuda', index=0, multi_processor_count=148, cc=100, major=10, regs_per_multiprocessor=65536, max_threads_per_multi_processor=2048, max_threads_per_block=1024, warp_size=32), 'constants': {}, 'native_matmul': False, 'enable_fp_fusion': True, 'launch_pdl': False, 'disable_ftz': False, 'configs': [{(0,): [['tt.divisibility', 16]], (1,): [['tt.divisibility', 16]], (2,): [['tt.divisibility', 16]], (3,): [['tt.divisibility', 16]]}]},
    inductor_meta={'grid_type': 'Grid1D', 'autotune_hints': set(), 'kernel_name': 'triton_per_fused_convert_element_type_mean_pow_view_3', 'mutated_arg_names': [], 'optimize_mem': True, 'no_x_dim': None, 'atomic_add_found': False, 'num_load': 1, 'num_store': 1, 'num_reduction': 1, 'backend_hash': '24DD4EB3E46C537527C82D44AE961C79D45917162D3A4C30BD79DDC26D6A401F', 'assert_indirect_indexing': True, 'autotune_local_cache': True, 'autotune_pointwise': True, 'autotune_remote_cache': None, 'force_disable_caches': False, 'dynamic_scale_rblock': True, 'max_autotune': False, 'max_autotune_pointwise': False, 'min_split_scan_rblock': 256, 'spill_threshold': 16, 'store_cubin': False, 'deterministic': False, 'force_filter_reduction_configs': False, 'mix_order_reduction_allow_multi_stages': True, 'are_deterministic_algorithms_enabled': False, 'tiling_scores': {'x': 16384, 'r0_': 2097152}}
)
@triton.jit
def triton_per_fused_convert_element_type_mean_pow_view_3(in_ptr0, out_ptr0, xnumel, r0_numel, XBLOCK : tl.constexpr):
    xnumel = 2048
    r0_numel = 512
    R0_BLOCK: tl.constexpr = 512
    rnumel = r0_numel
    RBLOCK: tl.constexpr = R0_BLOCK
    xoffset = tl.program_id(0) * XBLOCK
    xindex = xoffset + tl.arange(0, XBLOCK)[:, None]
    xmask = xindex < xnumel
    r0_index = tl.arange(0, R0_BLOCK)[None, :]
    r0_offset = 0
    r0_mask = tl.full([R0_BLOCK], True, tl.int1)[None, :]
    roffset = r0_offset
    rindex = r0_index
    r0_1 = r0_index
    x0 = xindex
    tmp0 = tl.load(in_ptr0 + (r0_1 + 512*x0), xmask, other=0.0).to(tl.float32)
    tmp1 = tmp0.to(tl.float32)
    tmp2 = tmp1 * tmp1
    tmp3 = tl.broadcast_to(tmp2, [XBLOCK, R0_BLOCK])
    tmp5 = tl.where(xmask, tmp3, 0)
    tmp6 = tl.sum(tmp5, 1)[:, None].to(tl.float32)
    tl.store(out_ptr0 + (x0), tmp6, xmask)
''', device_str='cuda')


# kernel path: /tmp/torchinductor_dev/u5/cu5xb33b7pze27zbdmcjia3b7dwoq7zpnz4q2yt6tduyreo7piiu.py
# Topologically Sorted Source Nodes: [unsqueeze_default, unsqueeze_default_1, convert_element_type_default_3, expand_default, iota_default, add_tensor_1, unsqueeze_default_2, unsqueeze_default_3, convert_element_type_default_4, mul_tensor_1, permute_default_1, cos_default, mul_tensor_2, convert_element_type_default_5, sin_default, mul_tensor_4, convert_element_type_default_7, reshape_default_6, convert_element_type_default_9, pow_tensor_scalar_1, mean_dim_1, add_tensor_3, rsqrt_default_1, mul_tensor_6, convert_element_type_default_10, mul_tensor_7, reshape_default_7, permute_default_2, slice_tensor_5, convert_element_type_default_11, unsqueeze_default_10, expand_default_6, clone_default_2, reshape_default_8, unsqueeze_default_11, mul_tensor_8, slice_tensor_6, neg_default_1, unsqueeze_default_12, slice_tensor_7, unsqueeze_default_13, cat_default_2, reshape_default_9, convert_element_type_default_12, unsqueeze_default_14, expand_default_7, clone_default_3, reshape_default_10, unsqueeze_default_15, mul_tensor_9, add_tensor_4], Original ATen: [aten.unsqueeze, prims.convert_element_type, aten.expand, prims.iota, aten.add, aten.mul, aten.permute, aten.cos, aten.sin, aten.view, aten.pow, aten.mean, aten.rsqrt, aten.slice, aten.clone, aten.neg, aten.cat]
# Source node to ATen node mapping:
#   add_tensor_1 => add_1
#   add_tensor_3 => add_3
#   add_tensor_4 => add_4
#   cat_default_2 => cat_2
#   clone_default_2 => clone_2
#   clone_default_3 => clone_3
#   convert_element_type_default_10 => convert_element_type_10
#   convert_element_type_default_11 => convert_element_type_11
#   convert_element_type_default_12 => convert_element_type_12
#   convert_element_type_default_3 => convert_element_type_3
#   convert_element_type_default_4 => convert_element_type_4
#   convert_element_type_default_5 => convert_element_type_5
#   convert_element_type_default_7 => convert_element_type_7
#   convert_element_type_default_9 => convert_element_type_9
#   cos_default => cos
#   expand_default => expand
#   expand_default_6 => expand_6
#   expand_default_7 => expand_7
#   iota_default => iota
#   mean_dim_1 => mean_1
#   mul_tensor_1 => mul_1
#   mul_tensor_2 => mul_2
#   mul_tensor_4 => mul_4
#   mul_tensor_6 => mul_6
#   mul_tensor_7 => mul_7
#   mul_tensor_8 => mul_8
#   mul_tensor_9 => mul_9
#   neg_default_1 => neg_1
#   permute_default_1 => permute_1
#   permute_default_2 => permute_2
#   pow_tensor_scalar_1 => pow_2
#   reshape_default_10 => view_10
#   reshape_default_6 => view_6
#   reshape_default_7 => view_7
#   reshape_default_8 => view_8
#   reshape_default_9 => view_9
#   rsqrt_default_1 => rsqrt_1
#   sin_default => sin
#   slice_tensor_5 => slice_6
#   slice_tensor_6 => slice_7
#   slice_tensor_7 => slice_8
#   unsqueeze_default => unsqueeze
#   unsqueeze_default_1 => unsqueeze_1
#   unsqueeze_default_10 => unsqueeze_10
#   unsqueeze_default_11 => unsqueeze_11
#   unsqueeze_default_12 => unsqueeze_12
#   unsqueeze_default_13 => unsqueeze_13
#   unsqueeze_default_14 => unsqueeze_14
#   unsqueeze_default_15 => unsqueeze_15
#   unsqueeze_default_2 => unsqueeze_2
#   unsqueeze_default_3 => unsqueeze_3
# Graph fragment:
#   %arg3_1 : Tensor "bf16[512][1]cuda:0" = PlaceHolder[target=arg3_1]
#   %arg2_1 : Tensor "bf16[2048, 512][512, 1]cuda:0" = PlaceHolder[target=arg2_1]
#   %buf3 : Tensor "f32[4, 512, 1][512, 1, 2048]cuda:0" = PlaceHolder[target=buf3]
#   %arg1_1 : Tensor "bf16[32][1]cuda:0" = PlaceHolder[target=arg1_1]
#   %convert_element_type_12 : Tensor "f32[4, 1, 512, 64][32768, 131072, 64, 1]cuda:0" = PlaceHolder[target=convert_element_type_12]
#   %unsqueeze : Tensor "bf16[1, 32][32, 1]cuda:0"[num_users=1] = call_function[target=torch.ops.aten.unsqueeze.default](args = (%arg1_1, 0), kwargs = {})
#   %unsqueeze_1 : Tensor "bf16[1, 32, 1][32, 1, 1]cuda:0"[num_users=1] = call_function[target=torch.ops.aten.unsqueeze.default](args = (%unsqueeze, 2), kwargs = {})
#   %convert_element_type_3 : Tensor "f32[1, 32, 1][32, 1, 1]cuda:0"[num_users=1] = call_function[target=torch.ops.prims.convert_element_type.default](args = (%unsqueeze_1, torch.float32), kwargs = {})
#   %expand : Tensor "f32[1, 32, 1][32, 1, 1]cuda:0"[num_users=1] = call_function[target=torch.ops.aten.expand.default](args = (%convert_element_type_3, [1, -1, 1]), kwargs = {})
#   %iota : Tensor "i64[512][1]cuda:0"[num_users=1] = call_function[target=torch.ops.prims.iota.default](args = (512,), kwargs = {start: 0, step: 1, dtype: torch.int64, device: cuda:0, requires_grad: False})
#   %add_1 : Tensor "i64[512][1]cuda:0"[num_users=1] = call_function[target=torch.ops.aten.add.Tensor](args = (%iota, 0), kwargs = {})
#   %unsqueeze_2 : Tensor "i64[1, 512][512, 1]cuda:0"[num_users=1] = call_function[target=torch.ops.aten.unsqueeze.default](args = (%add_1, 0), kwargs = {})
#   %unsqueeze_3 : Tensor "i64[1, 1, 512][512, 512, 1]cuda:0"[num_users=1] = call_function[target=torch.ops.aten.unsqueeze.default](args = (%unsqueeze_2, 1), kwargs = {})
#   %convert_element_type_4 : Tensor "f32[1, 1, 512][512, 512, 1]cuda:0"[num_users=1] = call_function[target=torch.ops.prims.convert_element_type.default](args = (%unsqueeze_3, torch.float32), kwargs = {})
#   %mul_1 : Tensor "f32[1, 32, 512][16384, 512, 1]cuda:0"[num_users=1] = call_function[target=torch.ops.aten.mul.Tensor](args = (%expand_1, %expand_2), kwargs = {})
#   %permute_1 : Tensor "f32[1, 512, 32][16384, 1, 512]cuda:0"[num_users=2] = call_function[target=torch.ops.aten.permute.default](args = (%mul_1, [0, 2, 1]), kwargs = {})
#   %cos : Tensor "f32[1, 512, 32][16384, 1, 512]cuda:0"[num_users=1] = call_function[target=torch.ops.aten.cos.default](args = (%permute_1,), kwargs = {})
#   %mul_2 : Tensor "f32[1, 512, 32][16384, 1, 512]cuda:0"[num_users=1] = call_function[target=torch.ops.aten.mul.Tensor](args = (%cos, 1.2772588722239782), kwargs = {})
#   %convert_element_type_5 : Tensor "bf16[1, 512, 32][16384, 1, 512]cuda:0"[num_users=2] = call_function[target=torch.ops.prims.convert_element_type.default](args = (%mul_2, torch.bfloat16), kwargs = {})
#   %sin : Tensor "f32[1, 512, 32][16384, 1, 512]cuda:0"[num_users=1] = call_function[target=torch.ops.aten.sin.default](args = (%permute_1,), kwargs = {})
#   %mul_4 : Tensor "f32[1, 512, 32][16384, 1, 512]cuda:0"[num_users=1] = call_function[target=torch.ops.aten.mul.Tensor](args = (%sin, 1.2772588722239782), kwargs = {})
#   %convert_element_type_7 : Tensor "bf16[1, 512, 32][16384, 1, 512]cuda:0"[num_users=2] = call_function[target=torch.ops.prims.convert_element_type.default](args = (%mul_4, torch.bfloat16), kwargs = {})
#   %view_6 : Tensor "bf16[4, 512, 512][262144, 512, 1]cuda:0"[num_users=1] = call_function[target=torch.ops.aten.reshape.default](args = (%arg2_1, [4, 512, 512]), kwargs = {})
#   %convert_element_type_9 : Tensor "f32[4, 512, 512][262144, 512, 1]cuda:0"[num_users=2] = call_function[target=torch.ops.prims.convert_element_type.default](args = (%view_6, torch.float32), kwargs = {})
#   %pow_2 : Tensor "f32[4, 512, 512][262144, 512, 1]cuda:0"[num_users=1] = call_function[target=torch.ops.aten.pow.Tensor_Scalar](args = (%convert_element_type_9, 2), kwargs = {})
#   %mean_1 : Tensor "f32[4, 512, 1][512, 1, 1]cuda:0"[num_users=1] = call_function[target=torch.ops.aten.mean.dim](args = (%pow_2, [-1], True), kwargs = {})
#   %add_3 : Tensor "f32[4, 512, 1][512, 1, 1]cuda:0"[num_users=1] = call_function[target=torch.ops.aten.add.Tensor](args = (%mean_1, 1e-06), kwargs = {})
#   %rsqrt_1 : Tensor "f32[4, 512, 1][512, 1, 1]cuda:0"[num_users=1] = call_function[target=torch.ops.aten.rsqrt.default](args = (%add_3,), kwargs = {})
#   %mul_6 : Tensor "f32[4, 512, 512][262144, 512, 1]cuda:0"[num_users=1] = call_function[target=torch.ops.aten.mul.Tensor](args = (%convert_element_type_9, %rsqrt_1), kwargs = {})
#   %convert_element_type_10 : Tensor "bf16[4, 512, 512][262144, 512, 1]cuda:0"[num_users=1] = call_function[target=torch.ops.prims.convert_element_type.default](args = (%mul_6, torch.bfloat16), kwargs = {})
#   %mul_7 : Tensor "bf16[4, 512, 512][262144, 512, 1]cuda:0"[num_users=1] = call_function[target=torch.ops.aten.mul.Tensor](args = (%arg3_1, %convert_element_type_10), kwargs = {})
#   %view_7 : Tensor "bf16[4, 512, 1, 512][262144, 512, 512, 1]cuda:0"[num_users=1] = call_function[target=torch.ops.aten.reshape.default](args = (%mul_7, [4, 512, -1, 512]), kwargs = {})
#   %permute_2 : Tensor "bf16[4, 1, 512, 512][262144, 512, 512, 1]cuda:0"[num_users=2] = call_function[target=torch.ops.aten.permute.default](args = (%view_7, [0, 2, 1, 3]), kwargs = {})
#   %slice_6 : Tensor "bf16[4, 1, 512, 64][262144, 512, 512, 1]cuda:0"[num_users=3] = call_function[target=torch.ops.aten.slice.Tensor](args = (%permute_2, 3, -64, 9223372036854775807), kwargs = {})
#   %convert_element_type_11 : Tensor "f32[4, 1, 512, 64][32768, 64, 64, 1]cuda:0"[num_users=1] = call_function[target=torch.ops.prims.convert_element_type.default](args = (%slice_6, torch.float32), kwargs = {})
#   %unsqueeze_10 : Tensor "bf16[1, 512, 32, 1][16384, 1, 512, 1]cuda:0"[num_users=1] = call_function[target=torch.ops.aten.unsqueeze.default](args = (%convert_element_type_5, 3), kwargs = {})
#   %expand_6 : Tensor "bf16[1, 512, 32, 2][16384, 1, 512, 0]cuda:0"[num_users=1] = call_function[target=torch.ops.aten.expand.default](args = (%unsqueeze_10, [1, 512, 32, 2]), kwargs = {})
#   %clone_2 : Tensor "bf16[1, 512, 32, 2][32768, 64, 2, 1]cuda:0"[num_users=1] = call_function[target=torch.ops.aten.clone.default](args = (%expand_6,), kwargs = {memory_format: torch.contiguous_format})
#   %view_8 : Tensor "bf16[1, 512, 64][32768, 64, 1]cuda:0"[num_users=1] = call_function[target=torch.ops.aten.reshape.default](args = (%clone_2, [1, 512, 64]), kwargs = {})
#   %unsqueeze_11 : Tensor "bf16[1, 1, 512, 64][32768, 32768, 64, 1]cuda:0"[num_users=1] = call_function[target=torch.ops.aten.unsqueeze.default](args = (%view_8, 1), kwargs = {})
#   %mul_8 : Tensor "f32[4, 1, 512, 64][32768, 64, 64, 1]cuda:0"[num_users=1] = call_function[target=torch.ops.aten.mul.Tensor](args = (%convert_element_type_11, %unsqueeze_11), kwargs = {})
#   %slice_7 : Tensor "bf16[4, 1, 512, 32][262144, 512, 512, 2]cuda:0"[num_users=1] = call_function[target=torch.ops.aten.slice.Tensor](args = (%slice_6, 3, 1, 9223372036854775807, 2), kwargs = {})
#   %neg_1 : Tensor "bf16[4, 1, 512, 32][16384, 32, 32, 1]cuda:0"[num_users=1] = call_function[target=torch.ops.aten.neg.default](args = (%slice_7,), kwargs = {})
#   %unsqueeze_12 : Tensor "bf16[4, 1, 512, 32, 1][16384, 32, 32, 1, 1]cuda:0"[num_users=1] = call_function[target=torch.ops.aten.unsqueeze.default](args = (%neg_1, 4), kwargs = {})
#   %slice_8 : Tensor "bf16[4, 1, 512, 32][262144, 512, 512, 2]cuda:0"[num_users=1] = call_function[target=torch.ops.aten.slice.Tensor](args = (%slice_6, 3, 0, 9223372036854775807, 2), kwargs = {})
#   %unsqueeze_13 : Tensor "bf16[4, 1, 512, 32, 1][262144, 512, 512, 2, 1]cuda:0"[num_users=1] = call_function[target=torch.ops.aten.unsqueeze.default](args = (%slice_8, 4), kwargs = {})
#   %cat_2 : Tensor "bf16[4, 1, 512, 32, 2][32768, 32768, 64, 2, 1]cuda:0"[num_users=1] = call_function[target=torch.ops.aten.cat.default](args = ([%unsqueeze_12, %unsqueeze_13], -1), kwargs = {})
#   %view_9 : Tensor "bf16[4, 1, 512, 64][32768, 32768, 64, 1]cuda:0"[num_users=1] = call_function[target=torch.ops.aten.reshape.default](args = (%cat_2, [4, 1, 512, 64]), kwargs = {})
#   %convert_element_type_12 : Tensor "f32[4, 1, 512, 64][32768, 32768, 64, 1]cuda:0"[num_users=1] = call_function[target=torch.ops.prims.convert_element_type.default](args = (%view_9, torch.float32), kwargs = {})
#   %unsqueeze_14 : Tensor "bf16[1, 512, 32, 1][16384, 1, 512, 1]cuda:0"[num_users=1] = call_function[target=torch.ops.aten.unsqueeze.default](args = (%convert_element_type_7, 3), kwargs = {})
#   %expand_7 : Tensor "bf16[1, 512, 32, 2][16384, 1, 512, 0]cuda:0"[num_users=1] = call_function[target=torch.ops.aten.expand.default](args = (%unsqueeze_14, [1, 512, 32, 2]), kwargs = {})
#   %clone_3 : Tensor "bf16[1, 512, 32, 2][32768, 64, 2, 1]cuda:0"[num_users=1] = call_function[target=torch.ops.aten.clone.default](args = (%expand_7,), kwargs = {memory_format: torch.contiguous_format})
#   %view_10 : Tensor "bf16[1, 512, 64][32768, 64, 1]cuda:0"[num_users=1] = call_function[target=torch.ops.aten.reshape.default](args = (%clone_3, [1, 512, 64]), kwargs = {})
#   %unsqueeze_15 : Tensor "bf16[1, 1, 512, 64][32768, 32768, 64, 1]cuda:0"[num_users=1] = call_function[target=torch.ops.aten.unsqueeze.default](args = (%view_10, 1), kwargs = {})
#   %mul_9 : Tensor "f32[4, 1, 512, 64][32768, 32768, 64, 1]cuda:0"[num_users=1] = call_function[target=torch.ops.aten.mul.Tensor](args = (%convert_element_type_12, %unsqueeze_15), kwargs = {})
#   %add_4 : Tensor "f32[4, 1, 512, 64][32768, 64, 64, 1]cuda:0"[num_users=1] = call_function[target=torch.ops.aten.add.Tensor](args = (%mul_8, %mul_9), kwargs = {})
#   return %convert_element_type_12,%add_4
triton_poi_fused_add_cat_clone_convert_element_type_cos_expand_iota_mean_mul_neg_permute_pow_rsqrt_sin_slice_unsqueeze_view_4 = async_compile.triton('triton_poi_fused_add_cat_clone_convert_element_type_cos_expand_iota_mean_mul_neg_permute_pow_rsqrt_sin_slice_unsqueeze_view_4', '''
import triton
import triton.language as tl

from torch._inductor.runtime import triton_helpers, triton_heuristics
from torch._inductor.runtime.triton_helpers import libdevice, math as tl_math
from torch._inductor.runtime.hints import AutotuneHint, ReductionHint, TileHint, DeviceProperties
triton_helpers.set_driver_to_gpu()

@triton_heuristics.pointwise(
    size_hints={'x': 131072}, 
    filename=__file__,
    triton_meta={'signature': {'in_out_ptr0': '*fp32', 'in_ptr0': '*bf16', 'in_ptr1': '*bf16', 'in_ptr2': '*fp32', 'in_ptr3': '*bf16', 'xnumel': 'i32', 'XBLOCK': 'constexpr'}, 'device': DeviceProperties(type='cuda', index=0, multi_processor_count=148, cc=100, major=10, regs_per_multiprocessor=65536, max_threads_per_multi_processor=2048, max_threads_per_block=1024, warp_size=32), 'constants': {}, 'native_matmul': False, 'enable_fp_fusion': True, 'launch_pdl': False, 'disable_ftz': False, 'configs': [{(0,): [['tt.divisibility', 16]], (1,): [['tt.divisibility', 16]], (2,): [['tt.divisibility', 16]], (3,): [['tt.divisibility', 16]], (4,): [['tt.divisibility', 16]], (5,): [['tt.divisibility', 16]]}]},
    inductor_meta={'grid_type': 'Grid1D', 'autotune_hints': set(), 'kernel_name': 'triton_poi_fused_add_cat_clone_convert_element_type_cos_expand_iota_mean_mul_neg_permute_pow_rsqrt_sin_slice_unsqueeze_view_4', 'mutated_arg_names': ['in_out_ptr0'], 'optimize_mem': True, 'no_x_dim': False, 'atomic_add_found': False, 'num_load': 10, 'num_store': 1, 'num_reduction': 0, 'backend_hash': '24DD4EB3E46C537527C82D44AE961C79D45917162D3A4C30BD79DDC26D6A401F', 'assert_indirect_indexing': True, 'autotune_local_cache': True, 'autotune_pointwise': True, 'autotune_remote_cache': None, 'force_disable_caches': False, 'dynamic_scale_rblock': True, 'max_autotune': False, 'max_autotune_pointwise': False, 'min_split_scan_rblock': 256, 'spill_threshold': 16, 'store_cubin': False, 'deterministic': False, 'force_filter_reduction_configs': False, 'mix_order_reduction_allow_multi_stages': True, 'are_deterministic_algorithms_enabled': False, 'tiling_scores': {'x': 1835456}},
    min_elem_per_thread=0
)
@triton.jit
def triton_poi_fused_add_cat_clone_convert_element_type_cos_expand_iota_mean_mul_neg_permute_pow_rsqrt_sin_slice_unsqueeze_view_4(in_out_ptr0, in_ptr0, in_ptr1, in_ptr2, in_ptr3, xnumel, XBLOCK : tl.constexpr):
    xnumel = 131072
    xoffset = tl.program_id(0) * XBLOCK
    xindex = xoffset + tl.arange(0, XBLOCK)[:]
    xmask = tl.full([XBLOCK], True, tl.int1)[:]
    x4 = xindex
    x0 = (xindex % 64)
    x1 = xindex // 64
    x2 = ((xindex // 64) % 512)
    tmp39 = tl.load(in_ptr0 + (448 + x0), None, eviction_policy='evict_last').to(tl.float32)
    tmp40 = tl.load(in_ptr1 + (448 + x0 + 512*x1), None).to(tl.float32)
    tmp42 = tl.load(in_ptr2 + (x1), None, eviction_policy='evict_last')
    tmp52 = tl.load(in_ptr3 + (x0 // 2), None, eviction_policy='evict_last').to(tl.float32)
    tmp0 = (x4 % 2)
    tmp1 = tl.full([1], 0, tl.int64)
    tmp2 = tmp0 >= tmp1
    tmp3 = tl.full([1], 1, tl.int64)
    tmp4 = tmp0 < tmp3
    tmp5 = tl.load(in_ptr0 + (449 + 2*(x0 // 2)), tmp4, eviction_policy='evict_last', other=0.0).to(tl.float32)
    tmp6 = tl.load(in_ptr1 + (449 + 2*(x0 // 2) + 512*x1), tmp4, eviction_policy='evict_last', other=0.0).to(tl.float32)
    tmp7 = tmp6.to(tl.float32)
    tmp8 = tl.load(in_ptr2 + (x1), tmp4, eviction_policy='evict_last', other=0.0)
    tmp9 = tl.full([1], 512.0, tl.float32)
    tmp10 = (tmp8 / tmp9)
    tmp11 = tl.full([1], 1e-06, tl.float32)
    tmp12 = tmp10 + tmp11
    tmp13 = libdevice.rsqrt(tmp12)
    tmp14 = tmp7 * tmp13
    tmp15 = tmp14.to(tl.float32)
    tmp16 = tmp5 * tmp15
    tmp17 = -tmp16
    tmp18 = tl.full(tmp17.shape, 0.0, tmp17.dtype)
    tmp19 = tl.where(tmp4, tmp17, tmp18)
    tmp20 = tmp0 >= tmp3
    tmp21 = tl.full([1], 2, tl.int64)
    tmp22 = tmp0 < tmp21
    tmp23 = tl.load(in_ptr0 + (448 + 2*(x0 // 2)), tmp20, eviction_policy='evict_last', other=0.0).to(tl.float32)
    tmp24 = tl.load(in_ptr1 + (448 + 2*(x0 // 2) + 512*x1), tmp20, eviction_policy='evict_last', other=0.0).to(tl.float32)
    tmp25 = tmp24.to(tl.float32)
    tmp26 = tl.load(in_ptr2 + (x1), tmp20, eviction_policy='evict_last', other=0.0)
    tmp27 = tl.full([1], 512.0, tl.float32)
    tmp28 = (tmp26 / tmp27)
    tmp29 = tl.full([1], 1e-06, tl.float32)
    tmp30 = tmp28 + tmp29
    tmp31 = libdevice.rsqrt(tmp30)
    tmp32 = tmp25 * tmp31
    tmp33 = tmp32.to(tl.float32)
    tmp34 = tmp23 * tmp33
    tmp35 = tl.full(tmp34.shape, 0.0, tmp34.dtype)
    tmp36 = tl.where(tmp20, tmp34, tmp35)
    tmp37 = tl.where(tmp4, tmp19, tmp36)
    tmp38 = tmp37.to(tl.float32)
    tmp41 = tmp40.to(tl.float32)
    tmp43 = tl.full([1], 512.0, tl.float32)
    tmp44 = (tmp42 / tmp43)
    tmp45 = tl.full([1], 1e-06, tl.float32)
    tmp46 = tmp44 + tmp45
    tmp47 = libdevice.rsqrt(tmp46)
    tmp48 = tmp41 * tmp47
    tmp49 = tmp48.to(tl.float32)
    tmp50 = tmp39 * tmp49
    tmp51 = tmp50.to(tl.float32)
    tmp53 = tmp52.to(tl.float32)
    tmp54 = x2
    tmp55 = tmp54.to(tl.float32)
    tmp56 = tmp53 * tmp55
    tmp57 = tl_math.cos(tmp56)
    tmp58 = tl.full([1], 1.2772588722239782, tl.float32)
    tmp59 = tmp57 * tmp58
    tmp60 = tmp59.to(tl.float32)
    tmp61 = tmp60.to(tl.float32)
    tmp62 = tmp51 * tmp61
    tmp63 = tl_math.sin(tmp56)
    tmp64 = tmp63 * tmp58
    tmp65 = tmp64.to(tl.float32)
    tmp66 = tmp65.to(tl.float32)
    tmp67 = tmp38 * tmp66
    tmp68 = tmp62 + tmp67
    tl.store(in_out_ptr0 + (x4), tmp68, None)
''', device_str='cuda')


# kernel path: /tmp/torchinductor_dev/nm/cnmu2kqanaxb2bgbucrit7qnhmns6xgn3qrnhiow7loevbxrphnw.py
# Topologically Sorted Source Nodes: [reshape_default_6, convert_element_type_default_9, pow_tensor_scalar_1, mean_dim_1, add_tensor_3, rsqrt_default_1, mul_tensor_6, convert_element_type_default_10, mul_tensor_7, reshape_default_7, permute_default_2, slice_tensor_4, convert_element_type_default_13, cat_default_3, unsqueeze_default_16, expand_default_8, reshape_default_11, permute_default_3, clone_default_4], Original ATen: [aten.view, prims.convert_element_type, aten.pow, aten.mean, aten.add, aten.rsqrt, aten.mul, aten.permute, aten.slice, aten.cat, aten.unsqueeze, aten.expand, aten.clone]
# Source node to ATen node mapping:
#   add_tensor_3 => add_3
#   cat_default_3 => cat_3
#   clone_default_4 => clone_4
#   convert_element_type_default_10 => convert_element_type_10
#   convert_element_type_default_13 => convert_element_type_13
#   convert_element_type_default_9 => convert_element_type_9
#   expand_default_8 => expand_8
#   mean_dim_1 => mean_1
#   mul_tensor_6 => mul_6
#   mul_tensor_7 => mul_7
#   permute_default_2 => permute_2
#   permute_default_3 => permute_3
#   pow_tensor_scalar_1 => pow_2
#   reshape_default_11 => view_11
#   reshape_default_6 => view_6
#   reshape_default_7 => view_7
#   rsqrt_default_1 => rsqrt_1
#   slice_tensor_4 => slice_5
#   unsqueeze_default_16 => unsqueeze_16
# Graph fragment:
#   %arg3_1 : Tensor "bf16[512][1]cuda:0" = PlaceHolder[target=arg3_1]
#   %arg2_1 : Tensor "bf16[2048, 512][512, 1]cuda:0" = PlaceHolder[target=arg2_1]
#   %buf3 : Tensor "f32[4, 512, 1][512, 1, 2048]cuda:0" = PlaceHolder[target=buf3]
#   %add_4 : Tensor "f32[4, 1, 512, 64][32768, 131072, 64, 1]cuda:0" = PlaceHolder[target=add_4]
#   %view_6 : Tensor "bf16[4, 512, 512][262144, 512, 1]cuda:0"[num_users=1] = call_function[target=torch.ops.aten.reshape.default](args = (%arg2_1, [4, 512, 512]), kwargs = {})
#   %convert_element_type_9 : Tensor "f32[4, 512, 512][262144, 512, 1]cuda:0"[num_users=2] = call_function[target=torch.ops.prims.convert_element_type.default](args = (%view_6, torch.float32), kwargs = {})
#   %pow_2 : Tensor "f32[4, 512, 512][262144, 512, 1]cuda:0"[num_users=1] = call_function[target=torch.ops.aten.pow.Tensor_Scalar](args = (%convert_element_type_9, 2), kwargs = {})
#   %mean_1 : Tensor "f32[4, 512, 1][512, 1, 1]cuda:0"[num_users=1] = call_function[target=torch.ops.aten.mean.dim](args = (%pow_2, [-1], True), kwargs = {})
#   %add_3 : Tensor "f32[4, 512, 1][512, 1, 1]cuda:0"[num_users=1] = call_function[target=torch.ops.aten.add.Tensor](args = (%mean_1, 1e-06), kwargs = {})
#   %rsqrt_1 : Tensor "f32[4, 512, 1][512, 1, 1]cuda:0"[num_users=1] = call_function[target=torch.ops.aten.rsqrt.default](args = (%add_3,), kwargs = {})
#   %mul_6 : Tensor "f32[4, 512, 512][262144, 512, 1]cuda:0"[num_users=1] = call_function[target=torch.ops.aten.mul.Tensor](args = (%convert_element_type_9, %rsqrt_1), kwargs = {})
#   %convert_element_type_10 : Tensor "bf16[4, 512, 512][262144, 512, 1]cuda:0"[num_users=1] = call_function[target=torch.ops.prims.convert_element_type.default](args = (%mul_6, torch.bfloat16), kwargs = {})
#   %mul_7 : Tensor "bf16[4, 512, 512][262144, 512, 1]cuda:0"[num_users=1] = call_function[target=torch.ops.aten.mul.Tensor](args = (%arg3_1, %convert_element_type_10), kwargs = {})
#   %view_7 : Tensor "bf16[4, 512, 1, 512][262144, 512, 512, 1]cuda:0"[num_users=1] = call_function[target=torch.ops.aten.reshape.default](args = (%mul_7, [4, 512, -1, 512]), kwargs = {})
#   %permute_2 : Tensor "bf16[4, 1, 512, 512][262144, 512, 512, 1]cuda:0"[num_users=2] = call_function[target=torch.ops.aten.permute.default](args = (%view_7, [0, 2, 1, 3]), kwargs = {})
#   %slice_5 : Tensor "bf16[4, 1, 512, 448][262144, 512, 512, 1]cuda:0"[num_users=1] = call_function[target=torch.ops.aten.slice.Tensor](args = (%permute_2, 3, 0, -64), kwargs = {})
#   %convert_element_type_13 : Tensor "bf16[4, 1, 512, 64][32768, 64, 64, 1]cuda:0"[num_users=1] = call_function[target=torch.ops.prims.convert_element_type.default](args = (%add_4, torch.bfloat16), kwargs = {})
#   %cat_3 : Tensor "bf16[4, 1, 512, 512][262144, 262144, 512, 1]cuda:0"[num_users=1] = call_function[target=torch.ops.aten.cat.default](args = ([%slice_5, %convert_element_type_13], -1), kwargs = {})
#   %unsqueeze_16 : Tensor "bf16[4, 1, 1, 512, 512][262144, 262144, 262144, 512, 1]cuda:0"[num_users=1] = call_function[target=torch.ops.aten.unsqueeze.default](args = (%cat_3, 2), kwargs = {})
#   %expand_8 : Tensor "bf16[4, 1, 64, 512, 512][262144, 262144, 0, 512, 1]cuda:0"[num_users=1] = call_function[target=torch.ops.aten.expand.default](args = (%unsqueeze_16, [4, 1, 64, 512, 512]), kwargs = {})
#   %view_11 : Tensor "bf16[4, 64, 512, 512][262144, 0, 512, 1]cuda:0"[num_users=1] = call_function[target=torch.ops.aten.reshape.default](args = (%expand_8, [4, 64, 512, 512]), kwargs = {})
#   %permute_3 : Tensor "bf16[4, 64, 512, 512][262144, 0, 1, 512]cuda:0"[num_users=1] = call_function[target=torch.ops.aten.permute.default](args = (%view_11, [0, 1, 3, 2]), kwargs = {})
#   %clone_4 : Tensor "bf16[4, 64, 512, 512][16777216, 262144, 512, 1]cuda:0"[num_users=1] = call_function[target=torch.ops.aten.clone.default](args = (%expand_9,), kwargs = {memory_format: torch.contiguous_format})
#   return %clone_4
triton_poi_fused_add_cat_clone_convert_element_type_expand_mean_mul_permute_pow_rsqrt_slice_unsqueeze_view_5 = async_compile.triton('triton_poi_fused_add_cat_clone_convert_element_type_expand_mean_mul_permute_pow_rsqrt_slice_unsqueeze_view_5', '''
import triton
import triton.language as tl

from torch._inductor.runtime import triton_helpers, triton_heuristics
from torch._inductor.runtime.triton_helpers import libdevice, math as tl_math
from torch._inductor.runtime.hints import AutotuneHint, ReductionHint, TileHint, DeviceProperties
triton_helpers.set_driver_to_gpu()

@triton_heuristics.pointwise(
    size_hints={'y': 131072, 'x': 512}, tile_hint=TileHint.DEFAULT,
    filename=__file__,
    triton_meta={'signature': {'in_ptr0': '*bf16', 'in_ptr1': '*bf16', 'in_ptr2': '*fp32', 'in_ptr3': '*fp32', 'out_ptr0': '*bf16', 'ynumel': 'i32', 'xnumel': 'i32', 'YBLOCK': 'constexpr', 'XBLOCK': 'constexpr'}, 'device': DeviceProperties(type='cuda', index=0, multi_processor_count=148, cc=100, major=10, regs_per_multiprocessor=65536, max_threads_per_multi_processor=2048, max_threads_per_block=1024, warp_size=32), 'constants': {}, 'native_matmul': False, 'enable_fp_fusion': True, 'launch_pdl': False, 'disable_ftz': False, 'configs': [{(0,): [['tt.divisibility', 16]], (1,): [['tt.divisibility', 16]], (2,): [['tt.divisibility', 16]], (3,): [['tt.divisibility', 16]], (4,): [['tt.divisibility', 16]], (5,): [['tt.divisibility', 16]], (6,): [['tt.divisibility', 16]]}]},
    inductor_meta={'grid_type': 'Grid2DWithYZOverflow', 'autotune_hints': set(), 'kernel_name': 'triton_poi_fused_add_cat_clone_convert_element_type_expand_mean_mul_permute_pow_rsqrt_slice_unsqueeze_view_5', 'mutated_arg_names': [], 'optimize_mem': True, 'no_x_dim': False, 'atomic_add_found': False, 'num_load': 4, 'num_store': 1, 'num_reduction': 0, 'backend_hash': '24DD4EB3E46C537527C82D44AE961C79D45917162D3A4C30BD79DDC26D6A401F', 'assert_indirect_indexing': True, 'autotune_local_cache': True, 'autotune_pointwise': True, 'autotune_remote_cache': None, 'force_disable_caches': False, 'dynamic_scale_rblock': True, 'max_autotune': False, 'max_autotune_pointwise': False, 'min_split_scan_rblock': 256, 'spill_threshold': 16, 'store_cubin': False, 'deterministic': False, 'force_filter_reduction_configs': False, 'mix_order_reduction_allow_multi_stages': True, 'are_deterministic_algorithms_enabled': False, 'tiling_scores': {'y': 268443648, 'x': 2622464}},
    min_elem_per_thread=0
)
@triton.jit
def triton_poi_fused_add_cat_clone_convert_element_type_expand_mean_mul_permute_pow_rsqrt_slice_unsqueeze_view_5(in_ptr0, in_ptr1, in_ptr2, in_ptr3, out_ptr0, ynumel, xnumel, YBLOCK : tl.constexpr, XBLOCK : tl.constexpr):
    ynumel = 131072
    xnumel = 512
    yoffset = (tl.program_id(1) + tl.program_id(2) * tl.num_programs(1)) * YBLOCK
    yindex = yoffset + tl.arange(0, YBLOCK)[:, None]
    ymask = yindex < ynumel
    xoffset = tl.program_id(0) * XBLOCK
    xindex = xoffset + tl.arange(0, XBLOCK)[None, :]
    xmask = xindex < xnumel
    x3 = xindex
    y0 = (yindex % 512)
    y2 = yindex // 32768
    y5 = yindex // 512
    tmp0 = x3
    tmp1 = tl.full([1, 1], 0, tl.int64)
    tmp2 = tmp0 >= tmp1
    tmp3 = tl.full([1, 1], 448, tl.int64)
    tmp4 = tmp0 < tmp3
    tmp5 = tl.load(in_ptr0 + (tl.broadcast_to(x3, [YBLOCK, XBLOCK])), tmp4 & xmask & ymask, eviction_policy='evict_last', other=0.0).to(tl.float32)
    tmp6 = tl.load(in_ptr1 + (512*y0 + 262144*y2 + (x3)), tmp4 & xmask & ymask, eviction_policy='evict_last', other=0.0).to(tl.float32)
    tmp7 = tmp6.to(tl.float32)
    tmp8 = tl.load(in_ptr2 + (tl.broadcast_to(y0 + 512*y2, [YBLOCK, XBLOCK])), tmp4 & xmask & ymask, eviction_policy='evict_last', other=0.0)
    tmp9 = tl.full([1, 1], 512.0, tl.float32)
    tmp10 = (tmp8 / tmp9)
    tmp11 = tl.full([1, 1], 1e-06, tl.float32)
    tmp12 = tmp10 + tmp11
    tmp13 = libdevice.rsqrt(tmp12)
    tmp14 = tmp7 * tmp13
    tmp15 = tmp14.to(tl.float32)
    tmp16 = tmp5 * tmp15
    tmp17 = tl.full(tmp16.shape, 0.0, tmp16.dtype)
    tmp18 = tl.where(tmp4, tmp16, tmp17)
    tmp19 = tmp0 >= tmp3
    tmp20 = tl.full([1, 1], 512, tl.int64)
    tmp21 = tmp0 < tmp20
    tmp22 = tl.load(in_ptr3 + (64*y0 + 32768*y2 + ((-448) + x3)), tmp19 & xmask & ymask, eviction_policy='evict_last', other=0.0)
    tmp23 = tmp22.to(tl.float32)
    tmp24 = tl.full(tmp23.shape, 0.0, tmp23.dtype)
    tmp25 = tl.where(tmp19, tmp23, tmp24)
    tmp26 = tl.where(tmp4, tmp18, tmp25)
    tl.store(out_ptr0 + (y0 + 512*x3 + 262144*y5), tmp26, xmask & ymask)
''', device_str='cuda')


async_compile.wait(globals())
del async_compile

class Runner:
    def __init__(self, partitions):
        self.partitions = partitions

    def recursively_apply_fns(self, fns):
        new_callables = []
        for fn, c in zip(fns, self.partitions):
            new_callables.append(fn(c))
        self.partitions = new_callables

    def call(self, args):
        arg0_1, arg1_1, arg2_1, arg3_1 = args
        args.clear()
        assert_size_stride(arg0_1, (2048, 32768), (32768, 1))
        with torch.cuda._DeviceGuard(0):
            torch.cuda.set_device(0)
            arg0_1 = copy_if_misaligned(arg0_1)
            buf0 = empty_strided_cuda((4, 64, 512, 1), (32768, 1, 64, 131072), torch.float32)
            # Topologically Sorted Source Nodes: [reshape_default, reshape_default_1, permute_default, convert_element_type_default, pow_tensor_scalar, mean_dim], Original ATen: [aten.view, aten.permute, prims.convert_element_type, aten.pow, aten.mean]
            stream0 = get_raw_stream(0)
            triton_per_fused_convert_element_type_mean_permute_pow_view_0.run(arg0_1, buf0, 131072, 512, stream=stream0)
            assert_size_stride(arg1_1, (32, ), (1, ))
            arg1_1 = copy_if_misaligned(arg1_1)
            buf1 = empty_strided_cuda((4, 64, 512, 64), (2097152, 64, 4096, 1), torch.float32)
            # Topologically Sorted Source Nodes: [reshape_default, reshape_default_1, permute_default, convert_element_type_default, pow_tensor_scalar, mean_dim, add_tensor, rsqrt_default, convert_element_type_default_1, mul_tensor, slice_tensor_1, unsqueeze_default, unsqueeze_default_1, convert_element_type_default_3, expand_default, iota_default, add_tensor_1, unsqueeze_default_2, unsqueeze_default_3, convert_element_type_default_4, mul_tensor_1, permute_default_1, slice_tensor_2, neg_default, unsqueeze_default_6, slice_tensor_3, unsqueeze_default_7, cat_default, reshape_default_3, convert_element_type_default_6, sin_default, mul_tensor_4, convert_element_type_default_7, unsqueeze_default_8, expand_default_4, clone_default_1, reshape_default_4, unsqueeze_default_9, mul_tensor_5], Original ATen: [aten.view, aten.permute, prims.convert_element_type, aten.pow, aten.mean, aten.add, aten.rsqrt, aten.mul, aten.slice, aten.unsqueeze, aten.expand, prims.iota, aten.neg, aten.cat, aten.sin, aten.clone]
            stream0 = get_raw_stream(0)
            triton_poi_fused_add_cat_clone_convert_element_type_expand_iota_mean_mul_neg_permute_pow_rsqrt_sin_slice_unsqueeze_view_1.run(arg0_1, buf0, arg1_1, buf1, 131072, 64, stream=stream0)
            buf2 = empty_strided_cuda((4, 64, 512, 512), (16777216, 262144, 512, 1), torch.bfloat16)
            # Topologically Sorted Source Nodes: [reshape_default, reshape_default_1, permute_default, convert_element_type_default, pow_tensor_scalar, mean_dim, add_tensor, rsqrt_default, convert_element_type_default_1, mul_tensor, slice_tensor, slice_tensor_1, convert_element_type_default_2, unsqueeze_default, unsqueeze_default_1, convert_element_type_default_3, expand_default, iota_default, add_tensor_1, unsqueeze_default_2, unsqueeze_default_3, convert_element_type_default_4, mul_tensor_1, permute_default_1, cos_default, mul_tensor_2, convert_element_type_default_5, unsqueeze_default_4, expand_default_3, clone_default, reshape_default_2, unsqueeze_default_5, mul_tensor_3, add_tensor_2, convert_element_type_default_8, cat_default_1], Original ATen: [aten.view, aten.permute, prims.convert_element_type, aten.pow, aten.mean, aten.add, aten.rsqrt, aten.mul, aten.slice, aten.unsqueeze, …
#   %unsqueeze_3 : Tensor "i64[1, 1, 512][512, 512, 1]cuda:0"[num_users=1] = call_function[target=torch.ops.aten.unsqueeze.default](args = (%unsqueeze_2, 1), kwargs = {})
#   %convert_element_type_4 : Tensor "f32[1, 1, 512][512, 512, 1]cuda:0"[num_users=1] = call_function[target=torch.ops.prims.convert_element_type.default](args = (%unsqueeze_3, torch.float32), kwargs = {})
#   %mul_1 : Tensor "f32[1, 32, 512][16384, 512, 1]cuda:0"[num_users=1] = call_function[target=torch.ops.aten.mul.Tensor](args = (%expand_1, %expand_2), kwargs = {})
#   %permute_1 : Tensor "f32[1, 512, 32][16384, 1, 512]cuda:0"[num_users=2] = call_function[target=torch.ops.aten.permute.default](args = (%mul_1, [0, 2, 1]), kwargs = {})
#   %cos : Tensor "f32[1, 512, 32][16384, 1, 512]cuda:0"[num_users=1] = call_function[target=torch.ops.aten.cos.default](args = (%permute_1,), kwargs = {})
#   %mul_2 : Tensor "f32[1, 512, 32][16384, 1, 512]cuda:0"[num_users=1] = call_function[target=torch.ops.aten.mul.Tensor](args = (%cos, 1.2772588722239782), kwargs = {})
#   %convert_element_type_5 : Tensor "bf16[1, 512, 32][16384, 1, 512]cuda:0"[num_users=2] = call_function[target=torch.ops.prims.convert_element_type.default](args = (%mul_2, torch.bfloat16), kwargs = {})
#   %unsqueeze_4 : Tensor "bf16[1, 512, 32, 1][16384, 1, 512, 1]cuda:0"[num_users=1] = call_function[target=torch.ops.aten.unsqueeze.default](args = (%convert_element_type_5, 3), kwargs = {})
#   %expand_3 : Tensor "bf16[1, 512, 32, 2][16384, 1, 512, 0]cuda:0"[num_users=1] = call_function[target=torch.ops.aten.expand.default](args = (%unsqueeze_4, [1, 512, 32, 2]), kwargs = {})
#   %clone : Tensor "bf16[1, 512, 32, 2][32768, 64, 2, 1]cuda:0"[num_users=1] = call_function[target=torch.ops.aten.clone.default](args = (%expand_3,), kwargs = {memory_format: torch.contiguous_format})
#   %view_2 : Tensor "bf16[1, 512, 64][32768, 64, 1]cuda:0"[num_users=1] = call_function[target=torch.ops.aten.reshape.default](args = (%clone, [1, 512, 64]), kwargs = {})
#   %unsqueeze_5 : Tensor "bf16[1, 1, 512, 64][32768, 32768, 64, 1]cuda:0"[num_users=1] = call_function[target=torch.ops.aten.unsqueeze.default](args = (%view_2, 1), kwargs = {})
#   %mul_3 : Tensor "f32[4, 64, 512, 64][2097152, 64, 4096, 1]cuda:0"[num_users=1] = call_function[target=torch.ops.aten.mul.Tensor](args = (%convert_element_type_2, %unsqueeze_5), kwargs = {})
#   %add_2 : Tensor "f32[4, 64, 512, 64][2097152, 64, 4096, 1]cuda:0"[num_users=1] = call_function[target=torch.ops.aten.add.Tensor](args = (%mul_3, %mul_5), kwargs = {})
#   %convert_element_type_8 : Tensor "bf16[4, 64, 512, 64][2097152, 64, 4096, 1]cuda:0"[num_users=1] = call_function[target=torch.ops.prims.convert_element_type.default](args = (%add_2, torch.bfloat16), kwargs = {})
#   %cat_1 : Tensor "bf16[4, 64, 512, 512][16777216, 262144, 512, 1]cuda:0"[num_users=1] = call_function[target=torch.ops.aten.cat.default](args = ([%slice_1, %convert_element_type_8], -1), kwargs = {})
#   return %expand_5
triton_poi_fused_add_cat_clone_convert_element_type_cos_expand_iota_mean_mul_permute_pow_rsqrt_slice_unsqueeze_view_2 = async_compile.triton('triton_poi_fused_add_cat_clone_convert_element_type_cos_expand_iota_mean_mul_permute_pow_rsqrt_slice_unsqueeze_view_2', '''
import triton
import triton.language as tl

from torch._inductor.runtime import triton_helpers, triton_heuristics
from torch._inductor.runtime.triton_helpers import libdevice, math as tl_math
from torch._inductor.runtime.hints import AutotuneHint, ReductionHint, TileHint, DeviceProperties
triton_helpers.set_driver_to_gpu()

@triton_heuristics.pointwise(
    size_hints={'x': 67108864}, 
    filename=__file__,
    triton_meta={'signature': {'in_ptr0': '*bf16', 'in_ptr1': '*fp32', 'in_ptr2': '*bf16', 'in_ptr3': '*fp32', 'out_ptr0': '*bf16', 'xnumel': 'i32', 'XBLOCK': 'constexpr'}, 'device': DeviceProperties(type='cuda', index=0, multi_processor_count=148, cc=100, major=10, regs_per_multiprocessor=65536, max_threads_per_multi_processor=2048, max_threads_per_block=1024, warp_size=32), 'constants': {}, 'native_matmul': False, 'enable_fp_fusion': True, 'launch_pdl': False, 'disable_ftz': False, 'configs': [{(0,): [['tt.divisibility', 16]], (1,): [['tt.divisibility', 16]], (2,): [['tt.divisibility', 16]], (3,): [['tt.divisibility', 16]], (4,): [['tt.divisibility', 16]], (5,): [['tt.divisibility', 16]]}]},
    inductor_meta={'grid_type': 'Grid1D', 'autotune_hints': set(), 'kernel_name': 'triton_poi_fused_add_cat_clone_convert_element_type_cos_expand_iota_mean_mul_permute_pow_rsqrt_slice_unsqueeze_view_2', 'mutated_arg_names': [], 'optimize_mem': True, 'no_x_dim': False, 'atomic_add_found': False, 'num_load': 6, 'num_store': 1, 'num_reduction': 0, 'backend_hash': '24DD4EB3E46C537527C82D44AE961C79D45917162D3A4C30BD79DDC26D6A401F', 'assert_indirect_indexing': True, 'autotune_local_cache': True, 'autotune_pointwise': True, 'autotune_remote_cache': None, 'force_disable_caches': False, 'dynamic_scale_rblock': True, 'max_autotune': False, 'max_autotune_pointwise': False, 'min_split_scan_rblock': 256, 'spill_threshold': 16, 'store_cubin': False, 'deterministic': False, 'force_filter_reduction_configs': False, 'mix_order_reduction_allow_multi_stages': True, 'are_deterministic_algorithms_enabled': False, 'coordinate_descent_tuning': True, 'coordinate_descent_search_radius': 1, 'coordinate_descent_check_all_directions': False, 'tiling_scores': {'x': 436207680}},
    min_elem_per_thread=0
)
@triton.jit
def triton_poi_fused_add_cat_clone_convert_element_type_cos_expand_iota_mean_mul_permute_pow_rsqrt_slice_unsqueeze_view_2(in_ptr0, in_ptr1, in_ptr2, in_ptr3, out_ptr0, xnumel, XBLOCK : tl.constexpr):
    xnumel = 67108864
    xoffset = tl.program_id(0) * XBLOCK
    xindex = xoffset + tl.arange(0, XBLOCK)[:]
    xmask = tl.full([XBLOCK], True, tl.int1)[:]
    x0 = (xindex % 512)
    x4 = xindex // 512
    x2 = ((xindex // 32768) % 512)
    x1 = ((xindex // 512) % 64)
    x3 = xindex // 16777216
    tmp0 = x0
    tmp1 = tl.full([1], 0, tl.int64)
    tmp2 = tmp0 >= tmp1
    tmp3 = tl.full([1], 448, tl.int64)
    tmp4 = tmp0 < tmp3
    tmp5 = tl.load(in_ptr0 + (512*x4 + (x0)), tmp4, eviction_policy='evict_last', other=0.0).to(tl.float32)
    tmp6 = tl.load(in_ptr1 + (x4), tmp4, eviction_policy='evict_last', other=0.0)
    tmp7 = tl.full([1], 512.0, tl.float32)
    tmp8 = (tmp6 / tmp7)
    tmp9 = tl.full([1], 1e-06, tl.float32)
    tmp10 = tmp8 + tmp9
    tmp11 = libdevice.rsqrt(tmp10)
    tmp12 = tmp11.to(tl.float32)
    tmp13 = tmp5 * tmp12
    tmp14 = tl.full(tmp13.shape, 0.0, tmp13.dtype)
    tmp15 = tl.where(tmp4, tmp13, tmp14)
    tmp16 = tmp0 >= tmp3
    tmp17 = tl.full([1], 512, tl.int64)
    tmp18 = tmp0 < tmp17
    tmp19 = tl.load(in_ptr0 + (448 + 512*x4 + ((-448) + x0)), tmp16, eviction_policy='evict_last', other=0.0).to(tl.float32)
    tmp20 = tl.load(in_ptr1 + (x4), tmp16, eviction_policy='evict_last', other=0.0)
    tmp21 = tl.full([1], 512.0, tl.float32)
    tmp22 = (tmp20 / tmp21)
    tmp23 = tl.full([1], 1e-06, tl.float32)
    tmp24 = tmp22 + tmp23
    tmp25 = libdevice.rsqrt(tmp24)
    tmp26 = tmp25.to(tl.float32)
    tmp27 = tmp19 * tmp26
    tmp28 = tmp27.to(tl.float32)
    tmp29 = tl.load(in_ptr2 + (((((-448) + x0) // 2) % 32)), tmp16, eviction_policy='evict_last', other=0.0).to(tl.float32)
    tmp30 = tmp29.to(tl.float32)
    tmp31 = x2
    tmp32 = tmp31.to(tl.float32)
    tmp33 = tmp30 * tmp32
    tmp34 = tl_math.cos(tmp33)
    tmp35 = tl.full([1], 1.2772588722239782, tl.float32)
    tmp36 = tmp34 * tmp35
    tmp37 = tmp36.to(tl.float32)
    tmp38 = tmp37.to(tl.float32)
    tmp39 = tmp28 * tmp38
    tmp40 = tl.load(in_ptr3 + (64*x4 + ((-448) + x0)), tmp16, eviction_policy='evict_last', other=0.0)
    tmp41 = tmp39 + tmp40
    tmp42 = tmp41.to(tl.float32)
    tmp43 = tl.full(tmp42.shape, 0.0, tmp42.dtype)
    tmp44 = tl.where(tmp16, tmp42, tmp43)
    tmp45 = tl.where(tmp4, tmp15, tmp44)
    tl.store(out_ptr0 + (x0 + 512*x2 + 262144*x1 + 16777216*x3), tmp45, None)
''', device_str='cuda')


# kernel path: /tmp/tmph63d0qgb/ar/car3yffrplv2hpqzakmebwjcxzjebaiiyjzd3vzxr7v7yptijkvc.py
# Topologically Sorted Source Nodes: [reshape_default_6, convert_element_type_default_9, pow_tensor_scalar_1, mean_dim_1], Original ATen: [aten.view, prims.convert_element_type, aten.pow, aten.mean]
# Source node to ATen node mapping:
#   convert_element_type_default_9 => convert_element_type_9
#   mean_dim_1 => mean_1
#   pow_tensor_scalar_1 => pow_2
#   reshape_default_6 => view_6
# Graph fragment:
#   %arg2_1 : Tensor "bf16[2048, 512][512, 1]cuda:0" = PlaceHolder[target=arg2_1]
#   %view_6 : Tensor "bf16[4, 512, 512][262144, 512, 1]cuda:0"[num_users=1] = call_function[target=torch.ops.aten.reshape.default](args = (%arg2_1, [4, 512, 512]), kwargs = {})
#   %convert_element_type_9 : Tensor "f32[4, 512, 512][262144, 512, 1]cuda:0"[num_users=2] = call_function[target=torch.ops.prims.convert_element_type.default](args = (%view_6, torch.float32), kwargs = {})
#   %pow_2 : Tensor "f32[4, 512, 512][262144, 512, 1]cuda:0"[num_users=1] = call_function[target=torch.ops.aten.pow.Tensor_Scalar](args = (%convert_element_type_9, 2), kwargs = {})
#   %mean_1 : Tensor "f32[4, 512, 1][512, 1, 1]cuda:0"[num_users=1] = call_function[target=torch.ops.aten.mean.dim](args = (%pow_2, [-1], True), kwargs = {})
#   return %buf3
triton_per_fused_convert_element_type_mean_pow_view_3 = async_compile.triton('triton_per_fused_convert_element_type_mean_pow_view_3', '''
import triton
import triton.language as tl

from torch._inductor.runtime import triton_helpers, triton_heuristics
from torch._inductor.runtime.triton_helpers import libdevice, math as tl_math
from torch._inductor.runtime.hints import AutotuneHint, ReductionHint, TileHint, DeviceProperties
triton_helpers.set_driver_to_gpu()

@triton_heuristics.persistent_reduction(
    size_hints={'x': 2048, 'r0_': 512},
    reduction_hint=ReductionHint.INNER,
    filename=__file__,
    triton_meta={'signature': {'in_ptr0': '*bf16', 'out_ptr0': '*fp32', 'xnumel': 'i32', 'r0_numel': 'i32', 'XBLOCK': 'constexpr'}, 'device': DeviceProperties(type='cuda', index=0, multi_processor_count=148, cc=100, major=10, regs_per_multiprocessor=65536, max_threads_per_multi_processor=2048, max_threads_per_block=1024, warp_size=32), 'constants': {}, 'native_matmul': False, 'enable_fp_fusion': True, 'launch_pdl': False, 'disable_ftz': False, 'configs': [{(0,): [['tt.divisibility', 16]], (1,): [['tt.divisibility', 16]], (2,): [['tt.divisibility', 16]], (3,): [['tt.divisibility', 16]]}]},
    inductor_meta={'grid_type': 'Grid1D', 'autotune_hints': set(), 'kernel_name': 'triton_per_fused_convert_element_type_mean_pow_view_3', 'mutated_arg_names': [], 'optimize_mem': True, 'no_x_dim': None, 'atomic_add_found': False, 'num_load': 1, 'num_store': 1, 'num_reduction': 1, 'backend_hash': '24DD4EB3E46C537527C82D44AE961C79D45917162D3A4C30BD79DDC26D6A401F', 'assert_indirect_indexing': True, 'autotune_local_cache': True, 'autotune_pointwise': True, 'autotune_remote_cache': None, 'force_disable_caches': False, 'dynamic_scale_rblock': True, 'max_autotune': False, 'max_autotune_pointwise': False, 'min_split_scan_rblock': 256, 'spill_threshold': 16, 'store_cubin': False, 'deterministic': False, 'force_filter_reduction_configs': False, 'mix_order_reduction_allow_multi_stages': True, 'are_deterministic_algorithms_enabled': False, 'coordinate_descent_tuning': True, 'coordinate_descent_search_radius': 1, 'coordinate_descent_check_all_directions': False, 'tiling_scores': {'x': 16384, 'r0_': 2097152}}
)
@triton.jit
def triton_per_fused_convert_element_type_mean_pow_view_3(in_ptr0, out_ptr0, xnumel, r0_numel, XBLOCK : tl.constexpr):
    xnumel = 2048
    r0_numel = 512
    R0_BLOCK: tl.constexpr = 512
    rnumel = r0_numel
    RBLOCK: tl.constexpr = R0_BLOCK
    xoffset = tl.program_id(0) * XBLOCK
    xindex = xoffset + tl.arange(0, XBLOCK)[:, None]
    xmask = xindex < xnumel
    r0_index = tl.arange(0, R0_BLOCK)[None, :]
    r0_offset = 0
    r0_mask = tl.full([R0_BLOCK], True, tl.int1)[None, :]
    roffset = r0_offset
    rindex = r0_index
    r0_1 = r0_index
    x0 = xindex
    tmp0 = tl.load(in_ptr0 + (r0_1 + 512*x0), xmask, other=0.0).to(tl.float32)
    tmp1 = tmp0.to(tl.float32)
    tmp2 = tmp1 * tmp1
    tmp3 = tl.broadcast_to(tmp2, [XBLOCK, R0_BLOCK])
    tmp5 = tl.where(xmask, tmp3, 0)
    tmp6 = tl.sum(tmp5, 1)[:, None].to(tl.float32)
    tl.store(out_ptr0 + (x0), tmp6, xmask)
''', device_str='cuda')


# kernel path: /tmp/tmph63d0qgb/p7/cp7f3krdqqgs36mivepbs5s234rbxpjwdsff7o6sl2xdwtxeijmq.py
# Topologically Sorted Source Nodes: [unsqueeze_default, unsqueeze_default_1, convert_element_type_default_3, expand_default, iota_default, add_tensor_1, unsqueeze_default_2, unsqueeze_default_3, convert_element_type_default_4, mul_tensor_1, permute_default_1, cos_default, mul_tensor_2, convert_element_type_default_5, sin_default, mul_tensor_4, convert_element_type_default_7, reshape_default_6, convert_element_type_default_9, pow_tensor_scalar_1, mean_dim_1, add_tensor_3, rsqrt_default_1, mul_tensor_6, convert_element_type_default_10, mul_tensor_7, reshape_default_7, permute_default_2, slice_tensor_5, convert_element_type_default_11, unsqueeze_default_10, expand_default_6, clone_default_2, reshape_default_8, unsqueeze_default_11, mul_tensor_8, slice_tensor_6, neg_default_1, unsqueeze_default_12, slice_tensor_7, unsqueeze_default_13, cat_default_2, reshape_default_9, convert_element_type_default_12, unsqueeze_default_14, expand_default_7, clone_default_3, reshape_default_10, unsqueeze_default_15, mul_tensor_9, add_tensor_4], Original ATen: [aten.unsqueeze, prims.convert_element_type, aten.expand, prims.iota, aten.add, aten.mul, aten.permute, aten.cos, aten.sin, aten.view, aten.pow, aten.mean, aten.rsqrt, aten.slice, aten.clone, aten.neg, aten.cat]
# Source node to ATen node mapping:
#   add_tensor_1 => add_1
#   add_tensor_3 => add_3
#   add_tensor_4 => add_4
#   cat_default_2 => cat_2
#   clone_default_2 => clone_2
#   clone_default_3 => clone_3
#   convert_element_type_default_10 => convert_element_type_10
#   convert_element_type_default_11 => convert_element_type_11
#   convert_element_type_default_12 => convert_element_type_12
#   convert_element_type_default_3 => convert_element_type_3
#   convert_element_type_default_4 => convert_element_type_4
#   convert_element_type_default_5 => convert_element_type_5
#   convert_element_type_default_7 => convert_element_type_7
#   convert_element_type_default_9 => convert_element_type_9
#   cos_default => cos
#   expand_default => expand
#   expand_default_6 => expand_6
#   expand_default_7 => expand_7
#   iota_default => iota
#   mean_dim_1 => mean_1
#   mul_tensor_1 => mul_1
#   mul_tensor_2 => mul_2
#   mul_tensor_4 => mul_4
#   mul_tensor_6 => mul_6
#   mul_tensor_7 => mul_7
#   mul_tensor_8 => mul_8
#   mul_tensor_9 => mul_9
#   neg_default_1 => neg_1
#   permute_default_1 => permute_1
#   permute_default_2 => permute_2
#   pow_tensor_scalar_1 => pow_2
#   reshape_default_10 => view_10
#   reshape_default_6 => view_6
#   reshape_default_7 => view_7
#   reshape_default_8 => view_8
#   reshape_default_9 => view_9
#   rsqrt_default_1 => rsqrt_1
#   sin_default => sin
#   slice_tensor_5 => slice_6
#   slice_tensor_6 => slice_7
#   slice_tensor_7 => slice_8
#   unsqueeze_default => unsqueeze
#   unsqueeze_default_1 => unsqueeze_1
#   unsqueeze_default_10 => unsqueeze_10
#   unsqueeze_default_11 => unsqueeze_11
#   unsqueeze_default_12 => unsqueeze_12
#   unsqueeze_default_13 => unsqueeze_13
#   unsqueeze_default_14 => unsqueeze_14
#   unsqueeze_default_15 => unsqueeze_15
#   unsqueeze_default_2 => unsqueeze_2
#   unsqueeze_default_3 => unsqueeze_3
# Graph fragment:
#   %arg3_1 : Tensor "bf16[512][1]cuda:0" = PlaceHolder[target=arg3_1]
#   %arg2_1 : Tensor "bf16[2048, 512][512, 1]cuda:0" = PlaceHolder[target=arg2_1]
#   %buf3 : Tensor "f32[4, 512, 1][512, 1, 2048]cuda:0" = PlaceHolder[target=buf3]
#   %arg1_1 : Tensor "bf16[32][1]cuda:0" = PlaceHolder[target=arg1_1]
#   %convert_element_type_12 : Tensor "f32[4, 1, 512, 64][32768, 131072, 64, 1]cuda:0" = PlaceHolder[target=convert_element_type_12]
#   %unsqueeze : Tensor "bf16[1, 32][32, 1]cuda:0"[num_users=1] = call_function[target=torch.ops.aten.unsqueeze.default](args = (%arg1_1, 0), kwargs = {})
#   %unsqueeze_1 : Tensor "bf16[1, 32, 1][32, 1, 1]cuda:0"[num_users=1] = call_function[target=torch.ops.aten.unsqueeze.default](args = (%unsqueeze, 2), kwargs = {})
#   %convert_element_type_3 : Tensor "f32[1, 32, 1][32, 1, 1]cuda:0"[num_users=1] = call_function[target=torch.ops.prims.convert_element_type.default](args = (%unsqueeze_1, torch.float32), kwargs = {})
#   %expand : Tensor "f32[1, 32, 1][32, 1, 1]cuda:0"[num_users=1] = call_function[target=torch.ops.aten.expand.default](args = (%convert_element_type_3, [1, -1, 1]), kwargs = {})
#   %iota : Tensor "i64[512][1]cuda:0"[num_users=1] = call_function[target=torch.ops.prims.iota.default](args = (512,), kwargs = {start: 0, step: 1, dtype: torch.int64, device: cuda:0, requires_grad: False})
#   %add_1 : Tensor "i64[512][1]cuda:0"[num_users=1] = call_function[target=torch.ops.aten.add.Tensor](args = (%iota, 0), kwargs = {})
#   %unsqueeze_2 : Tensor "i64[1, 512][512, 1]cuda:0"[num_users=1] = call_function[target=torch.ops.aten.unsqueeze.default](args = (%add_1, 0), kwargs = {})
#   %unsqueeze_3 : Tensor "i64[1, 1, 512][512, 512, 1]cuda:0"[num_users=1] = call_function[target=torch.ops.aten.unsqueeze.default](args = (%unsqueeze_2, 1), kwargs = {})
#   %convert_element_type_4 : Tensor "f32[1, 1, 512][512, 512, 1]cuda:0"[num_users=1] = call_function[target=torch.ops.prims.convert_element_type.default](args = (%unsqueeze_3, torch.float32), kwargs = {})
#   %mul_1 : Tensor "f32[1, 32, 512][16384, 512, 1]cuda:0"[num_users=1] = call_function[target=torch.ops.aten.mul.Tensor](args = (%expand_1, %expand_2), kwargs = {})
#   %permute_1 : Tensor "f32[1, 512, 32][16384, 1, 512]cuda:0"[num_users=2] = call_function[target=torch.ops.aten.permute.default](args = (%mul_1, [0, 2, 1]), kwargs = {})
#   %cos : Tensor "f32[1, 512, 32][16384, 1, 512]cuda:0"[num_users=1] = call_function[target=torch.ops.aten.cos.default](args = (%permute_1,), kwargs = {})
#   %mul_2 : Tensor "f32[1, 512, 32][16384, 1, 512]cuda:0"[num_users=1] = call_function[target=torch.ops.aten.mul.Tensor](args = (%cos, 1.2772588722239782), kwargs = {})
#   %convert_element_type_5 : Tensor "bf16[1, 512, 32][16384, 1, 512]cuda:0"[num_users=2] = call_function[target=torch.ops.prims.convert_element_type.default](args = (%mul_2, torch.bfloat16), kwargs = {})
#   %sin : Tensor "f32[1, 512, 32][16384, 1, 512]cuda:0"[num_users=1] = call_function[target=torch.ops.aten.sin.default](args = (%permute_1,), kwargs = {})
#   %mul_4 : Tensor "f32[1, 512, 32][16384, 1, 512]cuda:0"[num_users=1] = call_function[target=torch.ops.aten.mul.Tensor](args = (%sin, 1.2772588722239782), kwargs = {})
#   %convert_element_type_7 : Tensor "bf16[1, 512, 32][16384, 1, 512]cuda:0"[num_users=2] = call_function[target=torch.ops.prims.convert_element_type.default](args = (%mul_4, torch.bfloat16), kwargs = {})
#   %view_6 : Tensor "bf16[4, 512, 512][262144, 512, 1]cuda:0"[num_users=1] = call_function[target=torch.ops.aten.reshape.default](args = (%arg2_1, [4, 512, 512]), kwargs = {})
#   %convert_element_type_9 : Tensor "f32[4, 512, 512][262144, 512, 1]cuda:0"[num_users=2] = call_function[target=torch.ops.prims.convert_element_type.default](args = (%view_6, torch.float32), kwargs = {})
#   %pow_2 : Tensor "f32[4, 512, 512][262144, 512, 1]cuda:0"[num_users=1] = call_function[target=torch.ops.aten.pow.Tensor_Scalar](args = (%convert_element_type_9, 2), kwargs = {})
#   %mean_1 : Tensor "f32[4, 512, 1][512, 1, 1]cuda:0"[num_users=1] = call_function[target=torch.ops.aten.mean.dim](args = (%pow_2, [-1], True), kwargs = {})
#   %add_3 : Tensor "f32[4, 512, 1][512, 1, 1]cuda:0"[num_users=1] = call_function[target=torch.ops.aten.add.Tensor](args = (%mean_1, 1e-06), kwargs = {})
#   %rsqrt_1 : Tensor "f32[4, 512, 1][512, 1, 1]cuda:0"[num_users=1] = call_function[target=torch.ops.aten.rsqrt.default](args = (%add_3,), kwargs = {})
#   %mul_6 : Tensor "f32[4, 512, 512][262144, 512, 1]cuda:0"[num_users=1] = call_function[target=torch.ops.aten.mul.Tensor](args = (%convert_element_type_9, %rsqrt_1), kwargs = {})
#   %convert_element_type_10 : Tensor "bf16[4, 512, 512][262144, 512, 1]cuda:0"[num_users=1] = call_function[target=torch.ops.prims.convert_element_type.default](args = (%mul_6, torch.bfloat16), kwargs = {})
#   %mul_7 : Tensor "bf16[4, 512, 512][262144, 512, 1]cuda:0"[num_users=1] = call_function[target=torch.ops.aten.mul.Tensor](args = (%arg3_1, %convert_element_type_10), kwargs = {})
#   %view_7 : Tensor "bf16[4, 512, 1, 512][262144, 512, 512, 1]cuda:0"[num_users=1] = call_function[target=torch.ops.aten.reshape.default](args = (%mul_7, [4, 512, -1, 512]), kwargs = {})
#   %permute_2 : Tensor "bf16[4, 1, 512, 512][262144, 512, 512, 1]cuda:0"[num_users=2] = call_function[target=torch.ops.aten.permute.default](args = (%view_7, [0, 2, 1, 3]), kwargs = {})
#   %slice_6 : Tensor "bf16[4, 1, 512, 64][262144, 512, 512, 1]cuda:0"[num_users=3] = call_function[target=torch.ops.aten.slice.Tensor](args = (%permute_2, 3, -64, 9223372036854775807), kwargs = {})
#   %convert_element_type_11 : Tensor "f32[4, 1, 512, 64][32768, 64, 64, 1]cuda:0"[num_users=1] = call_function[target=torch.ops.prims.convert_element_type.default](args = (%slice_6, torch.float32), kwargs = {})
#   %unsqueeze_10 : Tensor "bf16[1, 512, 32, 1][16384, 1, 512, 1]cuda:0"[num_users=1] = call_function[target=torch.ops.aten.unsqueeze.default](args = (%convert_element_type_5, 3), kwargs = {})
#   %expand_6 : Tensor "bf16[1, 512, 32, 2][16384, 1, 512, 0]cuda:0"[num_users=1] = call_function[target=torch.ops.aten.expand.default](args = (%unsqueeze_10, [1, 512, 32, 2]), kwargs = {})
#   %clone_2 : Tensor "bf16[1, 512, 32, 2][32768, 64, 2, 1]cuda:0"[num_users=1] = call_function[target=torch.ops.aten.clone.default](args = (%expand_6,), kwargs = {memory_format: torch.contiguous_format})
#   %view_8 : Tensor "bf16[1, 512, 64][32768, 64, 1]cuda:0"[num_users=1] = call_function[target=torch.ops.aten.reshape.default](args = (%clone_2, [1, 512, 64]), kwargs = {})
#   %unsqueeze_11 : Tensor "bf16[1, 1, 512, 64][32768, 32768, 64, 1]cuda:0"[num_users=1] = call_function[target=torch.ops.aten.unsqueeze.default](args = (%view_8, 1), kwargs = {})
#   %mul_8 : Tensor "f32[4, 1, 512, 64][32768, 64, 64, 1]cuda:0"[num_users=1] = call_function[target=torch.ops.aten.mul.Tensor](args = (%convert_element_type_11, %unsqueeze_11), kwargs = {})
#   %slice_7 : Tensor "bf16[4, 1, 512, 32][262144, 512, 512, 2]cuda:0"[num_users=1] = call_function[target=torch.ops.aten.slice.Tensor](args = (%slice_6, 3, 1, 9223372036854775807, 2), kwargs = {})
#   %neg_1 : Tensor "bf16[4, 1, 512, 32][16384, 32, 32, 1]cuda:0"[num_users=1] = call_function[target=torch.ops.aten.neg.default](args = (%slice_7,), kwargs = {})
#   %unsqueeze_12 : Tensor "bf16[4, 1, 512, 32, 1][16384, 32, 32, 1, 1]cuda:0"[num_users=1] = call_function[target=torch.ops.aten.unsqueeze.default](args = (%neg_1, 4), kwargs = {})
#   %slice_8 : Tensor "bf16[4, 1, 512, 32][262144, 512, 512, 2]cuda:0"[num_users=1] = call_function[target=torch.ops.aten.slice.Tensor](args = (%slice_6, 3, 0, 9223372036854775807, 2), kwargs = {})
#   %unsqueeze_13 : Tensor "bf16[4, 1, 512, 32, 1][262144, 512, 512, 2, 1]cuda:0"[num_users=1] = call_function[target=torch.ops.aten.unsqueeze.default](args = (%slice_8, 4), kwargs = {})
#   %cat_2 : Tensor "bf16[4, 1, 512, 32, 2][32768, 32768, 64, 2, 1]cuda:0"[num_users=1] = call_function[target=torch.ops.aten.cat.default](args = ([%unsqueeze_12, %unsqueeze_13], -1), kwargs = {})
#   %view_9 : Tensor "bf16[4, 1, 512, 64][32768, 32768, 64, 1]cuda:0"[num_users=1] = call_function[target=torch.ops.aten.reshape.default](args = (%cat_2, [4, 1, 512, 64]), kwargs = {})
#   %convert_element_type_12 : Tensor "f32[4, 1, 512, 64][32768, 32768, 64, 1]cuda:0"[num_users=1] = call_function[target=torch.ops.prims.convert_element_type.default](args = (%view_9, torch.float32), kwargs = {})
#   %unsqueeze_14 : Tensor "bf16[1, 512, 32, 1][16384, 1, 512, 1]cuda:0"[num_users=1] = call_function[target=torch.ops.aten.unsqueeze.default](args = (%convert_element_type_7, 3), kwargs = {})
#   %expand_7 : Tensor "bf16[1, 512, 32, 2][16384, 1, 512, 0]cuda:0"[num_users=1] = call_function[target=torch.ops.aten.expand.default](args = (%unsqueeze_14, [1, 512, 32, 2]), kwargs = {})
#   %clone_3 : Tensor "bf16[1, 512, 32, 2][32768, 64, 2, 1]cuda:0"[num_users=1] = call_function[target=torch.ops.aten.clone.default](args = (%expand_7,), kwargs = {memory_format: torch.contiguous_format})
#   %view_10 : Tensor "bf16[1, 512, 64][32768, 64, 1]cuda:0"[num_users=1] = call_function[target=torch.ops.aten.reshape.default](args = (%clone_3, [1, 512, 64]), kwargs = {})
#   %unsqueeze_15 : Tensor "bf16[1, 1, 512, 64][32768, 32768, 64, 1]cuda:0"[num_users=1] = call_function[target=torch.ops.aten.unsqueeze.default](args = (%view_10, 1), kwargs = {})
#   %mul_9 : Tensor "f32[4, 1, 512, 64][32768, 32768, 64, 1]cuda:0"[num_users=1] = call_function[target=torch.ops.aten.mul.Tensor](args = (%convert_element_type_12, %unsqueeze_15), kwargs = {})
#   %add_4 : Tensor "f32[4, 1, 512, 64][32768, 64, 64, 1]cuda:0"[num_users=1] = call_function[target=torch.ops.aten.add.Tensor](args = (%mul_8, %mul_9), kwargs = {})
#   return %convert_element_type_12,%add_4
triton_poi_fused_add_cat_clone_convert_element_type_cos_expand_iota_mean_mul_neg_permute_pow_rsqrt_sin_slice_unsqueeze_view_4 = async_compile.triton('triton_poi_fused_add_cat_clone_convert_element_type_cos_expand_iota_mean_mul_neg_permute_pow_rsqrt_sin_slice_unsqueeze_view_4', '''
import triton
import triton.language as tl

from torch._inductor.runtime import triton_helpers, triton_heuristics
from torch._inductor.runtime.triton_helpers import libdevice, math as tl_math
from torch._inductor.runtime.hints import AutotuneHint, ReductionHint, TileHint, DeviceProperties
triton_helpers.set_driver_to_gpu()

@triton_heuristics.pointwise(
    size_hints={'x': 131072}, 
    filename=__file__,
    triton_meta={'signature': {'in_out_ptr0': '*fp32', 'in_ptr0': '*bf16', 'in_ptr1': '*bf16', 'in_ptr2': '*fp32', 'in_ptr3': '*bf16', 'xnumel': 'i32', 'XBLOCK': 'constexpr'}, 'device': DeviceProperties(type='cuda', index=0, multi_processor_count=148, cc=100, major=10, regs_per_multiprocessor=65536, max_threads_per_multi_processor=2048, max_threads_per_block=1024, warp_size=32), 'constants': {}, 'native_matmul': False, 'enable_fp_fusion': True, 'launch_pdl': False, 'disable_ftz': False, 'configs': [{(0,): [['tt.divisibility', 16]], (1,): [['tt.divisibility', 16]], (2,): [['tt.divisibility', 16]], (3,): [['tt.divisibility', 16]], (4,): [['tt.divisibility', 16]], (5,): [['tt.divisibility', 16]]}]},
    inductor_meta={'grid_type': 'Grid1D', 'autotune_hints': set(), 'kernel_name': 'triton_poi_fused_add_cat_clone_convert_element_type_cos_expand_iota_mean_mul_neg_permute_pow_rsqrt_sin_slice_unsqueeze_view_4', 'mutated_arg_names': ['in_out_ptr0'], 'optimize_mem': True, 'no_x_dim': False, 'atomic_add_found': False, 'num_load': 10, 'num_store': 1, 'num_reduction': 0, 'backend_hash': '24DD4EB3E46C537527C82D44AE961C79D45917162D3A4C30BD79DDC26D6A401F', 'assert_indirect_indexing': True, 'autotune_local_cache': True, 'autotune_pointwise': True, 'autotune_remote_cache': None, 'force_disable_caches': False, 'dynamic_scale_rblock': True, 'max_autotune': False, 'max_autotune_pointwise': False, 'min_split_scan_rblock': 256, 'spill_threshold': 16, 'store_cubin': False, 'deterministic': False, 'force_filter_reduction_configs': False, 'mix_order_reduction_allow_multi_stages': True, 'are_deterministic_algorithms_enabled': False, 'coordinate_descent_tuning': True, 'coordinate_descent_search_radius': 1, 'coordinate_descent_check_all_directions': False, 'tiling_scores': {'x': 1835456}},
    min_elem_per_thread=0
)
@triton.jit
def triton_poi_fused_add_cat_clone_convert_element_type_cos_expand_iota_mean_mul_neg_permute_pow_rsqrt_sin_slice_unsqueeze_view_4(in_out_ptr0, in_ptr0, in_ptr1, in_ptr2, in_ptr3, xnumel, XBLOCK : tl.constexpr):
    xnumel = 131072
    xoffset = tl.program_id(0) * XBLOCK
    xindex = xoffset + tl.arange(0, XBLOCK)[:]
    xmask = tl.full([XBLOCK], True, tl.int1)[:]
    x4 = xindex
    x0 = (xindex % 64)
    x1 = xindex // 64
    x2 = ((xindex // 64) % 512)
    tmp39 = tl.load(in_ptr0 + (448 + x0), None, eviction_policy='evict_last').to(tl.float32)
    tmp40 = tl.load(in_ptr1 + (448 + x0 + 512*x1), None).to(tl.float32)
    tmp42 = tl.load(in_ptr2 + (x1), None, eviction_policy='evict_last')
    tmp52 = tl.load(in_ptr3 + (x0 // 2), None, eviction_policy='evict_last').to(tl.float32)
    tmp0 = (x4 % 2)
    tmp1 = tl.full([1], 0, tl.int64)
    tmp2 = tmp0 >= tmp1
    tmp3 = tl.full([1], 1, tl.int64)
    tmp4 = tmp0 < tmp3
    tmp5 = tl.load(in_ptr0 + (449 + 2*(x0 // 2)), tmp4, eviction_policy='evict_last', other=0.0).to(tl.float32)
    tmp6 = tl.load(in_ptr1 + (449 + 2*(x0 // 2) + 512*x1), tmp4, eviction_policy='evict_last', other=0.0).to(tl.float32)
    tmp7 = tmp6.to(tl.float32)
    tmp8 = tl.load(in_ptr2 + (x1), tmp4, eviction_policy='evict_last', other=0.0)
    tmp9 = tl.full([1], 512.0, tl.float32)
    tmp10 = (tmp8 / tmp9)
    tmp11 = tl.full([1], 1e-06, tl.float32)
    tmp12 = tmp10 + tmp11
    tmp13 = libdevice.rsqrt(tmp12)
    tmp14 = tmp7 * tmp13
    tmp15 = tmp14.to(tl.float32)
    tmp16 = tmp5 * tmp15
    tmp17 = -tmp16
    tmp18 = tl.full(tmp17.shape, 0.0, tmp17.dtype)
    tmp19 = tl.where(tmp4, tmp17, tmp18)
    tmp20 = tmp0 >= tmp3
    tmp21 = tl.full([1], 2, tl.int64)
    tmp22 = tmp0 < tmp21
    tmp23 = tl.load(in_ptr0 + (448 + 2*(x0 // 2)), tmp20, eviction_policy='evict_last', other=0.0).to(tl.float32)
    tmp24 = tl.load(in_ptr1 + (448 + 2*(x0 // 2) + 512*x1), tmp20, eviction_policy='evict_last', other=0.0).to(tl.float32)
    tmp25 = tmp24.to(tl.float32)
    tmp26 = tl.load(in_ptr2 + (x1), tmp20, eviction_policy='evict_last', other=0.0)
    tmp27 = tl.full([1], 512.0, tl.float32)
    tmp28 = (tmp26 / tmp27)
    tmp29 = tl.full([1], 1e-06, tl.float32)
    tmp30 = tmp28 + tmp29
    tmp31 = libdevice.rsqrt(tmp30)
    tmp32 = tmp25 * tmp31
    tmp33 = tmp32.to(tl.float32)
    tmp34 = tmp23 * tmp33
    tmp35 = tl.full(tmp34.shape, 0.0, tmp34.dtype)
    tmp36 = tl.where(tmp20, tmp34, tmp35)
    tmp37 = tl.where(tmp4, tmp19, tmp36)
    tmp38 = tmp37.to(tl.float32)
    tmp41 = tmp40.to(tl.float32)
    tmp43 = tl.full([1], 512.0, tl.float32)
    tmp44 = (tmp42 / tmp43)
    tmp45 = tl.full([1], 1e-06, tl.float32)
    tmp46 = tmp44 + tmp45
    tmp47 = libdevice.rsqrt(tmp46)
    tmp48 = tmp41 * tmp47
    tmp49 = tmp48.to(tl.float32)
    tmp50 = tmp39 * tmp49
    tmp51 = tmp50.to(tl.float32)
    tmp53 = tmp52.to(tl.float32)
    tmp54 = x2
    tmp55 = tmp54.to(tl.float32)
    tmp56 = tmp53 * tmp55
    tmp57 = tl_math.cos(tmp56)
    tmp58 = tl.full([1], 1.2772588722239782, tl.float32)
    tmp59 = tmp57 * tmp58
    tmp60 = tmp59.to(tl.float32)
    tmp61 = tmp60.to(tl.float32)
    tmp62 = tmp51 * tmp61
    tmp63 = tl_math.sin(tmp56)
    tmp64 = tmp63 * tmp58
    tmp65 = tmp64.to(tl.float32)
    tmp66 = tmp65.to(tl.float32)
    tmp67 = tmp38 * tmp66
    tmp68 = tmp62 + tmp67
    tl.store(in_out_ptr0 + (x4), tmp68, None)
''', device_str='cuda')


# kernel path: /tmp/tmph63d0qgb/e2/ce2ssj5s7te6cncomkcaaqbu57rqspqmmhovnrxm7vdgvbzxilj7.py
# Topologically Sorted Source Nodes: [reshape_default_6, convert_element_type_default_9, pow_tensor_scalar_1, mean_dim_1, add_tensor_3, rsqrt_default_1, mul_tensor_6, convert_element_type_default_10, mul_tensor_7, reshape_default_7, permute_default_2, slice_tensor_4, convert_element_type_default_13, cat_default_3, unsqueeze_default_16, expand_default_8, reshape_default_11, permute_default_3, clone_default_4], Original ATen: [aten.view, prims.convert_element_type, aten.pow, aten.mean, aten.add, aten.rsqrt, aten.mul, aten.permute, aten.slice, aten.cat, aten.unsqueeze, aten.expand, aten.clone]
# Source node to ATen node mapping:
#   add_tensor_3 => add_3
#   cat_default_3 => cat_3
#   clone_default_4 => clone_4
#   convert_element_type_default_10 => convert_element_type_10
#   convert_element_type_default_13 => convert_element_type_13
#   convert_element_type_default_9 => convert_element_type_9
#   expand_default_8 => expand_8
#   mean_dim_1 => mean_1
#   mul_tensor_6 => mul_6
#   mul_tensor_7 => mul_7
#   permute_default_2 => permute_2
#   permute_default_3 => permute_3
#   pow_tensor_scalar_1 => pow_2
#   reshape_default_11 => view_11
#   reshape_default_6 => view_6
#   reshape_default_7 => view_7
#   rsqrt_default_1 => rsqrt_1
#   slice_tensor_4 => slice_5
#   unsqueeze_default_16 => unsqueeze_16
# Graph fragment:
#   %arg3_1 : Tensor "bf16[512][1]cuda:0" = PlaceHolder[target=arg3_1]
#   %arg2_1 : Tensor "bf16[2048, 512][512, 1]cuda:0" = PlaceHolder[target=arg2_1]
#   %buf3 : Tensor "f32[4, 512, 1][512, 1, 2048]cuda:0" = PlaceHolder[target=buf3]
#   %add_4 : Tensor "f32[4, 1, 512, 64][32768, 131072, 64, 1]cuda:0" = PlaceHolder[target=add_4]
#   %view_6 : Tensor "bf16[4, 512, 512][262144, 512, 1]cuda:0"[num_users=1] = call_function[target=torch.ops.aten.reshape.default](args = (%arg2_1, [4, 512, 512]), kwargs = {})
#   %convert_element_type_9 : Tensor "f32[4, 512, 512][262144, 512, 1]cuda:0"[num_users=2] = call_function[target=torch.ops.prims.convert_element_type.default](args = (%view_6, torch.float32), kwargs = {})
#   %pow_2 : Tensor "f32[4, 512, 512][262144, 512, 1]cuda:0"[num_users=1] = call_function[target=torch.ops.aten.pow.Tensor_Scalar](args = (%convert_element_type_9, 2), kwargs = {})
#   %mean_1 : Tensor "f32[4, 512, 1][512, 1, 1]cuda:0"[num_users=1] = call_function[target=torch.ops.aten.mean.dim](args = (%pow_2, [-1], True), kwargs = {})
#   %add_3 : Tensor "f32[4, 512, 1][512, 1, 1]cuda:0"[num_users=1] = call_function[target=torch.ops.aten.add.Tensor](args = (%mean_1, 1e-06), kwargs = {})
#   %rsqrt_1 : Tensor "f32[4, 512, 1][512, 1, 1]cuda:0"[num_users=1] = call_function[target=torch.ops.aten.rsqrt.default](args = (%add_3,), kwargs = {})
#   %mul_6 : Tensor "f32[4, 512, 512][262144, 512, 1]cuda:0"[num_users=1] = call_function[target=torch.ops.aten.mul.Tensor](args = (%convert_element_type_9, %rsqrt_1), kwargs = {})
#   %convert_element_type_10 : Tensor "bf16[4, 512, 512][262144, 512, 1]cuda:0"[num_users=1] = call_function[target=torch.ops.prims.convert_element_type.default](args = (%mul_6, torch.bfloat16), kwargs = {})
#   %mul_7 : Tensor "bf16[4, 512, 512][262144, 512, 1]cuda:0"[num_users=1] = call_function[target=torch.ops.aten.mul.Tensor](args = (%arg3_1, %convert_element_type_10), kwargs = {})
#   %view_7 : Tensor "bf16[4, 512, 1, 512][262144, 512, 512, 1]cuda:0"[num_users=1] = call_function[target=torch.ops.aten.reshape.default](args = (%mul_7, [4, 512, -1, 512]), kwargs = {})
#   %permute_2 : Tensor "bf16[4, 1, 512, 512][262144, 512, 512, 1]cuda:0"[num_users=2] = call_function[target=torch.ops.aten.permute.default](args = (%view_7, [0, 2, 1, 3]), kwargs = {})
#   %slice_5 : Tensor "bf16[4, 1, 512, 448][262144, 512, 512, 1]cuda:0"[num_users=1] = call_function[target=torch.ops.aten.slice.Tensor](args = (%permute_2, 3, 0, -64), kwargs = {})
#   %convert_element_type_13 : Tensor "bf16[4, 1, 512, 64][32768, 64, 64, 1]cuda:0"[num_users=1] = call_function[target=torch.ops.prims.convert_element_type.default](args = (%add_4, torch.bfloat16), kwargs = {})
#   %cat_3 : Tensor "bf16[4, 1, 512, 512][262144, 262144, 512, 1]cuda:0"[num_users=1] = call_function[target=torch.ops.aten.cat.default](args = ([%slice_5, %convert_element_type_13], -1), kwargs = {})
#   %unsqueeze_16 : Tensor "bf16[4, 1, 1, 512, 512][262144, 262144, 262144, 512, 1]cuda:0"[num_users=1] = call_function[target=torch.ops.aten.unsqueeze.default](args = (%cat_3, 2), kwargs = {})
#   %expand_8 : Tensor "bf16[4, 1, 64, 512, 512][262144, 262144, 0, 512, 1]cuda:0"[num_users=1] = call_function[target=torch.ops.aten.expand.default](args = (%unsqueeze_16, [4, 1, 64, 512, 512]), kwargs = {})
#   %view_11 : Tensor "bf16[4, 64, 512, 512][262144, 0, 512, 1]cuda:0"[num_users=1] = call_function[target=torch.ops.aten.reshape.default](args = (%expand_8, [4, 64, 512, 512]), kwargs = {})
#   %permute_3 : Tensor "bf16[4, 64, 512, 512][262144, 0, 1, 512]cuda:0"[num_users=1] = call_function[target=torch.ops.aten.permute.default](args = (%view_11, [0, 1, 3, 2]), kwargs = {})
#   %clone_4 : Tensor "bf16[4, 64, 512, 512][16777216, 262144, 512, 1]cuda:0"[num_users=1] = call_function[target=torch.ops.aten.clone.default](args = (%expand_9,), kwargs = {memory_format: torch.contiguous_format})
#   return %clone_4
triton_poi_fused_add_cat_clone_convert_element_type_expand_mean_mul_permute_pow_rsqrt_slice_unsqueeze_view_5 = async_compile.triton('triton_poi_fused_add_cat_clone_convert_element_type_expand_mean_mul_permute_pow_rsqrt_slice_unsqueeze_view_5', '''
import triton
import triton.language as tl

from torch._inductor.runtime import triton_helpers, triton_heuristics
from torch._inductor.runtime.triton_helpers import libdevice, math as tl_math
from torch._inductor.runtime.hints import AutotuneHint, ReductionHint, TileHint, DeviceProperties
triton_helpers.set_driver_to_gpu()

@triton_heuristics.pointwise(
    size_hints={'y': 131072, 'x': 512}, tile_hint=TileHint.DEFAULT,
    filename=__file__,
    triton_meta={'signature': {'in_ptr0': '*bf16', 'in_ptr1': '*bf16', 'in_ptr2': '*fp32', 'in_ptr3': '*fp32', 'out_ptr0': '*bf16', 'ynumel': 'i32', 'xnumel': 'i32', 'YBLOCK': 'constexpr', 'XBLOCK': 'constexpr'}, 'device': DeviceProperties(type='cuda', index=0, multi_processor_count=148, cc=100, major=10, regs_per_multiprocessor=65536, max_threads_per_multi_processor=2048, max_threads_per_block=1024, warp_size=32), 'constants': {}, 'native_matmul': False, 'enable_fp_fusion': True, 'launch_pdl': False, 'disable_ftz': False, 'configs': [{(0,): [['tt.divisibility', 16]], (1,): [['tt.divisibility', 16]], (2,): [['tt.divisibility', 16]], (3,): [['tt.divisibility', 16]], (4,): [['tt.divisibility', 16]], (5,): [['tt.divisibility', 16]], (6,): [['tt.divisibility', 16]]}]},
    inductor_meta={'grid_type': 'Grid2DWithYZOverflow', 'autotune_hints': set(), 'kernel_name': 'triton_poi_fused_add_cat_clone_convert_element_type_expand_mean_mul_permute_pow_rsqrt_slice_unsqueeze_view_5', 'mutated_arg_names': [], 'optimize_mem': True, 'no_x_dim': False, 'atomic_add_found': False, 'num_load': 4, 'num_store': 1, 'num_reduction': 0, 'backend_hash': '24DD4EB3E46C537527C82D44AE961C79D45917162D3A4C30BD79DDC26D6A401F', 'assert_indirect_indexing': True, 'autotune_local_cache': True, 'autotune_pointwise': True, 'autotune_remote_cache': None, 'force_disable_caches': False, 'dynamic_scale_rblock': True, 'max_autotune': False, 'max_autotune_pointwise': False, 'min_split_scan_rblock': 256, 'spill_threshold': 16, 'store_cubin': False, 'deterministic': False, 'force_filter_reduction_configs': False, 'mix_order_reduction_allow_multi_stages': True, 'are_deterministic_algorithms_enabled': False, 'coordinate_descent_tuning': True, 'coordinate_descent_search_radius': 1, 'coordinate_descent_check_all_directions': False, 'tiling_scores': {'y': 268443648, 'x': 2622464}},
    min_elem_per_thread=0
)
@triton.jit
def triton_poi_fused_add_cat_clone_convert_element_type_expand_mean_mul_permute_pow_rsqrt_slice_unsqueeze_view_5(in_ptr0, in_ptr1, in_ptr2, in_ptr3, out_ptr0, ynumel, xnumel, YBLOCK : tl.constexpr, XBLOCK : tl.constexpr):
    ynumel = 131072
    xnumel = 512
    yoffset = (tl.program_id(1) + tl.program_id(2) * tl.num_programs(1)) * YBLOCK
    yindex = yoffset + tl.arange(0, YBLOCK)[:, None]
    ymask = yindex < ynumel
    xoffset = tl.program_id(0) * XBLOCK
    xindex = xoffset + tl.arange(0, XBLOCK)[None, :]
    xmask = xindex < xnumel
    x3 = xindex
    y0 = (yindex % 512)
    y2 = yindex // 32768
    y5 = yindex // 512
    tmp0 = x3
    tmp1 = tl.full([1, 1], 0, tl.int64)
    tmp2 = tmp0 >= tmp1
    tmp3 = tl.full([1, 1], 448, tl.int64)
    tmp4 = tmp0 < tmp3
    tmp5 = tl.load(in_ptr0 + (tl.broadcast_to(x3, [YBLOCK, XBLOCK])), tmp4 & xmask & ymask, eviction_policy='evict_last', other=0.0).to(tl.float32)
    tmp6 = tl.load(in_ptr1 + (512*y0 + 262144*y2 + (x3)), tmp4 & xmask & ymask, eviction_policy='evict_last', other=0.0).to(tl.float32)
    tmp7 = tmp6.to(tl.float32)
    tmp8 = tl.load(in_ptr2 + (tl.broadcast_to(y0 + 512*y2, [YBLOCK, XBLOCK])), tmp4 & xmask & ymask, eviction_policy='evict_last', other=0.0)
    tmp9 = tl.full([1, 1], 512.0, tl.float32)
    tmp10 = (tmp8 / tmp9)
    tmp11 = tl.full([1, 1], 1e-06, tl.float32)
    tmp12 = tmp10 + tmp11
    tmp13 = libdevice.rsqrt(tmp12)
    tmp14 = tmp7 * tmp13
    tmp15 = tmp14.to(tl.float32)
    tmp16 = tmp5 * tmp15
    tmp17 = tl.full(tmp16.shape, 0.0, tmp16.dtype)
    tmp18 = tl.where(tmp4, tmp16, tmp17)
    tmp19 = tmp0 >= tmp3
    tmp20 = tl.full([1, 1], 512, tl.int64)
    tmp21 = tmp0 < tmp20
    tmp22 = tl.load(in_ptr3 + (64*y0 + 32768*y2 + ((-448) + x3)), tmp19 & xmask & ymask, eviction_policy='evict_last', other=0.0)
    tmp23 = tmp22.to(tl.float32)
    tmp24 = tl.full(tmp23.shape, 0.0, tmp23.dtype)
    tmp25 = tl.where(tmp19, tmp23, tmp24)
    tmp26 = tl.where(tmp4, tmp18, tmp25)
    tl.store(out_ptr0 + (y0 + 512*x3 + 262144*y5), tmp26, xmask & ymask)
''', device_str='cuda')


async_compile.wait(globals())
del async_compile

class Runner:
    def __init__(self, partitions):
        self.partitions = partitions

    def recursively_apply_fns(self, fns):
        new_callables = []
        for fn, c in zip(fns, self.partitions):
            new_callables.append(fn(c))
        self.partitions = new_callables

    def call(self, args):
        arg0_1, arg1_1, arg2_1, arg3_1 = args
        args.clear()
        assert_size_stride(arg0_1, (2048, 32768), (32768, 1))
        with torch.cuda._DeviceGuard(0):
            torch.cuda.set_device(0)
            arg0_1 = copy_if_misaligned(arg0_1)
            buf0 = empty_strided_cuda((4, 64, 512, 1), (32768, 1, 64, 131072), torch.float32)
            # Topologically Sorted Source Nodes: [reshape_default, reshape_default_1, permute_default, convert_element_type_default, pow_tensor_scalar, mean_dim], Original ATen: [aten.view, aten.permute, prims.convert_element_type, aten.pow, aten.mean]
            stream0 = get_raw_stream(0)
            triton_per_fused_convert_element_type_mean_permute_pow_view_0.run(arg0_1, buf0, 131072, 512, stream=stream0)
            assert_size_stride(arg1_1, (32, ), (1, ))
            arg1_1 = copy_if_misaligned(arg1_1)
            buf1 = empty_strided_cuda((4, 64, 512, 64), (2097152, 64, 4096, 1), torch.float32)
            # Topologically Sorted Source Nodes: [reshape_default, reshape_default_1, permute_default, convert_element_type_default, pow_tensor_scalar, mean_dim, add_tensor, rsqrt_default, convert_element_type_default_1, mul_tensor, slice_tensor_1, unsqueeze_default, unsqueeze_default_1, convert_element_type_default_3, expand_default, iota_default, add_tensor_1, unsqueeze_default_2, unsqueeze_default_3, convert_element_type_default_4, mul_tensor_1, permute_default_1, slice_tensor_2, neg_default, unsqueeze_default_6, slice_tensor_3, unsqueeze_default_7, cat_default, reshape_default_3, convert_element_type_default_6, sin_default, mul_tensor_4, convert_element_type_default_7, unsqueeze_default_8, expand_default_4, clone_default_1, reshape_default_4, unsqueeze_default_9, mul_tensor_5], Original ATen: [aten.view, aten.permute, prims.convert_element_type, aten.pow, aten.mean, aten.add, aten.rsqrt, aten.mul, aten.slice, aten.unsqueeze, aten.expand, prims.iota, aten.neg, aten.cat, aten.sin, aten.clone]
            stream0 = get_raw_stream(0)
            triton_poi_fused_add_cat_clone_convert_element_type_expand_iota_mean_mul_neg_permute_pow_rsqrt_sin_slice_unsqueeze_view_1.run(arg0_1, buf0, arg1_1, buf1, 131072, 64, stream=stream0)
            buf2 = empty_strided_cuda((4, 64, 512, 512), (16777216, 262144, 512, 1), torch.bfloat16)
            # Topologically Sorted Source Nodes: [reshape_default, reshape_default_1, permute_default, convert_element_type_default, pow_tensor_scalar, mean_dim, add_tensor, rsqrt_default, convert_element_type_default_1, mul_tensor, slice_tensor, slice_tensor_1, convert_element_type_default_2, unsqueeze_default, unsqueeze_default_1, convert_element_type_default_3, expand_default, iota_default, add_tensor_1, unsqueeze_default_2, unsqueeze_default_3, convert_element_type_default_4, mul_tensor_1, permute_default_1, cos_default, mul_tensor_2, convert_element_type_default_5, unsqueeze_default_4, expand_default_3, clone_default, reshape_default_2, unsqueeze_default_5, mul_tensor_3, add_tensor_2, convert_element_type_default_8, cat_default_1], Original ATen: [aten.view, aten.permute, prims.convert_element_type, aten.pow, aten.mean, aten.add, aten.rsqrt, aten.mul, aten.slice, aten.unsqueeze, aten.expand, prims.iota, aten.cos, aten.clone, aten.cat]
            stream0 = get_raw_stream(0)
            triton_poi_fused_add_cat_clone_convert_element_type_cos_expand_iota_mean_mul_permute_pow_rsqrt_slice_unsqueeze_view_2.run(arg0_1, buf0, arg1_1, buf1, buf2, 67108864, stream=stream0)
            del arg0_1
            del buf1
            assert_size_stride(arg2_1, (2048, 512), (512, 1))
            arg2_1 = copy_if_misaligned(arg2_1)
            buf3 = empty_strided_cuda((4, 512, 1), (512, 1, 2048), torch.float32)
            # Topologically Sorted Source Nodes: [reshape_default_6, convert_element_type_default_9, pow_tensor_scalar_1, mean_dim_1], Original ATen: [aten.view, prims.convert_element_type, aten.pow, aten.mean]
            stream0 = get_raw_stream(0)
            triton_per_fused_convert_element_type_mean_pow_view_3.run(arg2_1, buf3, 2048, 512, stream=stream0)
            assert_size_stride(arg3_1, (512, ), (1, ))
            arg3_1 = copy_if_misaligned(arg3_1)
            buf4 = reinterpret_tensor(buf0, (4, 1, 512, 64), (32768, 131072, 64, 1), 0); del buf0  # reuse
            buf5 = buf4; del buf4  # reuse
            # Topologically Sorted Source Nodes: [unsqueeze_default, unsqueeze_default_1, convert_element_type_default_3, expand_default, iota_default, add_tensor_1, unsqueeze_default_2, unsqueeze_default_3, convert_element_type_default_4, mul_tensor_1, permute_default_1, cos_default, mul_tensor_2, convert_element_type_default_5, sin_default, mul_tensor_4, convert_element_type_default_7, reshape_default_6, convert_element_type_default_9, pow_tensor_scalar_1, mean_dim_1, add_tensor_3, rsqrt_default_1, mul_tensor_6, convert_element_type_default_10, mul_tensor_7, reshape_default_7, permute_default_2, slice_tensor_5, convert_element_type_default_11, unsqueeze_default_10, expand_default_6, clone_default_2, reshape_default_8, unsqueeze_default_11, mul_tensor_8, slice_tensor_6, neg_default_1, unsqueeze_default_12, slice_tensor_7, unsqueeze_default_13, cat_default_2, reshape_default_9, convert_element_type_default_12, unsqueeze_default_14, expand_default_7, clone_default_3, reshape_default_10, unsqueeze_default_15, mul_tensor_9, add_tensor_4], Original ATen: [aten.unsqueeze, prims.convert_element_type, aten.expand, prims.iota, aten.add, aten.mul, aten.permute, aten.cos, aten.sin, aten.view, aten.pow, aten.mean, aten.rsqrt, aten.slice, aten.clone, aten.neg, aten.cat]
            stream0 = get_raw_stream(0)
            triton_poi_fused_add_cat_clone_convert_element_type_cos_expand_iota_mean_mul_neg_permute_pow_rsqrt_sin_slice_unsqueeze_view_4.run(buf5, arg3_1, arg2_1, buf3, arg1_1, 131072, stream=stream0)
            del arg1_1
            buf6 = empty_strided_cuda((4, 64, 512, 512), (16777216, 262144, 512, 1), torch.bfloat16)
            # Topologically Sorted Source Nodes: [reshape_default_6, convert_element_type_default_9, pow_tensor_scalar_1, mean_dim_1, add_tensor_3, rsqrt_default_1, mul_tensor_6, convert_element_type_default_10, mul_tensor_7, reshape_default_7, permute_default_2, slice_tensor_4, convert_element_type_default_13, cat_default_3, unsqueeze_default_16, expand_default_8, reshape_default_11, permute_default_3, clone_default_4], Original ATen: [aten.view, prims.convert_element_type, aten.pow, aten.mean, aten.add, aten.rsqrt, aten.mul, aten.permute, aten.slice, aten.cat, aten.unsqueeze, aten.expand, aten.clone]
            stream0 = get_raw_stream(0)
            triton_poi_fused_add_cat_clone_convert_element_type_expand_mean_mul_permute_pow_rsqrt_slice_unsqueeze_view_5.run(arg3_1, arg2_1, buf3, buf5, buf6, 131072, 512, stream=stream0)
            del arg2_1
            del arg3_1
            del buf3
            del buf5
        return (reinterpret_tensor(buf2, (256, 512, 512), (262144, 512, 1), 0), reinterpret_tensor(buf6, (256, 512, 512), (262144, 512, 1), 0), )

runner = Runner(partitions=[])
call = runner.call
recursively_apply_fns = runner.recursively_apply_fns


def get_args():
    from torch._dynamo.testing import rand_strided
    arg0_1 = rand_strided((2048, 32768), (32768, 1), device='cuda:0', dtype=torch.bfloat16)
    arg1_1 = rand_strided((32, ), (1, ), device='cuda:0', dtype=torch.bfloat16)
    arg2_1 = rand_strided((2048, 512), (512, 1), device='cuda:0', dtype=torch.bfloat16)
    arg3_1 = rand_strided((512, ), (1, ), device='cuda:0', dtype=torch.bfloat16)
    return [arg0_1, arg1_1, arg2_1, arg3_1]


def benchmark_compiled_module(args, times=10, repeat=10):
    from torch._inductor.utils import print_performance
    fn = lambda: call(list(args))
    return print_performance(fn, times=times, repeat=repeat)


if __name__ == "__main__":
    from torch._inductor.wrapper_benchmark import compiled_module_main
    args = get_args()
    compiled_module_main('None', lambda times, repeat: benchmark_compiled_module(args, times=times, repeat=repeat))

[DEBUG]:Output code written to: /tmp/tmph63d0qgb/m7/cm73vs7evnd3aqfw5xsn2yo4hydotn2xgoikqgotdw46cjvoxh5s.py
[INFO]:Output code written to: /tmp/tmph63d0qgb/m7/cm73vs7evnd3aqfw5xsn2yo4hydotn2xgoikqgotdw46cjvoxh5s.py
